models/Basel_QNN_2026-02-03_49e_16h_5l.pth (torch, 3577 bytes, 3 tensors)

qlayer.weights f4 [5, 8, 3]
0	0x403e2800	2.9711914
1	0x3fb544fb	1.4161676
2	0x406b1163	3.6729362
3	0x3ff6a4dd	1.9269062
4	0x408fe088	4.4961586
5	0x3f07ed0e	0.5309609
6	0x4046e457	3.1076868
7	0x3fc7be25	1.5604903
8	0x40ad9ee2	5.425645
9	0x404821c9	3.127062
10	0x3ef8c98a	0.48591262
11	0x3ea5f5ca	0.32414085
12	0x40cd46e3	6.414903
13	0x3f767def	0.9628591
14	0x403ac798	2.9184322
15	0x3ffde4cc	1.9835448
16	0x4043d707	3.0599992
17	0x40a89117	5.267711
18	0x4094b312	4.646859
19	0x406dd6f0	3.7162437
20	0xbddd37a4	-0.10801628
21	0x408be5cb	4.371801
22	0x408b5716	4.3543806
23	0x4072b97e	3.7925715
24	0x3f05842e	0.52154815
25	0x3fb83fb4	1.4394441
26	0x40b280a1	5.578202
27	0x40b3d6f7	5.619991
28	0x4041f4b1	3.0305598
29	0x40c50d49	6.1578717
30	0x3ecc007a	0.39844114
31	0x409836d6	4.756694
32	0x40a71948	5.221836
33	0x4042e977	3.0454996
34	0x4061b2b2	3.5265317
35	0x4082c401	4.0864263
36	0x406651da	3.5987458
37	0x4079b6af	3.9017751
38	0x40b76ae6	5.731799
39	0x3fda5a3a	1.7058785
40	0x3f89a6a4	1.075398
41	0x40928d78	4.579769
42	0x402f9da8	2.7439976
43	0x3fa5788d	1.2927414
44	0x40851d52	4.159829
45	0x3ee64aef	0.44979045
46	0x3f97cf38	1.1860113
47	0x3fa958b1	1.3230191
48	0x4032c5c3	2.7933204
49	0x408eea72	4.466119
50	0x3fef4c0d	1.8695084
51	0x3fcd8823	1.6057171
52	0x4093e1e6	4.6213255
53	0x3bda0120	0.006652966
54	0x40674004	3.6132822
55	0x3f5a7e87	0.85349315
56	0x406968eb	3.6470287
57	0x3ea161b2	0.31519848
58	0x3e6a5eb8	0.22887695
59	0x40a2f0c8	5.0918922
60	0x408bbcd4	4.3668003
61	0x4082d1a4	4.088091
62	0x4064e286	3.576326
63	0x4011abcb	2.2761104
64	0x406e2b4a	3.7213922
65	0x401499f0	2.3218956
66	0x40807982	4.0148325
67	0x4061a44e	3.5256534
68	0x3f8319e7	1.024228
69	0x40b46fc8	5.638645
70	0x3fb82f9b	1.4389528
71	0x40aeab11	5.458382
72	0x40b6f0e8	5.7169075
73	0x3fd27b75	1.6443926
74	0x402e2511	2.7210124
75	0x3fe98c2b	1.8245901
76	0x408024cb	4.0044913
77	0x4068e783	3.6391304
78	0x3f930cdd	1.14883
79	0x3efe141e	0.49624723
80	0x3ff40d65	1.9066588
81	0x3facd69f	1.3502997
82	0x3fc08dbe	1.5043256
83	0x3eed5aff	0.46358487
84	0x408a2ab1	4.3177114
85	0x403a7f17	2.914007
86	0x40d847a6	6.758746
87	0x40259ae8	2.5875797
88	0x3d639fc3	0.055572283
89	0x3fffd749	1.9987575
90	0x40a0aae8	5.0208626
91	0x3fbf2c09	1.4935313
92	0x3fec253a	1.8448861
93	0x4062b108	3.5420551
94	0x4086948d	4.2056336
95	0x40bf34ef	5.9752116
96	0x40b61900	5.6905518
97	0x3fd265f7	1.6437367
98	0x40750eb3	3.8290222
99	0x40a145cc	5.03977
100	0x3f94624c	1.1592498
101	0x4036ca79	2.856108
102	0x4014e0d1	2.3262217
103	0x409ac456	4.836467
104	0x40515f6b	3.2714489
105	0xbec4e239	-0.38453844
106	0x40abcea3	5.368974
107	0x3fd806bc	1.6877055
108	0x3f9cfa13	1.2263817
109	0x402dd497	2.7161005
110	0x3f473567	0.7781586
111	0x408eb841	4.459992
112	0x40b90b19	5.7826047
113	0x4090a64b	4.5202994
114	0x3ff23e94	1.8925347
115	0x4077e703	3.8734748
116	0x3fb1d2a9	1.3892413
117	0x40bb8913	5.8604827
118	0x401af444	2.4211588
119	0x409a3a7a	4.8196383

lin.weight f4 [16, 8]
0	0xbf5fccf9	-0.8742214
1	0x3e111ff1	0.14172341
2	0xbe8c1713	-0.27361354
3	0xbfd428cf	-1.6574954
4	0x3e05c309	0.13062681
5	0x4008182b	2.126475
6	0x3f14d061	0.5813046
7	0x3f70e10a	0.9409338
8	0xbf5a6ab3	-0.8531906
9	0xbe280ab6	-0.16410336
10	0xbe77d097	-0.24200664
11	0xbf5b342f	-0.856265
12	0xbe364998	-0.17801511
13	0x40161326	2.3449187
14	0xbf070b36	-0.5275148
15	0x3eba2766	0.36358184
16	0xbf738825	-0.95129615
17	0x3ee59952	0.44843537
18	0xbe6b3584	-0.22969633
19	0xbf8a15bb	-1.0787882
20	0x3debd563	0.1151531
21	0x3ffc934f	1.9732455
22	0xbf3e867f	-0.74423975
23	0x3e40f93b	0.18845074
24	0xbf511198	-0.8166747
25	0x3edac776	0.42730302
26	0xbe855ae2	-0.260459
27	0xbf655243	-0.89578646
28	0x3edb532a	0.42836887
29	0x3ffac53a	1.9591439
30	0xbf6991d7	-0.9123816
31	0x3d91c0aa	0.07116826
32	0xbf27b698	-0.6551299
33	0x3f5a7835	0.8533967
34	0xbe716be8	-0.23576319
35	0xbf61f780	-0.8826828
36	0x3eb82124	0.35962784
37	0x3fddeb67	1.7337464
38	0xbf2b3aaa	-0.6688639
39	0xbe0a944b	-0.13533132
40	0xbed1a101	-0.4094315
41	0x3eab10ad	0.3341116
42	0x3e203631	0.15645672
43	0xbf3c2433	-0.73492736
44	0x3ecd960d	0.40153542
45	0x3fd201ee	1.6406839
46	0xbf5f1d30	-0.8715391
47	0xbed238ec	-0.41059053
48	0xbed3c09b	-0.41357884
49	0xbd4f8892	-0.050667353
50	0xbe10350d	-0.14082737
51	0xbee64311	-0.44973043
52	0x3dad2ba1	0.08455587
53	0x3fae2363	1.3604549
54	0xbf8abd84	-1.0839086
55	0xbf292def	-0.66085714
56	0xbee13d1d	-0.43991938
57	0xbd5ebcbb	-0.054379206
58	0xbe9b19c9	-0.3029311
59	0xbf17c188	-0.5927968
60	0x3eb71eb4	0.35765612
61	0x3f89c0bf	1.0761946
62	0xbf6a72ab	-0.9158122
63	0xbf1dc009	-0.6162115
64	0xbcb37fdb	-0.021911552
65	0xbda7d662	-0.08195187
66	0x3e63cf30	0.22247005
67	0xbf00e520	-0.50349617
68	0x3e954eda	0.2916172
69	0x3fa143cc	1.2598815
70	0xbf45d112	-0.7727214
71	0xbf3f3f0c	-0.74705577
72	0x3d9bd6ea	0.07609351
73	0x3eef58c5	0.46747413
74	0xbc272d7b	-0.0102037145
75	0xbef79f57	-0.48363754
76	0x3f0729c2	0.5279809
77	0x3fa51ee2	1.290005
78	0xbe87f976	-0.2655751
79	0xbf2a182b	-0.6644313
80	0xbd9d6d92	-0.076869145
81	0x3f222e55	0.6335195
82	0xbee62d2a	-0.44956332
83	0xbf03fec6	-0.5156063
84	0x3f1f0e53	0.6213123
85	0x3f71f3d7	0.94512695
86	0xbeb70950	-0.35749292
87	0xbf483596	-0.78206766
88	0x3ef631af	0.4808478
89	0x3dcd4dec	0.10024628
90	0x3db81d5f	0.08989977
91	0xbe59f859	-0.21286143
92	0x3e1165ef	0.14199041
93	0x3f9315f0	1.149107
94	0xbf831985	-1.0242163
95	0xbf9a6d3f	-1.2064589
96	0x3f0fe426	0.562075
97	0x3e97b754	0.29632056
98	0xbe879eb9	-0.26488283
99	0xbdb84fe0	-0.0899961
100	0x3e64aa75	0.22330649
101	0x3f8b1e24	1.0868573
102	0xbf63795e	-0.88857067
103	0xbfa76977	-1.307906
104	0x3f562c70	0.83661556
105	0x3d1c8b33	0.03821869
106	0xbefa47bc	-0.48882854
107	0xbe7ef223	-0.24897055
108	0x3eee710d	0.46570626
109	0x3f849d85	1.0360571
110	0xbf63d7fe	-0.8900145
111	0xbf8fb445	-1.1226889
112	0x3f3f322a	0.7468592
113	0x3f22aae9	0.6354204
114	0xbf12dc8b	-0.5736777
115	0xbf29f961	-0.66396147
116	0x3f1da94f	0.6158647
117	0x3f15ad49	0.5846754
118	0xbd820397	-0.06348341
119	0xbf93e423	-1.1553997
120	0x3f8bd988	1.092576
121	0x3e0ad1b1	0.13556553
122	0xbe90716c	-0.28211534
123	0xbf203fff	-0.6259765
124	0x3e9314bc	0.28726757
125	0x3f2843cf	0.6572847
126	0x3e5d4dde	0.21611735
127	0xbf95dfc3	-1.1708912

lin.bias f4 [16]
0	0x3cb6ce4c	0.022315167
1	0x3db72c46	0.08943991
2	0x3d761b7b	0.0600848
3	0x3d6ce809	0.057838473
4	0x3d1a607c	0.03768967
5	0x3e0f9d80	0.14024925
6	0x3e40c0d4	0.18823558
7	0x3e3d082a	0.18460146
8	0x3e5db8c0	0.21652508
9	0x3e00592f	0.12534021
10	0x3dbbdf28	0.09173423
11	0x3e329094	0.17437965
12	0x3df16820	0.117874384
13	0x3d9da053	0.07696595
14	0x3d1bf141	0.038071875
15	0x3dcbb446	0.09946494
