models/Basel_QNN_2026-02-05_49e_1h_2l.pth (torch, 2672 bytes, 2 tensors)

qlayer.weights f4 [2, 8, 3]
00000000: c6ee e43d 31b1 e13f 3580 9340 520b f73e
00000010: 7e16 7f3f f060 db40 cfad fe3f 11fe 8940
00000020: 1de8 7640 e6a7 7140 48fc 8f3f 19a2 0f40
00000030: baa7 f13f 558f 8040 d535 9d40 dfb9 5b40
00000040: ab9f 2c3f 2b31 ac40 e114 3240 3991 463f
00000050: aa8e 8040 f232 853f b09b c140 964d a540
00000060: 1714 0d40 4b93 cd3f 710a 2340 9699 a240
00000070: f4c2 8a40 56b0 4340 cebc 4840 ab88 0d3f
00000080: fde9 b040 7191 0240 4b68 b940 60eb a740
00000090: 380d 4c40 45fa 9140 ffeb 2340 2dcf ea3e
000000a0: 4289 9740 d467 8040 6416 4c40 c552 9840
000000b0: 8123 4840 0046 4940 c427 c83f 2174 903e
0.11178355 1.76322 4.6094003 0.48250824 0.99643695 6.855583 1.9896792 4.312264
3.857917 3.7758727 1.1248865 2.2442687 1.8879311 4.0174966 4.9128213 3.4332197
0.67431134 5.381002 2.7825243 0.7756534 4.017415 1.0406172 6.050255 5.165721
2.2043512 1.6060575 2.5475123 5.0812483 4.336298 3.0576377 3.1365237 0.55286664
5.528563 2.040127 5.793981 5.2474823 3.1883068 4.5618005 2.561279 0.45861188
4.735505 4.0126743 3.1888666 4.7601037 3.127167 3.1448975 1.5637136 0.282136

lin.weight f4 [1, 8]
00000000: 9e70 bebe 3fb7 c33e 5c9d f63e 297c 06bf
00000010: 7ab8 d43f c9c1 0740 0bc7 dfbf 4ce9 02c0
-0.37195295 0.38225743 0.4816693 -0.52533203 1.6618798 2.1212027 -1.7482618 -2.0454893
