models/Basel_QNN_2026-02-03_49e_16h_1l.pth (torch, 3193 bytes, 3 tensors)

qlayer.weights f4 [1, 8, 3]
000000 a8 83 42 40 ba be 73 3e d8 a2 9e 40 ee 73 ad 40
       3.0392857 0.23803225 4.9573784 5.4204016
000010 96 ab 8e 40 e5 d6 6e 40 39 15 fa 3e f1 40 fd 3e
       4.4584455 3.7318661 0.48844317 0.4946361
000020 59 c7 a5 40 e5 cb 96 40 d9 0f 49 40 74 e4 49 3f
       5.1805844 4.7123895 3.1415923 0.78864217
000030 a2 d1 c9 3f c3 ab 7a 40 2f e4 d9 3f 82 99 67 40
       1.57671 3.9167335 1.7022761 3.6187444
000040 57 b4 17 40 83 a3 b8 40 da 0f 49 40 cf 95 0c 40
       2.370382 5.76996 3.1415925 2.1966436
000050 c9 f1 63 40 e6 37 94 3f 63 e3 c4 40 36 cc fc 3f
       3.5616324 1.1579559 6.152757 1.974982

lin.weight f4 [16, 8]
000000 b2 b5 71 be 8e 57 22 3f 0d fa 4a bf 73 26 85 3e
       -0.23604468 0.6341485 -0.792878 0.26005897
000010 8a 62 1e bf e4 7e 62 bf 3d 16 a1 bf b8 77 1e bf
       -0.6186911 -0.8847487 -1.2584912 -0.61901426
000020 4b 20 1a be e2 16 e4 3e f0 25 4f bf d5 9f b3 3e
       -0.15051381 0.44548708 -0.80917263 0.3508288
000030 08 70 74 be a7 2b 7b bf 6d c6 80 bf 71 df 0b bf
       -0.23870862 -0.98113483 -1.0060555 -0.5463782
000040 f2 e8 9f be 92 d7 51 3f c3 90 4b bf 57 17 8f bd
       -0.3123241 0.8196956 -0.79517764 -0.069868736
000050 24 24 cc 3d 2a 34 fd be ff db 9c bf 2c b6 8d be
       0.09967831 -0.4945386 -1.2254637 -0.2767805
000060 00 57 80 be 09 b3 29 3f 6c 09 77 bf 5f 5b 64 3b
       -0.25066376 0.6628881 -0.9649875 0.00348445
000070 05 8e 3e 3e 6b a0 18 bf fd 64 82 bf 80 93 8e 3d
       0.18608864 -0.5961978 -1.0187069 0.06961727
000080 52 2d 3c be dd 63 a2 3e 29 c6 4a bf 0d 35 72 bb
       -0.18376663 0.31716815 -0.7920862 -0.003695789
000090 0d 5f 18 3e 7e 4f 15 bf 72 12 29 bf bb d5 42 be
       0.14880009 -0.5832442 -0.6604377 -0.19026844
0000a0 89 22 41 be d9 42 bf 3e 9a 61 6a bf 59 23 84 be
       -0.1886083 0.37355688 -0.9155518 -0.25808218
0000b0 23 90 a9 3d 7b f6 05 bf fd 22 18 bf 60 f3 8d be
       0.08279445 -0.52329224 -0.5942839 -0.27724743
0000c0 b5 76 66 be 91 d0 b0 3e 5e 9e 2c bf 95 49 1a be
       -0.2250622 0.34534124 -0.6742915 -0.15067132
0000d0 2c d7 55 be 04 ba e9 be 53 09 1c bf e0 3f c8 be
       -0.20882863 -0.4564973 -0.6095173 -0.39111233
0000e0 f7 69 8f be b7 f8 ba 3e d0 63 15 bf 0e e8 7b be
       -0.28010532 0.3651788 -0.58355427 -0.2460024
0000f0 92 5e 07 bd 72 f1 4e bd 63 ba 42 bf cd 03 f5 be
       -0.033049174 -0.05052323 -0.76065654 -0.47854462
000100 4f bb d9 be 34 51 20 3f 45 05 00 bf 61 fa 93 be
       -0.42525718 0.62623906 -0.5000804 -0.2890196
000110 7b fd 86 3e e8 58 db be 7a ba af be 66 cd 81 be
       0.26365265 -0.42841268 -0.34321958 -0.2535202
000120 5d 2b ea be 29 e5 e2 3e b6 38 f7 be 64 4b 00 bd
       -0.4573621 0.4431546 -0.48285455 -0.031321898
000130 d5 62 8b be 19 95 71 be 90 29 c1 be 0b 37 18 bf
       -0.2722384 -0.23592032 -0.37727022 -0.5945899
000140 b6 a2 ec be cc 2e 8f 3e 38 7b 14 bf da a0 a7 3e
       -0.4621789 0.2796539 -0.58000517 0.32739908
000150 0d 62 12 be 39 d1 ea bd 40 ee d5 be 1e 08 f1 be
       -0.14295216 -0.11465687 -0.41783333 -0.47076505
000160 47 9d 1a bf d1 78 15 3f 91 fd c7 be 6a 47 be 3b
       -0.60396236 0.58387476 -0.39060643 0.005806853
000170 35 bf 1d 3e 9a fd f8 bd 2f 03 c9 be c3 b9 59 3e
       0.15404971 -0.12157746 -0.3926024 0.21262269
000180 de e1 1a bf 42 41 8a 3e ad e1 3e be d4 47 a8 3c
       -0.60500896 0.27002913 -0.18640776 0.020542063
000190 7c 7d 14 be 58 fb 35 3d fa fc 69 be db e9 4b 3d
       -0.14500993 0.044429153 -0.22850409 0.04978357
0001a0 2e 03 18 bf 2f 67 16 3e 40 6c 27 be 2d 26 cf 3e
       -0.5937985 0.14687799 -0.16349888 0.40458813
0001b0 55 69 f3 3d 71 dd 70 be 63 4c c4 bb 43 1b 05 be
       0.11885325 -0.23521973 -0.0059905513 -0.12998681
0001c0 64 80 25 bf c6 d3 34 3e ef df 5d be 98 e0 96 3e
       -0.64649034 0.1765891 -0.21667455 0.29468226
0001d0 3f 17 d8 3d f8 9c 86 3e 2e c5 cc be ee 3a b1 3e
       0.10551309 0.26291633 -0.39994186 0.34615272
0001e0 99 a4 33 bf f4 d9 54 3e 6a 8c 04 bd 0f db 3e 3e
       -0.7017303 0.20786268 -0.03236047 0.18638252
0001f0 93 7d 16 bd 4a 7b cb bd a4 a4 70 3d ea 71 5e be
       -0.03674085 -0.09935625 0.058750764 -0.21723142

lin.bias f4 [16]
000000 33 f3 86 3f bd 23 84 3f aa 19 32 3f da ae 1c 3f
       1.0542969 1.0323406 0.6957041 0.612043
000010 4d 8b 20 3f 37 fd ef 3e 85 9b 0f 3f 63 e9 f2 3e
       0.62712556 0.46872875 0.5609668 0.47443685
000020 4d 46 80 3e 2e a4 96 3e aa dd 9b 3e ab 8e 18 3e
       0.25053635 0.29422134 0.30442554 0.14898174
000030 b9 87 49 3e aa 57 8d 3e 4b e8 5b 3e b3 c7 22 3e
       0.1968068 0.27605945 0.21475331 0.15896492
