models/Basel_QNN_2026-02-03_49e_16h_3l.pth (torch, 3385 bytes, 3 tensors)

qlayer.weights f4 [3, 8, 3]
00000000: 2fdc 603e 68e1 2f40 ffa6 3c40 7c48 a83f
00000010: 56b0 7e40 4f28 2340 965e d03e 9203 7640
00000020: 3b95 1940 9ffe 273f aa00 8a40 f4fe 8840
00000030: 016c 3540 1353 f23f 46bc db40 1e66 cb40
00000040: af14 8c40 5e4e d23f d743 79bd 13af e63f
00000050: 49f0 cf40 25d2 2440 3f4b 273f 7dbf a840
00000060: 459b 0540 dc3f c340 2251 8c3e 20f9 0040
00000070: 1193 5d40 fd6a 2fbe d993 a240 cda9 7040
00000080: 9e62 4b40 b756 8040 5974 2e40 9b8b 8d40
00000090: 4569 4c3e 9b2b f63d d3b7 2240 cbe1 9140
000000a0: c972 0940 394e a440 3fad 8340 7664 8f40
000000b0: bd7b 09bf 8951 ad3f bb8d 9e3e 6cf2 2940
000000c0: 39a1 4e40 3f2c 2f3f 1893 b640 7c79 1e40
000000d0: e760 3640 cf22 5940 d4f5 b840 c7c7 e340
000000e0: c2db 5d40 a64d 2240 7815 d140 d222 4840
000000f0: 6857 c8bd 379f c93f 0e7a b340 98ac f03f
00000100: 0d43 e83f f204 b640 341a ab40 859a 3940
00000110: f878 4840 783e 0b40 bd76 1840 4d6f a240
0.21958993 2.7481327 2.9476926 1.314712 3.9795127 2.5493352 0.40697163 3.843968
2.3997333 0.65622896 4.312581 4.281122 2.834717 1.8931602 6.8667326 6.3562155
4.377525 1.6430166 -0.060855713 1.8022178 6.4980817 2.5753262 0.6534919 5.273375
2.087602 6.1015453 0.2740565 2.0152054 3.4621012 -0.17130657 5.080548 3.7603638
3.177894 4.0105853 2.7258513 4.4232917 0.19962032 0.12020036 2.5424697 4.5588126
2.147631 5.1345487 4.114898 4.4810133 -0.53704435 1.3540508 0.30967507 2.6554213
3.2285903 0.6842689 5.705456 2.4761648 2.8496644 3.3927495 5.7800083 7.118137
3.466538 2.5359893 6.5338707 3.1271253 -0.097822964 1.5751714 5.6086493 1.8802671
1.8145462 5.6881037 5.3469486 2.9000561 3.1323833 2.1756878 2.3822472 5.0760865

lin.weight f4 [16, 8]
00000000: 9f89 2f3e c947 a0be c5ae b23d 923d ee3d
00000010: 3614 b03d 7930 9cbf a2c8 02c0 034b 263e
00000020: f888 ff3e b944 dcbd 31ba a53e 1bd6 903e
00000030: 2e69 733e f59f f3bf 1006 e9bf 5a9f 3f3e
00000040: 1cea 1a3f 73d0 afbd fa7e 0c3f 9ceb 843e
00000050: 18d8 d93e 4cc3 17c0 56f0 c1bf 2a6b 63be
00000060: 61de 013f 091a e4be 35b9 f03e 6692 0a3e
00000070: 88c6 373f 96e8 22c0 fe13 b9bf 4735 04be
00000080: f596 263f 4e50 98bd 67f5 1c3f 2b43 5c3e
00000090: f6b4 963e c19a 17c0 5eec 89bf 2421 8a3d
000000a0: 1cea 2f3f 8e9d 24be 8588 e03e f10b d1bd
000000b0: 5b94 523e f431 05c0 a962 61bf 6625 18be
000000c0: a63b 243f 236b da3d 8bef 283f 9cde 6ebe
000000d0: 349f e23c d23e e2bf eeb5 34bf 61cf 97be
000000e0: 150b 1a3f 5fa4 52be fdeb 923e 5591 323e
000000f0: ef13 11bd c483 dbbf d5e6 16bf 9eca 443e
00000100: 35bb 533f 41d5 713d 5602 283e 8710 e1be
00000110: 97de cd3c 84ca 89bf 5a5a 29bf 3416 c2be
00000120: d69d 7f3f d002 7b3e d731 183e bc94 94be
00000130: c90e 55bd 932a 71bf a4cc 0fbf 20ac 5cbe
00000140: fd10 8c3f 5946 353d 20cb fcbd e3ac 8ebe
00000150: 6d36 15be 1ede 52bf a26e fbbe a7ca d63e
00000160: 76c6 933f 43cf 8f3e a191 df3d 726a afbe
00000170: bdf5 d13d a05d 19bf bca7 f6be 7314 81be
00000180: 6f05 a43f 6022 f23e 816e 4b3e fbff 17be
00000190: 57ec 723e ab12 ebbe 29b1 e3be d2dd e7be
000001a0: 8d5e 8c3f 1094 ac3e 5f5d b23d ba1f 763e
000001b0: e5ef 8c3e a954 24be 423c 11bf 7331 6a3e
000001c0: 5a5d 8c3f bc44 083f 6aa4 f73d e30d 63bd
000001d0: 86ae 2b3e 2213 bb3e 25d2 fabe 748b bebe
000001e0: 1d40 173f d380 113e 08ae 133e 1290 0c3e
000001f0: 4bcd 98bd 3564 e83e 4ede abbe ffe7 5bbd
0.17142342 -0.31304768 0.08724741 0.11632837 0.08597605 -1.2202293 -2.0434957 0.16239552
0.49909186 -0.10755295 0.32368615 0.2828835 0.23770592 -1.903319 -1.8204975 0.18713132
0.6051347 -0.085846804 0.5488125 0.25961006 0.4254768 -2.371295 -1.515147 -0.22208849
0.5072995 -0.44551113 0.47016302 0.13532409 0.7178731 -2.545446 -1.4459226 -0.12910949
0.6507409 -0.07437192 0.61311954 0.21509998 0.29434937 -2.3688204 -1.0775259 0.06744602
0.687166 -0.16075727 0.43854156 -0.10207356 0.20564406 -2.081174 -0.8804117 -0.14858016
0.64153516 0.10664966 0.65990514 -0.23327106 0.027663805 -1.7675421 -0.705901 -0.29650405
0.6017316 -0.20570515 0.2869567 0.17438252 -0.0354194 -1.7149587 -0.5894597 0.19217917
0.8270753 0.059041265 0.16407141 -0.43957922 0.025130553 -1.0764928 -0.6615349 -0.37907565
0.99850214 0.24512792 0.14862762 -0.29019725 -0.052016053 -0.9420559 -0.5617163 -0.21550035
1.0942684 0.044256542 -0.123434305 -0.27866277 -0.14571543 -0.82370174 -0.49107844 0.41951486
1.154494 0.28087816 0.109164484 -0.342609 0.10251949 -0.59908485 -0.48174846 -0.25210914
1.2814158 0.4729185 0.19866373 -0.14843743 0.23722969 -0.4591268 -0.444711 -0.45286423
1.0966355 0.33706713 0.087092154 0.2403554 0.27526775 -0.1604792 -0.5673257 0.22870426
1.0965989 0.5322988 0.12091906 -0.055433165 0.16765794 0.36538035 -0.48988453 -0.3721577
0.59082204 0.14209299 0.14421856 0.13726833 -0.074610315 0.45388952 -0.33568043 -0.053688046

lin.bias f4 [16]
00000000: 40d4 a33c e143 e23c 57d6 723d a672 b83d
00000010: adf4 093e 97a0 1f3e d427 423e 85dd 5a3e
00000020: 8555 2f3e ba1c 2f3e 3de1 383e cf9c 2f3e
00000030: c5e5 283e 8e9b 3d3e b4f1 3e3e e558 873e
0.01999867 0.027620258 0.05928644 0.090062425 0.13472243 0.15588604 0.18960506 0.21373565
0.17122467 0.17100802 0.18054672 0.17149661 0.164939 0.1851637 0.1864689 0.2643501
