models/Basel_QNN_2026-02-03_49e_16h_4l.pth (torch, 3513 bytes, 3 tensors)

qlayer.weights f4 [4, 8, 3]
000000 88 4d 96 40 6d 15 56 40 92 5e 15 40 6a 12 d9 3f
       4.6969643 3.3450577 2.333897 1.6958745
000010 f9 2c a2 bd 12 bb 4a 40 4a d0 36 40 2e 18 b0 40
       -0.07918734 3.1676679 2.856463 5.5029516
000020 66 ce 3d 3f 05 ed c6 40 57 3f b2 40 62 1d ba 40
       0.74143064 6.216433 5.570232 5.816087
000030 4a 14 90 40 6d 16 ae 40 77 ca 8f 40 62 00 7f 40
       4.5024767 5.4402375 4.493465 3.9843984
000040 6c 45 b3 40 1d 36 22 40 a8 24 a8 40 5c 6b 7b 40
       5.6022243 2.5345528 5.2544746 3.9284277
000050 be f1 59 40 b4 99 43 40 d6 a4 68 40 50 07 71 40
       3.4053798 3.0562563 3.6350608 3.7660713
000060 f8 4b 1e 3f b2 4d 81 3f 40 01 69 40 fe e5 bd 40
       0.6183467 1.0101836 3.6407013 5.934325
000070 74 fe 84 40 1b ca 0e 40 99 e3 ba 40 c5 8e 88 40
       4.156061 2.2310855 5.840283 4.267428
000080 77 19 8b 40 b7 be a2 40 43 8b 4f 40 1e 08 80 40
       4.3468585 5.0857806 3.2428749 4.000991
000090 6d 3e b8 40 6f 42 b6 40 07 ca 4a 40 e9 5a c8 40
       5.7576203 5.6956096 3.1685808 6.2610974
0000a0 02 43 75 40 fc f5 2a 40 10 ce 27 be 6c 16 3c 40
       3.8322148 2.6712637 -0.163872 2.9388685
0000b0 14 83 51 40 14 14 86 40 14 09 23 40 1d 01 bc 40
       3.2736254 4.189951 2.547429 5.875136
0000c0 94 f1 d2 3e 66 e9 b9 40 dd 53 21 40 70 87 a6 40
       0.41199934 5.809741 2.5207436 5.204033
0000d0 3c 54 91 40 89 37 81 40 f3 0e 27 3f 69 15 44 3f
       4.5415325 4.038029 0.65257186 0.7659517
0000e0 85 57 f4 3f 17 2d 1e 40 9d b3 02 3f fd 97 47 40
       1.9089209 2.471502 0.5105532 3.1186516
0000f0 46 37 86 40 cd f1 11 40 e5 39 3a 40 80 d1 26 40
       4.1942472 2.2803833 2.9097836 2.6065369
000100 a4 c1 83 3f a2 9f 56 40 53 48 b0 40 30 b6 c3 3f
       1.029347 3.3534932 5.5088286 1.5289974
000110 09 06 91 40 86 9c bc 40 f0 7f 62 40 ed a1 c8 bd
       4.5319867 5.894107 3.5390587 -0.0979651
000120 e8 09 ac 3f 6d b9 12 3f 85 a0 89 40 5e 3c aa 40
       1.3440523 0.5731419 4.3008447 5.319869
000130 f7 70 76 3f d7 b5 7f 40 8b 81 7c 40 ea f4 8a 40
       0.9626612 3.9954736 3.9454067 4.3423967
000140 02 46 ab 3f b7 aa bc 40 9d 22 8b 40 7b 6f 75 40
       1.338074 5.895839 4.3479753 3.8349292
000150 e0 4f ce 3f 10 b4 58 40 f7 bd c0 40 c1 80 4f 40
       1.6118126 3.3859901 6.023189 3.2422335
000160 40 79 9a 40 e9 a3 4f 40 a9 af 28 40 be fd 9b 40
       4.827301 3.2443793 2.6357214 4.8747244
000170 1f 63 4f 40 3a 9e d9 3f af 91 d2 3f 36 67 89 40
       3.2404249 1.7001412 1.6450709 4.293849

lin.weight f4 [16, 8]
000000 92 5d e0 3d bc 54 18 3e 56 29 a2 3e 82 fb 58 3f
       0.10955347 0.14876074 0.31672162 0.8475877
000010 29 fc 8c be d0 ef d8 3f 27 22 57 3e 06 f4 68 3f
       -0.27536133 1.6948185 0.21009122 0.9099735
000020 0c 36 93 be 68 88 4f 3d b1 67 a4 be aa bf c4 3d
       -0.28752172 0.050667197 -0.3211036 0.096068695
000030 88 b1 06 bd cb 87 d1 3f a4 df 02 bf 65 89 bb 3f
       -0.03288415 1.6369566 -0.511225 1.4651304
000040 8f 65 d3 bd 2d e4 05 be c3 32 55 be 1c fe 3d 3f
       -0.10322105 -0.13075323 -0.20820145 0.74215865
000050 95 ab fe be bf e8 aa 3f 09 ea 9c bf 24 8f 8c 3f
       -0.49740282 1.3352278 -1.2258922 1.0981183
000060 65 b7 20 be f6 f5 b4 be 97 87 be be 91 c8 1c 3f
       -0.1569496 -0.35343903 -0.37212822 0.6124354
000070 5f 34 c4 be 20 4d 93 3f 38 fc b8 bf 27 40 ab 3f
       -0.38321206 1.1507912 -1.4451971 1.3378953
000080 a5 fe c9 b9 c6 62 6b be ea 7b 56 bd d7 f9 1b 3f
       -0.00038527432 -0.22986898 -0.052364267 0.609281
000090 2d f3 ea be ab 7c 79 3f c4 4c b0 bf 34 0e a9 3f
       -0.45888653 0.97455853 -1.3773427 1.320746
0000a0 a8 e4 01 bc ab b7 a6 be 2e 3d e7 bd 6e 06 be 3e
       -0.007928051 -0.32562003 -0.11290966 0.3711428
0000b0 fe 30 e8 3d 98 f4 66 3f 88 3c 9d bf d1 aa ba 3f
       0.113374695 0.9021697 -1.2284098 1.4583379
0000c0 90 a5 8d 3e 74 28 ab 3d d1 b8 2c 3f da 39 b8 bd
       0.27665377 0.08357325 0.6746951 -0.08995409
0000d0 f5 de 87 3e 8a c1 7f 3f 75 3b 67 bf 72 be 6f 3f
       0.2653729 0.9990469 -0.903251 0.9364997
0000e0 7f 6b b7 3e b0 a0 43 3e 2f 1b 1f 3f 2b f3 e2 3e
       0.358242 0.19104266 0.62150854 0.44326147
0000f0 29 56 b4 3d 39 3e 2e 3f 2e 7f 43 bf b4 c6 9a 3f
       0.08805496 0.68063694 -0.76365936 1.2091889
000100 5d 16 82 3e 14 fe 65 3d 4a 7f 07 3e 14 06 1c 3f
       0.25407687 0.05615051 0.1323215 0.60946774
000110 e2 27 d8 bd 2d 52 f9 3e 61 cc 74 bf 43 1e a2 3f
       -0.10554482 0.48695508 -0.9562436 1.2665485
000120 3d 4e 31 3e 75 90 6b 3e 85 eb 40 be db b2 87 3e
       0.17315002 0.23004325 -0.18839844 0.26503643
000130 a6 5b 90 be fb 0a f9 3e 23 f4 ad bf e9 c9 5b 3f
       -0.28194922 0.4864119 -1.359013 0.85854965
000140 26 00 3c 3e ba 3e aa 3e c8 9d 4f be de 55 41 3d
       0.18359432 0.33250982 -0.20275033 0.04720103
000150 23 c3 49 3e b7 bb e0 3e 17 30 ad bf ad be 88 3f
       0.19703345 0.43893215 -1.3530301 1.068319
000160 c1 22 21 3f 48 8a 6f bc fd 9b 44 3f 0a c4 59 3d
       0.62943655 -0.014620371 0.7680052 0.053165473
000170 df 76 a4 3e 0f cf bd 3e 00 c0 93 bf af ce 6d 3f
       0.3212194 0.37072036 -1.1542969 0.928935
000180 4a f8 da 3e 61 6b 7a bc 6b 49 2b be be e9 94 3e
       0.42767555 -0.01528439 -0.16727225 0.2908458
000190 9b be 54 3d 30 9f 23 3e 31 0b c4 bf 6b d8 65 3f
       0.051939588 0.15978694 -1.5315915 0.8978335
0001a0 32 79 1f 3f 8b 42 28 be 09 6a fb 3d 7f d1 81 3e
       0.62294304 -0.16431634 0.12276084 0.25355145
0001b0 69 9f bd 3e c2 22 06 3e 29 4e 96 bf 48 d3 59 3f
       0.37035683 0.13099197 -1.1742603 0.85088015
0001c0 85 92 f8 3e 32 b6 d9 3e ab 00 ab be 65 bf a7 bd
       0.48549286 0.42521816 -0.33398947 -0.081908025
0001d0 ca 01 bd 3e 5e 62 29 3e 0a b7 66 bf 54 b7 36 3f
       0.36915427 0.1654143 -0.90123045 0.71373487
0001e0 28 fe 24 3f 27 46 b1 3c 66 e6 60 be 0f 56 ed 3d
       0.6445031 0.021639897 -0.2196289 0.1158868
0001f0 8f 90 88 3e b2 05 2f 3e f1 86 bb be c9 7e c4 3e
       0.2667279 0.17092016 -0.3662639 0.3837798

lin.bias f4 [16]
000000 40 c0 35 bd 16 ae 51 3d 5c d3 07 3e cd 5e 44 3e
       -0.044372797 0.051191412 0.13264221 0.19176789
000010 04 2b 25 3e ef 78 23 3e fc 45 34 bc aa 2e 1f 3d
       0.1612969 0.15964101 -0.011003014 0.03886286
000020 05 6f 10 3e 13 0c 21 3e 5e 42 01 3e 21 65 12 3c
       0.1410485 0.15727262 0.12622973 0.008935244
000030 bb a9 1a 3e 20 69 bc 3d b6 fa 8f 3d 15 60 91 3d
       0.1510381 0.091997385 0.07030241 0.07098404
