models/Basel_QNN_2026-02-02_49e_8h_4l.pth (torch, 3093 bytes, 3 tensors)

qlayer.weights f4 [4, 8, 3]
0.12999423 1.9274492 6.457704 0.7508443 3.9821906 4.9978065 4.5739164 7.24073
5.601769 0.20468731 4.5933704 0.6886208 2.9717221 6.642457 6.19438 0.91118187
6.4973207 4.741776 1.8475682 5.7164946 2.2976894 0.25680232 2.0740156 1.8449414
4.5968795 5.4676523 3.31749 3.234248 1.9872332 6.9169126 5.610818 1.1692792
1.3826334 1.3619356 0.86323804 6.313211 3.0476217 0.93568194 1.9230499 4.7961116
-0.6402441 3.9042513 3.0650797 3.9312487 2.5050912 0.5802159 4.7997437 0.5738694
3.0524936 1.9358158 5.6460605 1.8514869 1.5113156 1.7081466 3.4338748 2.505514
3.818808 0.22521797 5.9151974 0.9322279 3.4938722 2.6667202 3.7684793 4.8419895
3.9595282 -0.29770753 5.8075147 1.7932376 2.6543007 3.7352345 2.624224 2.5976713
2.102973 0.6030215 5.561396 0.8306157 1.1729262 2.519792 5.4363127 0.96007496
1.5795614 1.4283972 2.0688975 3.9659746 2.729253 4.327518 0.4467749 6.0861273
5.3378763 4.187114 4.7259507 5.8612213 3.010889 2.935199 3.150626 0.92278457
00000000: 351d 053e a8b6 f63f 83a5 ce40 5537 403f
00000010: 36dc 7e40 08ee 9f40 865d 9240 0fb4 e740
00000020: b141 b340 8d99 513e e4fc 9240 7449 303f
00000030: b230 3e40 028f d440 5c38 c640 3743 693f
00000040: 0dea cf40 a1bc 9740 1d7d ec3f 86ed b640
00000050: 580d 1340 987b 833e acbc 0440 0a27 ec3f
00000060: a319 9340 02f7 ae40 c251 5440 ebfd 4e40
00000070: a85d fe3f 5957 dd40 d28b b340 f1aa 953f
00000080: 22fa b03f e853 ae3f 2bfd 5c3f d305 ca40
00000090: 3c0c 4340 da88 6f3f 8026 f63f bf79 9940
000000a0: 0ae7 23bf 41df 7940 442a 4440 9499 7b40
000000b0: 6a53 2040 0789 143f 8097 9940 1be9 123f
000000c0: 0e5c 4340 d0c8 f73f 87ac b440 86fd ec3f
000000d0: ca72 c13f 8ca4 da3f 9bc4 5b40 575a 2040
000000e0: 5a67 7440 8a9f 663e 4c49 bd40 7da6 6e3f
000000f0: 9a9b 5f40 8bab 2a40 c42e 7140 94f1 9a40
00000100: e968 7d40 1f6d 98be 29d7 b940 cf88 e53f
00000110: 10e0 2940 150e 6f40 49f3 2740 3f40 2640
00000120: 1c97 0640 9e5f 1a3f f5f6 b140 3ba3 543f
00000130: 7222 963f 4644 2140 46f6 ad40 79c7 753f
00000140: 112f ca3f b8d5 b63f d168 0440 87d2 7d40
00000150: 15ac 2e40 077b 8a40 aebf e43e 8ec1 c240
00000160: e2cf aa40 d6fc 8540 fd3a 9740 208f bb40
00000170: 68b2 4040 4dda 3b40 dba3 4940 9c3b 6c3f

lin.weight f4 [8, 8]
0.49895108 0.15174279 -1.7038531 -1.9412655 1.5656087 -1.118971 -1.0706238 1.0002407
0.473871 0.31311992 -2.2242467 -2.0435932 1.2287581 -1.3787289 -1.2652469 0.4883787
-0.013688021 0.2956801 -2.4636853 -2.2187204 1.4950113 -1.1591334 -1.2697151 -0.12924683
0.03949072 0.7194088 -2.531913 -1.9950758 1.2500031 -1.5555079 -1.0767015 -0.68619543
-0.43567935 0.9163318 -2.6319535 -1.8983155 1.0956881 -1.4072297 -1.1883863 -1.1139953
-0.77932423 1.1742882 -2.6875823 -1.6037039 0.6931692 -1.4388461 -1.3087436 -1.4680284
-0.8393458 1.6053529 -2.376453 -0.8418306 0.61274654 -1.5826671 -1.4990075 -1.7071196
-1.2408446 1.8141292 -2.226119 -0.4380687 0.28184167 -1.5069594 -1.6161686 -1.876916
00000000: 8476 ff3e 7662 1b3e dc17 dabf 637b f8bf
00000010: de65 c83f 713a 8fbf 330a 89bf e307 803f
00000020: 389f f23e 4151 a03e 0f5a 0ec0 3bca 02c0
00000030: f247 9d3f 307a b0bf 9cf3 a1bf c60c fa3e
00000040: b943 60bc 6263 973e 05ad 1dc0 84ff 0dc0
00000050: 885c bf3f 7c5e 94bf 0686 a2bf 4859 04be
00000060: 05c1 213d 2d2b 383f dd0a 22c0 a55e ffbf
00000070: 1a00 a03f e21a c7bf 5bd1 89bf 81aa 2fbf
00000080: 5d11 dfbe b994 6a3f ed71 28c0 01fc f2bf
00000090: 823f 8c3f 1a20 b4bf 0b1d 98bf 6697 8ebf
000000a0: cb81 47bf 134f 963f 5901 2cc0 2b46 cdbf
000000b0: 8973 313f 1c2c b8bf e984 a7bf 5be8 bbbf
000000c0: 5edf 56bf 347c cd3f ce17 18c0 3682 57bf
000000d0: f5dc 1c3f d694 cabf 7adf bfbf e582 dabf
000000e0: ffd3 9ebf 6335 e83f bc78 0ec0 8a4a e0be
000000f0: 8d4d 903e 0ce4 c0bf 9dde cebf c93e f0bf

lin.bias f4 [8]
0.3530985 0.2403929 0.20505837 0.10046282 0.06362457 0.010600515 -0.036173083 -0.047600366
00000000: 54c9 b43e 8e29 763e d2fa 513e 73bf cd3d
00000010: 994d 823d c8ad 2d3c 3a2a 14bd 9af8 42bd
