models/Basel_QNN_2026-02-07_49e_1h_4l.pth (torch, 2864 bytes, 2 tensors)

qlayer.weights f4 [4, 8, 3]
000000 9f 90 9b 40 57 f7 69 40 9a 98 79 40 94 0b bc 3f
       4.861404 3.6557214 3.899939 1.4691033
000010 9d 26 eb 3f fe 9a 3b 3f 2d cc b9 40 32 fa 98 3f
       1.8371159 0.73283374 5.806174 1.1951354
000020 f0 4c d0 40 1d bf ec 40 bd 4e 5a 3e cd 10 c8 40
       6.509392 7.3983293 0.21319099 6.252051
000030 72 57 a1 3f 02 24 75 40 ea bd 7a 40 2c 81 ef 40
       1.2604811 3.8303227 3.9178414 7.484518
000040 eb 04 98 40 1e d9 91 40 30 06 79 40 d5 96 be 40
       4.7506003 4.5577536 3.8910027 5.955912
000050 75 c6 87 40 65 da 31 40 97 95 a1 40 2d 91 a5 3f
       4.2429757 2.7789547 5.0495105 1.2934929
000060 f9 bb cd 40 0b 33 43 40 21 2e 9a 40 3d 93 3c 3f
       6.429196 3.0499904 4.818131 0.7366217
000070 25 43 a7 40 d8 0f 3e 3f 1d 38 6f 40 2a 5f b6 40
       5.2269464 0.74242926 3.7378 5.6991167
000080 32 34 c8 3f 69 64 4c 40 c2 db b6 40 69 cf a1 3f
       1.5640929 3.1936285 5.714326 1.2641422
000090 6d 16 5f 40 31 b7 c3 40 fb c7 99 40 af c5 40 40
       3.4857438 6.116112 4.8056617 3.0120656
0000a0 da 9b 9e 40 96 f6 37 40 94 6d 7c 3f c0 a6 65 3f
       4.956525 2.8744254 0.986047 0.89707565
0000b0 56 50 b6 40 cc 0d c4 40 17 ab 88 40 96 08 dd 3f
       5.6973066 6.126684 4.270885 1.7268245
0000c0 09 45 c9 3f 03 93 91 3f 1c e8 0b 3f 3a da a0 40
       1.5724193 1.137299 0.54651046 5.026639
0000d0 1e 08 03 40 d7 26 da 3f 93 d9 80 40 1c ec 0b 40
       2.0473704 1.7043103 4.0265594 2.186286
0000e0 cb 8a 85 40 0d 60 85 40 a6 2a 6d 40 a6 86 93 40
       4.1731925 4.167975 3.705728 4.6101866
0000f0 b1 f3 12 40 be ef 87 40 d4 73 24 40 ba 9a 60 bf
       2.2961237 4.2480154 2.5695696 -0.87736094
000100 22 f8 c9 40 97 87 75 40 d9 01 af 40 fa 26 cc 40
       6.3115396 3.8364007 5.4689755 6.379758
000110 36 cf 3e 3f 3d fc c7 3f af e9 18 40 d8 cd bf 40
       0.7453493 1.5623852 2.389263 5.9938774
000120 77 7c cf 3f e7 98 a2 40 64 c8 88 3d 7a f9 fa 40
       1.6209859 5.081165 0.066788465 7.8429537
000130 23 3d e4 40 8b 16 26 40 06 72 e0 3f 33 be a5 40
       7.132463 2.595126 1.7534797 5.1794677
000140 60 e4 c1 40 ad 55 77 40 d9 82 eb 3e 97 8f ae 40
       6.059128 3.8646042 0.45998266 5.455028
000150 7c aa 94 40 4e 90 af 40 03 99 cb 3f e0 92 78 3d
       4.645811 5.4863653 1.590607 0.060686946
000160 6f 66 c5 3f ed 6a a2 40 c6 7d fb 40 76 2a 01 40
       1.5421885 5.0755525 7.859103 2.0182166
000170 42 b7 83 40 52 c1 93 3f 28 93 17 bc d3 72 0a 40
       4.1161203 1.1543372 -0.009251393 2.1632583

lin.weight f4 [1, 8]
000000 42 a6 0f bf 41 5b 4a be 84 3c 11 bf d0 94 c3 be
       -0.56113064 -0.19761373 -0.56732965 -0.38199472
000010 96 31 1b 40 2a 8b d0 3f f5 1c f7 bf 6b 4f 9a bf
       2.4249015 1.629247 -1.9305712 -1.2055486
