models/Basel_QNN_2026-02-02_49e_8h_3l.pth (torch, 2965 bytes, 3 tensors)

qlayer.weights f4 [3, 8, 3]
00000000: 59c6 9540 be88 4940 96db 0a40 2e95 4740
00000010: d0fc 9240 d74c 363f 40cf b040 2941 5d40
00000020: faa5 b040 0e0a a040 77b4 b940 c113 a03d
00000030: ca42 8640 5f3e 203f 9770 1040 c479 9c40
00000040: 7446 a540 2ac9 9b40 017a ac40 5692 6a3f
00000050: f41a e63d 5183 d83f d242 e9be 8cce c540
00000060: 9343 113f 0295 5040 f3a2 b840 fccc b03e
00000070: d566 8240 d36f 8a40 fb34 0c40 3020 0a40
00000080: 162d f33f c7ee af40 6635 6a3f fe10 223f
00000090: 795b d33f d261 afbe 9d50 4040 b791 7a40
000000a0: c771 0340 167c 0c40 8aee c240 3439 6a40
000000b0: 1d12 9d3f 7f66 3340 e5bc b23f be23 aa40
000000c0: e68f 3040 45f9 a840 018f 983f 8c42 2740
000000d0: 5253 c33f 3e63 4d40 7f92 6840 6721 973f
000000e0: 20ff 0740 6f6c 9740 68c7 9840 866e b140
000000f0: f006 743f 5e44 9540 a389 a440 c092 3c40
00000100: 4275 8340 deb9 ed3f bf1e 4940 749c 9740
00000110: 1ed4 5040 a8a7 a440 222f 8340 e4a5 2c3d
4.6804624 3.148971 2.1696525 3.1184802 4.593361 0.71211 5.525299 3.457102
5.520261 5.0012274 5.8032794 0.07816268 4.195653 0.6259517 2.256872 4.889864
5.16485 4.868306 5.389893 0.9162954 0.1123561 1.6915075 -0.45558792 6.1814632
0.56743735 3.2590947 5.7698913 0.3453139 4.0750527 4.3261504 2.1907337 2.1582146
1.8998134 5.4978976 0.9148773 0.6330718 1.651229 -0.34254318 3.0049202 3.9151437
2.0538194 2.1950736 6.0916185 3.6597414 1.2271153 2.8031309 1.3963896 5.316863
2.7587829 5.2804284 1.1918641 2.6134367 1.5259802 3.2091823 3.6339414 1.1807069
2.1249466 4.7319865 4.7743416 5.5447416 0.95323086 4.6645956 5.1418014 2.946457
4.1080637 1.8572347 3.1425016 4.7378483 3.2629466 5.145466 4.0995035 0.042150393

lin.weight f4 [8, 8]
00000000: 2d7f 213f f746 adbd a0b4 14b9 2cf0 04bf
00000010: 3bc1 f23e 779d 97bf cc06 de3f 2078 f5be
00000020: b342 243f bceb fbbd ae86 7c3e 6526 febe
00000030: 056a 123f 93b1 e6bf 4549 e33f c1b3 55bf
00000040: b5c1 213f 5794 aebe 1214 c03e 1b3a 12bd
00000050: f617 513f 6c7f 13c0 4df8 e53f 0a07 a1bf
00000060: ba32 d13e 6b26 a0be 6cbe 1c3f c19e 8bbe
00000070: 0992 633f 759f 24c0 4de0 d93f 750c 21bf
00000080: 85e2 643e 76fb bf3d 0e2d 1e3f 4b52 45be
00000090: 98ff 8b3f 340c 39c0 c4cb c73f 6064 25bf
000000a0: 3904 713d e970 413e 6b9d 2c3f 60eb f53d
000000b0: 0205 963f 530c 51c0 ef2c ae3f 2786 82bf
000000c0: 32a5 a7be 36af 1c3e 8d8b 5a3f ef80 14bc
000000d0: e8ab 973f e595 4dc0 b7d0 993f c24f 19bf
000000e0: 88fd 12bf 6cac 033e d0f5 553f 9b9f c23e
000000f0: 8fcd a53f 9ade 4ec0 2925 813f eb9d 1dbf
0.6308468 -0.08460801 -0.00014181668 -0.51928973 0.47413048 -1.184493 1.7345824 -0.4794321
0.64164275 -0.12300822 0.24660751 -0.49638668 0.5719302 -1.8022941 1.7756735 -0.8347741
0.631862 -0.3409755 0.37515312 -0.035699945 0.81677186 -2.3046522 1.79664 -1.2580273
0.40859014 -0.3127931 0.6122806 -0.27269557 0.88894707 -2.5722325 1.7021576 -0.6290963
0.22352035 0.09374134 0.617875 -0.19269674 1.0937376 -2.8913698 1.5609059 -0.64606285
0.058841918 0.18890728 0.674277 0.12007785 1.1720278 -3.2663772 1.3607463 -1.019719
-0.32743222 0.15301213 0.8536919 -0.009063943 1.1849337 -3.2122738 1.201682 -0.59887326
-0.5741811 0.12858742 0.83578205 0.38012394 1.2953357 -3.2323365 1.0089465 -0.6156909

lin.bias f4 [8]
00000000: 7861 943d 4b73 3fbd 099d 55bd 6f36 31be
00000010: 6e62 c7bd 1918 59bd ccbc 20be 7ed6 b1bd
0.07245153 -0.04674081 -0.052151714 -0.17305921 -0.09735571 -0.053001497 -0.1569702 -0.08683489
