models/Basel_QNN_2026-02-05_49e_1h_1l.pth (torch, 2544 bytes, 2 tensors)

qlayer.weights f4 [1, 8, 3]
000000 49 c8 11 a7 4f 59 9c 40 22 cf 00 40 da 0f c9 40
       -2.0231367e-15 4.885902 2.0126424 6.283185
000010 f9 a8 4b 3e fe 2a 97 40 dc 0f c9 3f db 0f 49 40
       0.19888677 4.723998 1.5707965 3.1415927
000020 80 4f a0 40 67 cc 96 40 f2 94 c9 3f 8b 8e 44 40
       5.0097046 4.7124515 1.574858 3.0712001
000030 d7 0f c9 3f e2 0f c9 40 a6 c7 2e 40 da 0f 49 40
       1.5707959 6.283189 2.7309356 3.1415925
000040 37 04 95 40 91 e0 6b 40 da 0f c9 40 9e 60 cc 3f
       4.6567645 3.6855814 6.283185 1.5966985
000050 98 ac 41 40 da 0f c9 bf db 0f 49 40 62 b2 19 40
       3.0261593 -1.5707963 3.1415927 2.4015126

lin.weight f4 [1, 8]
000000 c2 d8 8d bf f8 24 20 bf cd 8c 77 bf a2 34 e7 b8
       -1.1081774 -0.6255641 -0.9669922 -0.00011024742
000010 93 55 c3 bf 9c f7 aa bf cc f9 01 40 af 25 b5 bf
       -1.526049 -1.3356814 2.0308714 -1.4152125
