models/Basel_QNN_2026-02-08_49e_1h_5l.pth (torch, 2928 bytes, 2 tensors)

qlayer.weights f4 [5, 8, 3]
000000 68 1c 80 3c 10 5c 76 40 22 25 7e 40 9b 87 ac 3f
       0.015638545 3.849369 3.9710164 1.3478884
000010 e8 d3 64 40 fe 73 4e 40 22 27 71 40 d2 f4 85 40
       3.5754337 3.2258296 3.7680135 4.1861353
000020 cb 55 c5 3f 96 84 42 40 f0 7c 73 40 f7 fd d4 3e
       1.5416807 3.0393424 3.8045006 0.4160001
000030 a9 cd ff 3f 51 67 6c 40 2f b3 c0 40 88 78 2c 40
       1.9984637 3.693806 6.021873 2.6948566
000040 54 b5 98 40 97 22 0d 40 12 70 46 40 92 db aa 3f
       4.772135 2.2052362 3.1005902 1.3348258
000050 51 c1 99 40 a4 a1 56 40 21 d6 9d 40 b9 7d 0e 40
       4.804848 3.3536158 4.932389 2.2264235
000060 35 bb c1 40 0f e1 6f 3f 2e 3f e8 3f 3e 58 af 40
       6.0541024 0.9370279 1.8144281 5.4795218
000070 25 7f 45 40 be f2 ba 3f e6 cc 31 40 9f 92 a8 40
       3.0858853 1.4605329 2.778131 5.267898
000080 b9 41 a0 40 2e 06 07 3f 33 98 a4 40 06 a0 78 40
       5.008023 0.52743804 5.143579 3.884767
000090 8a 4d c1 40 92 af aa 40 b1 ff 9b 40 31 f2 6e 40
       6.040715 5.333932 4.8749623 3.7335322
0000a0 0f 84 b6 3f 17 71 11 40 b6 69 2f 3f 7f 22 78 40
       1.4259051 2.2725275 0.6852068 3.8771055
0000b0 c6 80 af 3f 0e 26 13 40 f6 13 69 3f cc 35 b0 40
       1.3711174 2.2991977 0.9104608 5.506567
0000c0 10 f4 82 3e 3a 52 0d 40 df cf c1 40 d4 3a 84 40
       0.2557683 2.2081437 6.056625 4.132181
0000d0 f2 e7 33 40 85 78 a0 40 d2 a4 0b 40 e0 e5 ad 40
       2.8110318 5.014712 2.1819348 5.434311
0000e0 5c 75 0d 40 ec b8 82 40 e3 f7 9f 3f 2f e3 87 40
       2.210288 4.0850735 1.2497524 4.2464824
0000f0 b6 e6 0f 40 b5 65 90 3f bd 69 10 40 91 b3 d3 3f
       2.2484565 1.1281039 2.2564538 1.6539174
000100 3d 2a b6 40 43 1d 64 40 7e 1a 91 3f 40 62 62 40
       5.692656 3.564286 1.133621 3.5372467
000110 61 22 9e 40 2e 7a 12 40 4c 10 a1 40 81 e2 fd 3e
       4.9416966 2.2887073 5.0332394 0.4958687
000120 c9 2f 89 40 a9 31 9e 40 2a fc 93 40 f2 dd 67 40
       4.287083 4.943562 4.6245317 3.6229215
000130 ac 77 65 40 6d 64 06 40 0e f6 39 40 04 ee 56 40
       3.5854292 2.0998795 2.905643 3.3582773
000140 fa f7 91 3f fe e7 dc 3f d5 90 e8 3f e5 0f b3 40
       1.1403801 1.7258298 1.8169199 5.5956903
000150 33 0f 13 40 87 cb a3 3f b6 6d f5 3f 13 e3 38 40
       2.2978027 1.2796487 1.9174106 2.8888595
000160 18 15 72 3f 95 5f 8b 40 be 6d e7 3f 9b b1 87 3f
       0.94563437 4.3554177 1.8080366 1.0601076
000170 24 ca 9e 40 2b bb 93 40 99 95 54 40 d3 90 96 40
       4.9621754 4.6165977 3.3216307 4.7051787
000180 2c f8 75 40 a1 26 49 40 49 08 46 40 b5 13 bf 40
       3.8432722 3.1429827 3.0942557 5.9711556
000190 78 d7 60 3f b4 54 97 40 e4 ef 78 40 8b 6c ae 40
       0.8782878 4.7290897 3.8896418 5.45075
0001a0 24 94 a5 40 f0 65 b6 40 b7 da 91 40 8c 72 ad 3f
       5.1743336 5.6999435 4.5579486 1.3550582
0001b0 14 72 08 40 49 21 9e 3e 61 1f 94 3f 39 0c b8 40
       2.1319628 0.3088477 1.1572076 5.751492
0001c0 53 93 0d 40 cc 31 07 40 b9 a7 86 3f b8 6d d4 3f
       2.212117 2.1124144 1.0519935 1.6595984
0001d0 f4 52 5a 40 21 58 70 40 4b d8 eb 3f 38 08 64 40
       3.411313 3.755379 1.8425382 3.5630016

lin.weight f4 [1, 8]
000000 1d 56 1b 3f e9 0c 90 bf d4 70 8f bf 2f 3e 7a 3e
       0.60678273 -1.125394 -1.1206307 0.24437784
000010 b5 84 3c 40 05 ef 58 c0 7f 34 15 bf 50 f6 30 bc
       2.9455998 -3.3895886 -0.5828323 -0.010800913
