models/Basel_QNN_2026-02-02_49e_8h_1l.pth (torch, 2773 bytes, 3 tensors)

qlayer.weights f4 [1, 8, 3]
00000000: a949 4640 1056 dd40 e896 6b40 da0f 4940
00000010: c4f7 b23f fa41 3e3e 9cd7 1328 4635 ab40
00000020: 1691 c840 da0f c940 fa17 9840 7cb6 7d40
00000030: ebcb 9640 e20f c940 284a 8540 763c 8640
00000040: 619a 6c40 a13a b33f db0f c940 0eeb 9540
00000050: ca5f 963f 3e3c 6840 1c79 0240 3f40 a840
3.0982459 6.9167557 3.6810856 3.1415925 1.3981862 0.18579856 8.206892e-15 5.350253
6.2677107 6.283185 4.752927 3.964263 4.7123923 6.283189 4.1653023 4.1948805
3.6969225 1.4002267 6.2831855 4.684943 1.1747983 3.628677 2.038642 5.2578425

lin.weight f4 [8, 8]
00000000: 258b b9be 0719 533f b049 f7bc 4283 a43e
00000010: 8886 27bd d063 f63d 202d bbbf a2bf 28be
00000020: 39a3 efbe 3fdc eb3e cba8 de3e 7a7a 033f
00000030: 0179 08bf 17cb 713d 48e8 a6bf 952b 4bbf
00000040: 588a 27bf 2748 6e3f 0cee 0a3f 257b af3e
00000050: cdd7 0abf c643 493e dec8 b7bf baeb 44be
00000060: 42b7 22bf e33b 183f c7da cc3e 3f0f 533f
00000070: 9d60 a8be 7f7a 603e f3b5 a9bf 1674 14bf
00000080: 4ceb 57bf f10c 073f 1d42 6b3f 974c 0b3f
00000090: 176c 28bf 728a ed3c 9053 7ebf 654d 72bf
000000a0: 4153 78bf 9a7c 363f 5642 423f 6209 433f
000000b0: 2f12 11bf b989 7b3e dc74 8bbf ff38 d1be
000000c0: 0e60 86bf 3780 513f 0c03 133f dd84 553f
000000d0: 73bd 8cbe e7e9 e53d eb41 49bf c650 43bf
000000e0: 900f 82bf 2b48 9b3e 0c15 0e3f 3712 753f
000000f0: 549e a53e 9f20 0abc cda3 45bf d85e 02bf
-0.3623897 0.82460064 -0.030186504 0.32131392 -0.040899783 0.120307565 -1.4623146 -0.16479352
-0.46804217 0.46066472 0.43488154 0.5135876 -0.5330964 0.059031572 -1.3039637 -0.79363376
-0.6544547 0.93078846 0.5426948 0.3427364 -0.54235536 0.1965476 -1.4358175 -0.19230548
-0.6356088 0.5946638 0.40010664 0.8244514 -0.3288621 0.21921729 -1.3258651 -0.57989633
-0.8434341 0.5275412 0.91897756 0.5441374 -0.6578993 0.02899668 -0.99346256 -0.94649345
-0.97002035 0.71283877 0.7588247 0.7618619 -0.5666837 0.24564256 -1.0895038 -0.40863797
-1.0498064 0.81836265 0.57426524 0.8340586 -0.27488288 0.11226254 -0.7861621 -0.76295125
-1.0160999 0.30328497 0.55500865 0.9573092 0.32347357 -0.008430629 -0.77203065 -0.5092597

lin.bias f4 [8]
00000000: 9b86 5d3f bad6 843f 6c04 ea3e 8060 213f
00000010: 7547 123f 722a c03d e457 4f3d f8f5 383e
0.86533517 1.0378029 0.457065 0.6303787 0.57140285 0.09383096 0.05062093 0.1806258
