models/Basel_QNN_2026-02-02_49e_8h_2l.pth (torch, 2901 bytes, 3 tensors)

qlayer.weights f4 [2, 8, 3]
5.4090486 3.3562315 2.7109373 1.4924287 6.2756042 5.1813807 3.3074222 5.600522
3.1563597 6.736958 6.3551154 3.109625 0.62489027 3.322155 5.6285143 0.7330734
0.706927 3.1600308 4.7697887 3.9595504 -0.05990971 4.2153854 -0.83669394 3.4208596
0.9871328 4.2487473 0.48912266 3.9716148 2.118779 3.5875747 3.130442 1.950153
3.6882021 1.4548347 2.7964401 2.4918215 6.7869134 0.6871492 1.5535597 3.490898
1.2349762 5.5852504 -0.034482073 1.4680488 6.1247225 1.1249342 5.52581 0.5358391
00000000: ed16 ad40 7fcc 5640 ff7f 2d40 e707 bf3f
00000010: c0d1 c840 dfcd a540 ceac 5340 7a37 b340
00000020: cc01 4a40 2995 d740 1b5d cb40 1904 4740
00000030: cff8 1f3f 309e 5440 ca1c b440 b3aa 3b3f
00000040: 2bf9 343f f23d 4a40 1ca2 9840 4669 7d40
00000050: e263 75bd 70e4 8640 9331 56bf 5def 5a40
00000060: bcb4 7c3f bdf5 8740 496e fa3e f02e 7e40
00000070: 139a 0740 d39a 6540 2959 4840 9d9e f93f
00000080: 810b 6c40 0638 ba3f e0f8 3240 017a 1f40
00000090: 652e d940 03e9 2f3f 0bdb c63f df6a 5f40
000000a0: b313 9e3f 5fba b240 133d 0dbd 06e9 bb3f
000000b0: bafd c340 d8fd 8f3f 6fd3 b040 c02c 093f

lin.weight f4 [8, 8]
0.56638694 0.07856602 -0.2288145 0.031248197 0.99344826 -1.3339514 2.1968322 -0.38007352
0.8825485 0.14775561 -0.19408625 -0.45025864 0.72071195 -1.0175451 2.907042 -0.5416427
1.0454727 0.08123458 -0.12432854 -0.83194035 0.6846514 -0.8147713 3.3098683 -0.7341242
0.63092256 -0.08062306 -0.6044451 -0.55833715 0.87612826 -0.7264295 3.5169146 -0.78906024
0.62180346 -0.15197487 -0.35397673 -1.1616539 0.785911 -0.4955769 3.674962 -0.7845665
0.37938738 0.09794313 -0.102251045 -1.3588489 0.61449635 -0.23794709 3.801415 -1.1834953
-0.2824603 0.21155727 -0.3024975 -1.2611126 0.46559533 -0.0843053 3.7299693 -1.1843841
-0.5169921 0.10130743 -0.32797852 -1.321651 0.3927272 0.12732062 3.6629276 -1.2528367
00000000: bcfe 103f 39e7 a03d 594e 6abe 38fc ff3c
00000010: a052 7e3f ebbe aabf e698 0c40 ff98 c2be
00000020: b3ee 613f 3f4d 173e 8cbe 46be 4d88 e6be
00000030: 9480 383f eb3e 82bf fa0c 3a40 19a9 0abf
00000040: 0dd2 853f 515e a63d f69f febd 0bfa 54bf
00000050: 5045 2f3f da94 50bf e2d4 5340 90ef 3bbf
00000060: 2484 213f b41d a5bd eabc 1abf 2fef 0ebf
00000070: f149 603f 49f7 39bf 2115 6140 daff 49bf
00000080: 832e 1f3f 4d9f 1bbe 703c b5be 13b1 94bf
00000090: 7731 493f 41bc fdbe 9432 6b40 5ad9 48bf
000000a0: 103f c23e 6896 c83d ff68 d1bd c3ee adbf
000000b0: a24f 1d3f 67a8 73be 624a 7340 c67c 97bf
000000c0: a39e 90be 78a2 583e f4e0 9abe 236c a1bf
000000d0: 8362 ee3e 42a8 acbd d1b7 6e40 e699 97bf
000000e0: 9859 04bf 457a cf3d cdec a7be dc2b a9bf
000000f0: 8a13 c93e 5660 023e 686d 6a40 f45c a0bf

lin.bias f4 [8]
0.10501631 0.13097185 0.22167559 -0.034084093 0.13262478 0.19129536 -0.042663183 -0.052947026
00000000: cb12 d73d 7c1d 063e edfe 623e c39b 0bbd
00000010: cace 073e eee2 433e 97bf 2ebd fbde 58bd
