models/Basel_LSTM_2026-02-03_49e_16h_1l.pth (torch, 279937 bytes, 6 tensors)

lstm.weight_ih_l0 f4 [512, 1]
000000 16 e8 1d 3e f7 90 1c 3c 31 2b e5 3d 6c 03 95 3d
       0.15420565 0.009556047 0.11189879 0.07276043
000010 99 8b f6 bc aa 83 30 bd 2a c9 4e 3d 10 09 e6 39
       -0.030095862 -0.043094315 0.050484814 0.0004387577
000020 75 3d 27 3e 6a f6 60 bd 48 a8 1e be b2 81 88 3c
       0.16332038 -0.0549225 -0.15493882 0.016663406
000030 97 1c e1 3c fe 1b e1 3d ef e6 19 3e e1 45 b1 bd
       0.027479453 0.10991667 0.150295 -0.086559065
000040 f0 f0 20 3e a1 c0 62 bd 37 9d 26 3e 7d 84 b3 bb
       0.1571691 -0.055359486 0.1627091 -0.0054784403
000050 13 dd 92 3d 6d 51 8c 3c 91 c7 a4 3d 7f 11 3b 3e
       0.07171073 0.01712867 0.08045877 0.18268393
000060 f5 cf 3e 3e 19 48 3c 3c d0 3d 54 bc 57 d9 c9 3d
       0.18634017 0.011491799 -0.01295419 0.098559074
000070 84 97 07 3e e9 18 b9 3c 16 20 15 3e 0e d7 52 bd
       0.13241392 0.022594886 0.14563021 -0.051474623
000080 21 13 2b 3e 4f f6 a2 3d f2 f3 8c 3d ed b3 e4 ba
       0.16706516 0.07957136 0.068824664 -0.0017448642
000090 0d 26 07 3e 1a 2d 19 3e ed 90 8f bd cb d9 c6 3d
       0.13198109 0.14958611 -0.07010064 0.097095095
0000a0 7f 5f 4a be f7 46 87 bd 60 e1 b5 3d 96 5f 98 3d
       -0.19762991 -0.06605332 0.088808775 0.074401066
0000b0 32 24 38 bd 13 47 dd 3d b1 2c e7 3b 25 7c f3 3d
       -0.044956394 0.10804572 0.007054888 0.11888913
0000c0 83 10 9b 3c 6e a2 74 3d 23 b8 d6 3d a0 26 1a 3e
       0.018928772 0.059725218 0.1048434 0.15053797
0000d0 56 4b 06 3e de 06 41 3e 0c 09 21 3e 1e c6 20 3e
       0.13114676 0.18850276 0.15726107 0.15700576
0000e0 b0 19 9e ba 14 2a 9f 3d 75 ec ed 3c 5d 57 9a 3d
       -0.0012062099 0.07771698 0.029043416 0.075361945
0000f0 01 2d a9 bd 41 78 0c 3e cb 6d fd 3d b5 7d 9a 3d
       -0.08260537 0.13717748 0.12374457 0.07543508
000100 0a 7a 29 3c f5 b6 c7 3d 24 3d 1a 3d 55 cb 06 3e
       0.010344038 0.09751693 0.037655964 0.13163503
000110 09 7a bf 3d 36 ae 3c 3c 62 8f a6 3d 73 92 1a 3e
       0.09349448 0.0115161445 0.08132817 0.15094928
000120 0c ea 48 3e ed f9 5a 3d 96 d3 5f bd 87 df 9b 3d
       0.19620532 0.053461004 -0.054645143 0.07610994
000130 5e b3 97 3c 89 35 49 3d 27 7a 05 3d ad 74 91 3d
       0.018518146 0.04912332 0.032587197 0.07102332
000140 d0 d1 00 bc 24 e5 35 3b 37 5d 1c bd 11 81 da 3d
       -0.007862523 0.0027754987 -0.038174834 0.10669149
000150 5f 8b 48 3e 86 a3 8a 3d c5 4a 87 bc 68 75 0b 3e
       0.19584416 0.06769471 -0.016515145 0.13619006
000160 95 fc 9b 3d 7c 68 8a 3c 79 19 01 3e 8f 8c 47 3e
       0.076165356 0.016895525 0.12607373 0.19487213
000170 e5 e1 ae 3d 2d a7 2b 3d 85 5b 0d 3d 62 75 b9 3d
       0.0853918 0.041907478 0.034511108 0.09055592
000180 c5 f8 f8 bc 8f bb d1 3c f7 2e a2 3c 1f 70 30 3e
       -0.03039206 0.02560213 0.019797785 0.17230271
000190 16 18 bc 3c 0e 9e 38 3d d6 f5 77 bd 15 8e b7 3c
       0.022960704 0.045072608 -0.06053718 0.022406617
0001a0 e0 f1 03 3e e2 a5 26 3d 68 0a 96 3d a0 26 c7 bd
       0.12885237 0.040685542 0.073262036 -0.09724164
0001b0 0b e8 a4 3d 84 35 e9 3d 02 20 8c bd 48 17 b1 3c
       0.08052071 0.113871604 -0.068420425 0.021617547
0001c0 1c 33 a0 3d f3 af 26 bc 63 5d 64 3d 85 79 e3 3d
       0.07822248 -0.0101737855 0.055753123 0.111071624
0001d0 72 d9 b4 bd 31 16 30 be 8c f7 25 3e 93 c1 dc bb
       -0.08830537 -0.17195965 0.16207713 -0.006736943
0001e0 b3 e9 01 bd 34 c0 08 3e 56 e8 5e bd 78 50 20 3e
       -0.031717014 0.1335457 -0.05442079 0.15655696
0001f0 e5 ec c2 3d 5f 4f b7 bc ee 14 20 3e c5 30 32 3e
       0.0951784 -0.022376714 0.15632984 0.17401417
000200 8f 98 07 3e 24 67 a3 3d 4e 97 d1 bb 71 d8 4b 3d
       0.1324179 0.07978657 -0.0063962108 0.04976696
000210 9f 83 7c bd 9e 60 42 3d 11 3e 21 3e fa 2b b0 bd
       -0.06164896 0.047455423 0.15746333 -0.08602138
000220 82 5d 14 3e 9d f9 3f 3d 26 c4 ab be ec b9 8c 3c
       0.14488795 0.04686891 -0.33548087 0.017178498
000230 00 c0 20 3e 18 be c5 3d 50 ec 4f 3e 58 b1 69 bd
       0.15698242 0.09655398 0.2030499 -0.057053894
000240 56 c8 ff 3d 42 a7 cd 3d e3 4f c2 3d 5f b8 83 bd
       0.12489383 0.100416675 0.094878934 -0.0643165
000250 3c 18 10 3e 37 62 16 3e 44 c4 93 3d 40 4a 9b 3d
       0.14071745 0.14685903 0.07215169 0.075825214
000260 4c fe 0b 3e b6 a8 e1 3d 64 b6 a9 bd 8d 48 51 3e
       0.13671225 0.11018507 -0.082867414 0.20437832
000270 85 90 26 3e 60 e4 20 3b d5 06 08 3e 49 02 d1 bd
       0.16266067 0.0024550185 0.13283856 -0.10205514
000280 02 d8 ab 3d fb cd 2a 3d 5b 96 64 bd f5 d1 86 3c
       0.083908096 0.041700345 -0.055807453 0.016457537
000290 55 bc f7 3d fd de c7 3d c2 bf a3 38 59 d3 0c 3d
       0.12096468 0.097593285 7.808163e-05 0.034381244
0002a0 e0 9a f2 bd f5 d6 82 3d 37 66 01 3c 60 60 3d 3e
       -0.11845946 0.06388656 0.007897905 0.18493795
0002b0 72 84 55 3b 6c f9 21 3d c7 96 1e 3e 25 57 3c 3d
       0.0032580164 0.039544508 0.15487204 0.045981545
0002c0 eb da 90 bd a6 6a f8 3b 2a 21 a7 3d ec d8 04 3d
       -0.07073005 0.007581073 0.081606224 0.032433435
0002d0 8f 22 15 3e 8b 28 91 3d 62 67 51 3e e3 95 33 3e
       0.14563964 0.07087811 0.20449594 0.17537646
0002e0 6d d6 80 3d 89 31 3b 3e f9 e3 a7 3c 49 be 0f 3d
       0.062908985 0.18280615 0.020494448 0.03509358
0002f0 54 ca 03 3d 70 8c 05 3e b5 0d 28 3e 7b b3 26 3d
       0.032175377 0.13041854 0.16411479 0.04069851
000300 5d b5 1a 3d 6b 0f cc 3c de 77 24 3e b5 56 ea 3c
       0.037770618 0.024909696 0.1606135 0.028605798
000310 67 57 c6 3d ef af 58 3d 8c 88 c8 3d 57 02 3c 3e
       0.096846394 0.05290216 0.09791669 0.18360268
000320 d9 95 0a 3e 9b 0b cc 3d da 3f 33 3c 8c d0 05 3d
       0.13533725 0.09963151 0.010940516 0.03266959
000330 94 d9 f8 3d ec ac 06 3e f2 c5 63 bb 32 c9 f0 3c
       0.12150875 0.13151902 -0.0034755436 0.029392812
000340 58 bd ce 3d 4f ca 98 3d ef 06 b3 bc f1 c4 11 3e
       0.10094708 0.07460462 -0.021853892 0.14235283
000350 e1 9b 40 3e 0d 0a e6 3d 3f d6 ba bc 61 7b fc 3d
       0.18809463 0.11232386 -0.022807239 0.1232822
000360 20 0b 13 3d 5f 62 1e bd dc be 33 3e 21 86 f2 3d
       0.03589928 -0.038668033 0.17553276 0.11841989
000370 74 40 db 3b b0 ea 2d 3e db 6f cb 3d b7 7d c1 3b
       0.006691033 0.16984057 0.09933444 0.005904879
000380 cf c8 1d 3d 7c 17 d3 3d 79 55 23 3d 78 60 fb 3d
       0.038521584 0.10307214 0.039876435 0.12274259
000390 53 f0 16 3e 8e ef 16 3e a2 62 db 3c db b7 28 3e
       0.14740114 0.1473982 0.02678043 0.16476385
0003a0 7d 4c 12 bc 6d b8 d2 3d 2a 46 2c 3e c0 51 fb bb
       -0.008929369 0.10289083 0.1682364 -0.0076696575
0003b0 a0 56 02 3e d5 87 b1 3d f7 9a df bd a4 d0 b7 3a
       0.12728357 0.08668486 -0.10918229 0.0014023972
0003c0 e8 71 83 bd d1 4b 34 3d e5 e3 e8 3c e0 d0 98 3d
       -0.0641821 0.044017617 0.028428981 0.07461715
0003d0 47 49 8b bc 8b a6 9d be 2b cc 17 3e 46 30 d1 3d
       -0.017002715 -0.30791125 0.14823978 0.102142856
0003e0 5d f5 ff bc 93 0b 1d 3d 8f 2c aa bd 1f 33 66 3d
       -0.031244928 0.038341116 -0.0830928 0.056201097
0003f0 45 f9 a3 3d 10 b9 ec 3d 80 35 4a 3e 41 22 64 3e
       0.08006529 0.11558735 0.19746971 0.22278692

lstm.weight_hh_l0 f4 [512, 128]
000000 fd 69 46 bd 96 52 5f 3d 40 39 6f 3d fd 14 51 bd
       -0.048440922 0.05452212 0.058404207 -0.051045407
000010 98 18 94 3d 51 d3 13 3d 22 a1 56 bd 0a 88 83 bc
       0.072312534 0.0360902 -0.052399762 -0.01605608
000020 7d e1 a6 3a 80 cc a4 3d 9c e7 5f 3d e1 8d 04 bd
       0.0012731996 0.08046818 0.05466424 -0.03236187
000030 12 fe 84 3d 80 0b 8f 3c c1 41 4f 3d 2d ef 98 bd
       0.064937726 0.017461538 0.050599817 -0.07467494
000040 c3 00 39 bb 89 52 54 3d d4 8f 32 bc 54 96 c2 bc
       -0.0028229214 0.051836524 -0.010898549 -0.023753323
000050 14 bf 77 bc d4 63 19 bc dc 78 8c bc c2 e8 2a 3d
       -0.01512124 -0.00936218 -0.017147474 0.04172588
000060 3e bf a8 3c ca 78 97 3c a1 8c 25 bc d4 95 9c 3d
       0.020599004 0.018490214 -0.010104329 0.07645765
000070 af a6 60 bd 03 8f 96 3d 4a ad b3 3d 40 f2 9f bd
       -0.05484646 0.07351496 0.08773287 -0.078098774
000080 c7 d1 51 3d e9 ad 85 3d 48 77 8c 3d bd 2a d9 bc
       0.05122545 0.06527311 0.068586886 -0.026509637
000090 b1 0a e0 bb 16 f5 8c bd cc 56 50 3c 37 44 cb 3d
       -0.006837212 -0.06882684 0.0127160065 0.0992512
0000a0 89 0c a7 3c af 1e b4 bd 7a 03 ad bc 2f 12 96 bd
       0.02039172 -0.08794915 -0.021119822 -0.07327687
0000b0 63 77 aa bd b4 71 09 bc e2 f1 97 3d cd 47 84 3b
       -0.083235525 -0.008388925 0.07419182 0.0040368796
0000c0 68 52 77 bd 4e a3 36 bd 1a d2 a7 3d d7 80 53 3d
       -0.060381323 -0.044589333 0.081943706 0.051636543
0000d0 43 b5 84 3d 96 e8 43 bd 80 a6 a5 3d 85 66 b6 3d
       0.064798854 -0.047829233 0.08088398 0.08906273
0000e0 a4 9b f9 3c 87 de 1c 3d 0f 69 1e bd 14 ba 45 bc
       0.030469723 0.038298156 -0.03867441 -0.01206829
0000f0 47 fc 42 bd e6 2c 21 bc 0c 89 8c 3d 06 cb 83 bd
       -0.04760387 -0.009837365 0.06862077 -0.06435208
000100 26 92 38 3d 56 c2 6a bd 51 c7 2a 3c ff 8e 5f bd
       0.045061253 -0.05731424 0.010423497 -0.05457973
000110 28 80 24 bd aa 3e b9 bd 60 37 89 bd 61 1a 8c bd
       -0.04016128 -0.09045155 -0.06700015 -0.06840969
000120 8c 29 11 3d 3e df 9d 3c ae 2d d2 3d bf c9 48 3c
       0.035440013 0.01927149 0.10262619 0.012255131
000130 6b 96 1f bd 4d ea c1 bc bc 41 80 bd 21 80 4e 3c
       -0.03896181 -0.023671294 -0.06262538 0.0126037905
000140 dc 9e 2f 3d bc b2 a4 bd 31 6f 87 bd 81 a7 79 3d
       0.04287611 -0.080419034 -0.06613005 0.06095076
000150 3f da b0 bd dc 76 77 3c 5b 83 69 3c c2 2d b1 3a
       -0.08635377 0.015104022 0.014252509 0.0013517665
000160 f4 6d 79 3d f3 8c 28 3d e4 16 d1 bc fd f5 95 bd
       0.060895875 0.041150045 -0.02552361 -0.07322309
000170 51 3d b9 bc b7 23 7e 3d 09 a5 7a 3d b9 ec 03 3d
       -0.022612246 0.06204578 0.061192546 0.03220818
000180 98 ae c2 3b e9 bb 8b 3d c3 1a 15 3d b2 6f 31 3d
       0.0059412234 0.068229504 0.036402475 0.04331941
000190 d3 05 08 3d 24 92 78 bd a1 1d 45 3d d0 59 6d 3d
       0.03320868 -0.060686246 0.04812396 0.05794698
0001a0 ee 31 6a bd f2 c9 c2 bd 2e 31 d8 3d dc 7c 0e 3d
       -0.057176523 -0.09511174 0.10556255 0.034787044
0001b0 45 cd ee bc a2 4e 8f bd 59 ad 96 bd 31 a2 ca bd
       -0.029150615 -0.0699742 -0.07357282 -0.09894217
0001c0 de 76 08 bd 0b 54 4e 3d f7 8a 59 3d f0 bc 6d 3d
       -0.033316486 0.05037312 0.053111043 0.058041513
0001d0 36 0c 6f bd a1 1a 89 bd 70 b0 da 3d b6 93 89 3d
       -0.058361255 -0.06694532 0.10678184 0.06717627
0001e0 a8 dd e6 3c 5a f5 87 bc 5f 11 9e 3a fd a5 3a bd
       0.028181866 -0.016596485 0.001205962 -0.045568455
0001f0 15 eb c4 3b 45 7d 8c bd 6f a1 91 bc 62 b0 f9 3c
       0.0060094693 -0.06859831 -0.017777173 0.030479614
000200 26 26 91 3c e8 54 32 3a 08 d1 b4 3d ea 01 c7 bd
       0.017718386 0.0006802813 0.08828932 -0.09717162
000210 21 df 26 3d d3 60 93 3d fc f9 d2 bd 49 90 37 3d
       0.040740136 0.07196202 -0.10301587 0.044815335
000220 f6 90 2d bd f7 bc 12 3d b7 c1 b6 3d 94 3f 02 bd
       -0.042374574 0.035824742 0.08923667 -0.031798914
000230 36 ad 57 bd 7e fa a2 bd 0f 95 48 bc ee 82 12 3d
       -0.05265542 -0.07957934 -0.01224257 0.035769396
000240 bc 3f a2 3c a2 59 9e bd 08 fe 27 3d 0d 43 16 3b
       0.019805782 -0.0773194 0.041013747 0.002292815
000250 8a 56 89 3d 9c a1 b7 bd 6b 1f 98 3d 4d ef 86 bd
       0.06705959 -0.089663714 0.074278675 -0.06588612
000260 e0 e5 66 3d db 65 c8 3b c0 0e 9a 3c 5d 6f 8a bd
       0.05637157 0.0061156577 0.018805861 -0.06759522
000270 74 ba c9 3d f0 17 89 bd 4d 4e 8a 3d 0c 4e f5 bc
       0.09850016 -0.06694019 0.06753216 -0.029944442
000280 b7 a9 22 3d 27 8e 76 3d fd 50 09 bd 19 2a 46 3d
       0.039712634 0.06019416 -0.033524502 0.04837999
000290 5c de 19 bd 84 b4 ba 3d 73 f6 96 3d 49 64 83 bc
       -0.037565574 0.09116462 0.07371225 -0.01603903
0002a0 1c 33 93 bd 59 05 a4 bc e4 e2 35 3d 07 cf b2 3c
       -0.07187483 -0.020022081 0.044405833 0.021827234
0002b0 41 b8 9e bb 9e dc ef 3c ad 67 94 3d 20 de 64 bc
       -0.004843742 0.029280003 0.07246337 -0.013968974
0002c0 b5 ea 6e bd f7 8b 14 bd a7 32 50 3d 20 d0 a7 3d
       -0.058329303 -0.036266293 0.050829556 0.081939936
0002d0 ca 67 6f 3d fa 30 8c 3c 1c cf 8a 3d 86 de 3c bd
       0.05844859 0.017113198 0.06777784 -0.046110652
0002e0 09 66 97 3d 11 f3 2e 3c f9 44 27 bd 72 a4 0b 3d
       0.073925085 0.010678069 -0.04083726 0.034092374
0002f0 df 5c 29 bd 18 b6 84 3c 87 dd 41 bd 15 26 a2 3d
       -0.041348334 0.01620011 -0.047330406 0.0791742
000300 32 13 49 bc 19 35 b2 3b fb 53 a4 3c 43 90 4d 3d
       -0.012272643 0.0054384586 0.020059576 0.050186407
000310 78 db 54 3c ab 36 4f 3d 36 78 80 bd eb c2 2e bd
       0.012991779 0.050589245 -0.062729284 -0.042666357
000320 fc 53 1a bd 34 f8 0b bd 87 e4 6b bd 25 ae b7 bd
       -0.03767775 -0.03417225 -0.057590988 -0.08968762
000330 d9 99 2a 3d 99 37 06 3d 9c 3b 2e 3d b9 85 6e bd
       0.041650627 0.032767866 0.042537317 -0.058232997
000340 fd 3e 54 bd d4 51 08 bd f8 f7 83 3c c0 ba 43 3d
       -0.051817883 -0.033281162 0.016109452 0.04778552
000350 db 6b d0 3c 23 a1 81 3c 7f 71 43 bc 13 b5 1f 3c
       0.025442054 0.015823906 -0.011928915 0.009747761
000360 b4 31 93 3d 85 14 48 3c 03 09 5d bd 6f fc 1e 3d
       0.071872145 0.0122119235 -0.053963672 0.03881496
000370 9b 3d cd bd 85 3a cb bb 0a 7f 7f 3d 07 9e 12 bc
       -0.10021516 -0.0062020444 0.062377013 -0.0089488095
000380 73 83 36 3d d7 4c c4 3b 24 ba 58 bd 04 03 58 3a
       0.044558953 0.0059906053 -0.052911893 0.00082401955
000390 9e 27 95 bd 2a 39 2f bd d5 a3 a2 bd 60 a1 00 bd
       -0.07282947 -0.042779125 -0.07941405 -0.0314039
0003a0 81 21 3d bd 34 c9 8b 3c 82 94 29 bd bb e0 ff 3c
       -0.04617453 0.017063715 -0.041401394 0.03123509
0003b0 41 8a 98 3d 11 45 43 3d 08 9c 4a bd 4e 5b 2f bc
       0.07448245 0.04767329 -0.04946521 -0.010702921
0003c0 a1 4f 64 3d d3 87 e1 bc 6b 9f 42 bc 42 42 c9 3a
       0.055740003 -0.027530586 -0.0118788285 0.0015354829
0003d0 d3 74 a7 ba a5 0d cc 3c f2 04 9c 3d 7b 95 b7 3d
       -0.0012775905 0.02490885 0.07618131 0.08964058
0003e0 5d b5 8b bc ca 07 48 bd 67 58 63 3d 82 a3 22 bd
       -0.017054254 -0.048835553 0.05550423 -0.039706714
0003f0 44 90 66 bd da 46 a6 3d 73 fa f5 bc ff 67 d1 3d
       -0.056289926 0.081189826 -0.03002665 0.10224914

lstm.bias_ih_l0 f4 [512]
000000 62 d5 a6 3d 70 9d 07 3d 4f 39 98 bc 8e 58 e4 bb
       0.08146168 0.03310913 -0.018582014 -0.0069685644
000010 68 d8 82 bd c1 73 88 3c 12 4f b1 3d cb 0a 78 3c
       -0.063889325 0.016656758 0.086576596 0.015139292
000020 66 1a 1c bd 44 bc 09 3d e2 9d 53 3e b1 e3 1d 3d
       -0.038111113 0.03362681 0.20665696 0.03854722
000030 66 f9 3b bd 5b a7 7f ba b9 93 d5 3c 1f 0a c1 bd
       -0.04589214 -0.0009752416 0.026071416 -0.094257586
000040 cc f2 2e 3e 8b 8d 55 bd c8 3c 36 3d 0c b9 85 3d
       0.17084807 -0.05213694 0.04449156 0.065294355
000050 38 9a f3 bc 01 0d b7 3d f7 fd e2 3c 30 b4 76 bc
       -0.029736623 0.08938027 0.02770899 -0.0150576085
000060 a9 93 5d 3d 7d 06 c6 bc 54 b4 16 3d 3a d1 80 bd
       0.054095898 -0.024173016 0.036793068 -0.06289907
000070 e7 9d a1 3d e1 9f 88 bd 01 8e 11 3d 65 6c 4c 3c
       0.078914456 -0.066711195 0.035535816 0.012477015
000080 94 8b 21 3b 7f 9c 0e 3e 18 aa b8 bd 43 45 93 3c
       0.0024649845 0.13926886 -0.09016818 0.017977362
000090 7c 3b b8 3d ef 78 75 3c c6 3d 15 bd 72 d0 6c 3c
       0.08995721 0.014982446 -0.036435865 0.014453994
0000a0 06 6a 73 bc c7 e1 fc bc 01 f4 9a bd e9 50 72 bc
       -0.014856821 -0.030869378 -0.07566071 -0.014789798
0000b0 a9 25 bd bc 31 6c 48 bb 00 33 df bc 46 f1 b9 bd
       -0.023089247 -0.0030582065 -0.027245998 -0.090792224
0000c0 32 80 30 3d 16 fa 80 3c c2 ee 75 3d bf dc 8f 3d
       0.043091007 0.01574425 0.06004215 0.07024526
0000d0 53 d7 67 bd 88 63 a1 bd ef d8 a7 3d 12 a3 f7 bc
       -0.056601834 -0.07880312 0.08195674 -0.030229125
0000e0 4d 60 95 3d b4 e1 90 bb c9 3a 90 bd 10 79 6b 3d
       0.072937585 -0.004421437 -0.070424624 0.0574885
0000f0 f2 50 77 3c db 5b ba bb 2e 8d de 3c c2 27 a3 bd
       0.015094982 -0.0056872196 0.02716693 -0.079665676
000100 60 a0 34 3d 75 67 56 bd 1f e5 5c bc a6 e6 a4 3d
       0.044098258 -0.052344758 -0.013482361 0.08051805
000110 c6 c4 af 3c d1 e1 3b 3c 48 e5 97 3d 55 2a 95 bd
       0.021456134 0.011467413 0.07416779 -0.07283465
000120 63 12 eb bc dd 6d 55 3c 9b be 3f 3d a8 2f a7 3d
       -0.02869529 0.013026682 0.046812635 0.081633866
000130 01 81 57 3d 03 71 a8 bc 52 8a 21 3d 85 80 2e bd
       0.052613262 -0.0205617 0.039438553 -0.042603035
000140 26 71 52 3d f4 1e 67 3d 5e 4d 0c bd 88 05 71 bd
       0.051377438 0.056426004 -0.03425347 -0.058843166
000150 34 96 00 bd a8 b0 8c 3d 45 3d c1 bd 24 1c bf 3d
       -0.031393245 0.06869632 -0.09435514 0.09331539
000160 e9 75 58 bd a9 48 02 bd 34 1b 60 bd 31 3c 2d 3d
       -0.052846823 -0.031807575 -0.054713443 0.04229373
000170 29 d6 34 3d dd 77 6c bd d4 e8 aa 3d 25 fc a6 3d
       0.04414955 -0.057731498 0.0834519 0.081535615
000180 57 d7 91 3d 4e 14 86 3d 54 ec 71 3d e4 5e 45 3d
       0.07121151 0.065468416 0.05906327 0.048186198
000190 3e b8 ad bc ab 2e cb 3d 74 50 99 3c 31 ee be 3c
       -0.021206018 0.099210106 0.01871512 0.023306938
0001a0 97 cb 68 3d 01 7f 86 3c 23 3d b7 3d db 3b 30 bd
       0.056834783 0.016417982 0.08947208 -0.043025833
0001b0 00 e3 af bc a2 99 80 bd f4 60 b9 3d 6d f3 e1 bc
       -0.021470547 -0.06279303 0.090516955 -0.027581895
0001c0 72 eb 71 3d 7a 6f a0 3d d8 37 7c bc 03 bd 53 bd
       0.05906243 0.078337625 -0.015394174 -0.051693927
0001d0 1f 25 3b 3d d7 13 53 bd 2f 81 11 3d ea 19 ab b7
       0.0456897 -0.051532593 0.03552359 -2.0396856e-05
0001e0 c8 f4 01 3d 83 18 21 3c dd 0a 52 3d a3 ea d0 ba
       0.031727582 0.009832504 0.05127989 -0.0015939068
0001f0 aa ee 93 bb 6e ef 45 3d df 03 00 3d 3a bf c9 39
       -0.004514535 0.04832404 0.03125369 0.00038480182
000200 b6 d7 c9 bb aa 5a 86 3d ac 7e 2b 3d 15 fd 0c 3d
       -0.006159748 0.065602615 0.04186885 0.034421045
000210 39 9d 02 3d be fd 1c 3d c7 8d b3 3d 48 b3 62 3d
       0.03188822 0.038327925 0.08767276 0.055346757
000220 19 ec 13 3d 09 7d 91 3d fa df 2b bd ac d4 22 3d
       0.036113832 0.07103927 -0.041961648 0.0397536
000230 bd 38 56 bd 28 24 34 bd ff 31 85 bd 59 61 1f 3d
       -0.052300204 -0.043979794 -0.065036766 0.038911197
000240 ed 97 bb 3d c1 41 e7 bc 59 97 01 3c fd de bb bd
       0.09159837 -0.028229596 0.007909619 -0.09173391
000250 bd 94 06 3d a7 9a 0e 3c 73 3b 48 3d 43 49 56 3b
       0.03285669 0.008703864 0.04888482 0.0032697476
000260 ac c5 ba bd 72 b7 bb bc ec c5 82 3d 36 b4 35 bd
       -0.09119734 -0.022914622 0.06385407 -0.044361316
000270 33 10 b5 3d 2e 08 d4 bd 04 19 a2 bd 7f cd 9a bd
       0.088409804 -0.10353123 -0.079149276 -0.075587265
000280 ca ea 31 bd f0 c7 17 bd 97 91 3e 3d b6 be 29 3c
       -0.043436803 -0.03705591 0.046525564 0.01036041
000290 c6 79 95 3d 1c 17 a1 3d 98 73 fc 3c 42 3b a3 3d
       0.07298617 0.07865736 0.030816838 0.07970287
0002a0 53 7d 99 3d 5a b3 b7 bd 56 10 3b 3d ee 61 93 bd
       0.07494607 -0.089697555 0.045669876 -0.07196413
0002b0 2b d5 65 bd fd c2 25 3c f6 60 5c bd 33 74 5b ba
       -0.056111496 0.01011729 -0.053803407 -0.0008371502
0002c0 b8 dd c7 bd 7a b7 17 3d 63 79 9a bd 56 95 92 3d
       -0.09759086 0.03704021 -0.07542684 0.0715739
0002d0 06 f3 83 3d c2 12 01 bd 71 00 cc bc e0 1a c6 3d
       0.064428374 -0.03151203 -0.024902554 0.09673095
0002e0 09 5d 08 bd 58 5e 31 bd 18 88 d3 bd 5b d4 95 bb
       -0.03329185 -0.043302864 -0.10328692 -0.004572434
0002f0 be 27 d5 bd fa a3 40 3d 5d 3b 8f bd fd 52 95 bd
       -0.10407971 0.04703138 -0.069937445 -0.072912194
000300 60 bf b7 3d 23 91 3f 3d b3 c7 a9 bc 22 96 d9 bc
       0.08972049 0.046769273 -0.020725107 -0.026560847
000310 9e 01 9c bd 8c 49 65 bd b0 b4 65 bd 4a bb 62 bd
       -0.07617496 -0.055978343 -0.05608052 -0.055354394
000320 a2 ee 3f bb 83 32 d9 3c 95 9c 38 3c 38 68 26 bd
       -0.0029286523 0.026513344 0.011267801 -0.040626734
000330 8b 6c e0 bb c6 b4 08 bc 9b 41 dd bc 52 98 03 bd
       -0.006848877 -0.008343881 -0.027008822 -0.032127686
000340 60 ad 8c bc 95 17 a2 bd 95 92 23 3a 52 ea 79 3d
       -0.017172515 -0.07914654 0.0006239799 0.06101448
000350 71 27 0a 3d 83 9c 37 3d c4 a8 8d 3d 6c a9 1c bd
       0.03372902 0.044826996 0.06916955 -0.03824751
000360 b7 2a 1c 3d 71 c5 c6 3c 2e 9b cc 3d 9b 1b ed bc
       0.038126674 0.02426407 0.09990536 -0.028943827
000370 cf 00 af bc f4 32 bd 3d 9c ce 51 bb a7 bf 32 3d
       -0.02136269 0.09238234 -0.0032014018 0.043639805
000380 38 b3 8f bd cc 53 b8 3d b1 c8 33 bd b6 d3 d8 3d
       -0.07016605 0.09000358 -0.043892566 0.10587256
000390 6b 70 c7 3c 9e 33 37 3d 4b c9 86 3d 3d d8 e6 3c
       0.024345597 0.04472696 0.06581362 0.028179282
0003a0 a8 df b4 3b ee cf 47 bd 1d 5c 99 bb 7b bd a6 bd
       0.005519826 -0.04878228 -0.00468017 -0.08141609
0003b0 85 d2 d3 3c 10 e3 95 3d c2 89 3a bc ed d7 67 bd
       0.02585722 0.07318699 -0.011385383 -0.056602407
0003c0 17 4a 3d 3d 7b aa ae bd ac fb 4d bd 49 9c 64 bd
       0.046213236 -0.0852861 -0.05028884 -0.055813108
0003d0 aa 8f 27 bc f2 9f 61 3c 1b ac b1 3d d1 76 70 bd
       -0.010227123 0.013771044 0.08675405 -0.058707062
0003e0 2c cf 82 bd d3 75 43 bd 47 c5 92 3c 9f d6 41 3d
       -0.06387171 -0.047719788 0.017916335 0.04732382
0003f0 d9 fa c6 3b e0 29 a7 bb ea 8e 70 3d f0 47 89 bd
       0.006072384 -0.0051014274 0.058730043 -0.06703174

lstm.bias_hh_l0 f4 [512]
000000 65 0e fb bc 04 ce 81 bd 8e c7 be 3d fc 03 83 3c
       -0.030646512 -0.063381225 0.09315406 0.01599311
000010 82 61 88 bd 91 d3 bd bd c6 ae 84 3d 2b 87 7b 3d
       -0.06659223 -0.09268869 0.06478648 0.061408203
000020 ee e0 83 bc fb 4d 97 bd 05 1e 40 3e 78 3c b1 3d
       -0.016098466 -0.073879205 0.18761452 0.086541116
000030 a8 03 bd 3d fb 8f fb 3c de 69 a9 3d 86 48 46 bd
       0.09229213 0.030708304 0.08272146 -0.048409007
000040 37 25 e8 3d 3d 78 a0 bd d2 6e 2f 3d 4a 14 ae bd
       0.11335223 -0.07835434 0.042830296 -0.084999636
000050 4c 94 93 bc 45 45 f2 bc 86 2d 8a 3c b0 82 d4 3d
       -0.01801505 -0.029574046 0.01686741 0.10376489
000060 18 fc 46 bc 90 3f 94 bd f4 b2 11 3d 04 e9 95 3d
       -0.012145065 -0.07238686 0.035571054 0.07319835
000070 64 d4 fc 3c 52 0a ab 3d 32 12 42 bc 62 1d b2 bd
       0.030862994 0.08351578 -0.011845158 -0.086970106
000080 8b f8 bf 3d 0c 94 18 3e aa 30 0a bd 4f 6e dd 3c
       0.09373578 0.14900225 -0.033737816 0.027030138
000090 b0 f1 6d 3b 0f e7 85 bd 2c 3e 9f bc be 2e a6 3c
       0.0036307387 -0.065382116 -0.019438826 0.02028596
0000a0 9b 70 29 3d 36 e0 45 bd a6 5f a3 3d 37 aa a1 3d
       0.041367155 -0.048309527 0.07977228 0.07893794
0000b0 68 bc 2c 3d 50 a6 a2 3d 82 23 a4 3c b3 33 06 bd
       0.042171866 0.07941878 0.020036463 -0.032764148
0000c0 4d 59 80 3c f6 ea d5 bc 86 b3 60 3d 11 c5 8b 3d
       0.015667582 -0.026113015 0.054858707 0.06824697
0000d0 47 07 51 3d 72 23 95 3d 65 33 b0 3d 6d bd 00 3d
       0.05103233 0.07282151 0.08603553 0.03143065
0000e0 ca e8 26 bc bc da 89 3d 56 1f 40 3d d3 b7 71 3d
       -0.010187337 0.067311734 0.046904884 0.0590132
0000f0 09 dd 9e bd a1 0c 4a 3c bd 78 bf 3d 5a 64 6d bd
       -0.07757003 0.0123321125 0.09349201 -0.05795703
000100 25 9a ae 3c ff 82 00 3d 17 4a 1b bc 36 cc 82 bd
       0.021313736 0.031374928 -0.009478114 -0.063866064
000110 5e 9c 3d 3d 46 01 11 bd ed 45 f5 3c 06 ee 99 3c
       0.0462917 -0.035401605 0.02994057 0.018790256
000120 22 c6 98 3d aa 1b 9a 3d 83 cd 1a bd aa a9 b2 3d
       0.07459666 0.07524808 -0.037793647 0.08723767
000130 16 be 38 3c a7 2b 98 bd 79 b0 b0 3d da a3 e8 bc
       0.011275789 -0.07430201 0.086274095 -0.028398443
000140 b8 35 25 3d 66 f6 53 bd 6a 0b 07 3d 23 68 96 3d
       0.040334433 -0.051748656 0.03296987 0.07344081
000150 4d 51 5a bc c9 cd 64 3d 00 20 7b 3d 6a 0d ac 3d
       -0.013325048 0.055860315 0.061309814 0.08400996
000160 d0 9f 79 bd 6f 5c 81 3c 4b bb ca 3d 3b 8f 5f 3d
       -0.060943425 0.015791146 0.098990045 0.054579955
000170 71 b5 47 bd bd 9e e6 3c 7a 70 3f bd 9e 90 6b 3c
       -0.04875702 0.028151864 -0.046738125 0.014377741
000180 8e 65 95 3c 0a 1e 03 3d 31 21 24 3d 04 84 6c bd
       0.018236902 0.03201107 0.040070716 -0.057743087
000190 59 e3 ff 3b 31 aa 98 bc 9a 33 91 bd 46 99 58 bd
       0.0078090844 -0.018635841 -0.0708992 -0.052880548
0001a0 5a b9 66 bc af b4 c2 3d 87 52 a7 3c 3a 09 e1 3b
       -0.014082277 0.09507119 0.020425094 0.006867555
0001b0 5b 9f 03 3d 6d 14 a9 3d 97 7e 9b bb e5 f1 f3 3c
       0.032134395 0.08255849 -0.0047453153 0.02977843
0001c0 76 b7 5a bd c9 62 b6 bd 89 49 fd 3c 0b 97 6d bd
       -0.05339762 -0.089055605 0.030918853 -0.058005374
0001d0 3f 48 cd bd a0 e2 a9 3b c3 9b 08 bd 47 1c 09 bd
       -0.100235455 0.0051844865 -0.03335167 -0.033474233
0001e0 b4 72 3b bd 3f 17 42 bc 98 53 35 3d 1e 01 5f 3d
       -0.045763686 -0.011846363 0.044269174 0.054444425
0001f0 4c ae 1c bd 14 25 99 3d e4 11 80 3b 5b 2f 01 3d
       -0.03825216 0.07477775 0.0039083827 0.031539302
000200 d1 ee 3b 3d 40 10 f7 3c 7d b8 be bd 48 5b cc bc
       0.04588205 0.030159116 -0.09312532 -0.02494587
000210 d7 1b a3 bc b2 63 f9 3c 4c 11 9d 3d da 79 03 3d
       -0.019910736 0.030443046 0.07669315 0.03209863
000220 7a 69 b9 3d bf cf db bc 0e 4d 26 bd ab 51 80 3d
       0.09053321 -0.02683246 -0.04060083 0.06265577
000230 a9 d0 3e 3c 77 5f cc 3a 6d 77 94 bd 81 bd 99 bb
       0.011646428 0.0015592416 -0.07249341 -0.00469178
000240 7b a9 e3 3d 6a 80 6a 3d 0d 49 97 bd a9 01 51 bd
       0.1111631 0.05725137 -0.0738698 -0.051026974
000250 6a 3a 77 3d 90 b0 15 bd a9 9f bf 3c a4 f8 10 3d
       0.060358442 -0.036545336 0.023391562 0.035393372
000260 42 bc c8 bd 41 fe 85 bd 8e 7a 65 3c 5a 35 25 3d
       -0.09801532 -0.06542636 0.01400627 0.040334083
000270 0e 55 19 3c 9c 1e 25 bd d2 da 66 3d 9d 80 c6 bc
       0.0093586575 -0.040312394 0.056361027 -0.02423125
000280 17 f6 cc 3b ee 1e c0 bd fd 20 44 3d e3 af 02 bd
       0.006254922 -0.09380899 0.047883023 -0.03190602
000290 b0 7f 91 3d 94 5f 8b 3d ad 87 67 3d 7c ed 0e bd
       0.071044326 0.068053395 0.056525875 -0.03489445
0002a0 c5 4c 0d bb 75 99 5c 3d a2 88 b0 3d 64 57 3f bb
       -0.002156065 0.053857286 0.08619811 -0.0029196376
0002b0 87 ac 6b bd ab b9 17 bd 74 51 0f bd e7 d2 d3 3b
       -0.05753758 -0.0370423 -0.03498979 0.0064643505
0002c0 4f a7 e5 3c a1 8e 83 bc ce 84 58 3d 80 ef b1 3d
       0.02803388 -0.016059222 0.052861027 0.08688259
0002d0 bf 19 c3 bc 98 58 a3 3d d5 5d 39 bb 0a a5 63 bd
       -0.023815988 0.07975882 -0.0028284688 -0.055577315
0002e0 4d 10 0b 3d 04 ed 7d bc d2 bd 82 bc ec 70 55 bd
       0.033951093 -0.015498403 -0.015959654 -0.052109644
0002f0 9c 18 db bd 1a eb cf bc a7 aa d1 3d 0b 5d 9e bd
       -0.10698053 -0.02538066 0.102376275 -0.0773259
000300 ed 43 10 3d c5 64 8b 3c eb e0 82 3d a1 e8 57 bd
       0.03522103 0.017015824 0.06390556 -0.052712087
000310 31 bb a9 3d 04 a0 65 3d 9e d4 b6 3d 50 35 79 bd
       0.08287657 0.056060806 0.08927272 -0.06084186
000320 35 a2 11 bd 3b e0 9c bc 96 06 bf 3c 74 1f 9b 3d
       -0.035555083 -0.01914989 0.02331857 0.075743586
000330 f8 21 a7 3c 66 bd 93 bd 02 2e ac bc d5 51 37 3d
       0.02040194 -0.07213859 -0.021018032 0.044755775
000340 82 1d a3 3d 85 bc 2e bd 8f 3b 7c 3c c8 23 96 bd
       0.079646125 -0.042660255 0.015395059 -0.073310435
000350 26 89 b6 3d 31 37 75 3d af 0b 52 3d 66 84 f3 3c
       0.08912878 0.059867088 0.051280674 0.029726218
000360 86 50 84 3d 94 bc 82 bd f8 df 92 3d 7e f0 51 3c
       0.06460671 -0.06383625 0.07171625 0.012813685
000370 eb d4 8f 3d ac a9 97 bd 27 82 b7 3c c9 13 ca 3c
       0.07023033 -0.07405409 0.022400929 0.024667637
000380 6c ff a4 bc 02 3a 82 bd 64 2d 64 3d d7 7a 6a 3d
       -0.020141326 -0.0635872 0.05570735 0.057246055
000390 7f 03 69 3d 82 c3 83 bd 15 1e ab bd ab 1f 97 3c
       0.0568881 -0.064337745 -0.08355347 0.018447718
0003a0 51 a9 98 bc 50 fa 39 3d 38 8e e4 bc c0 45 ed bd
       -0.018635424 0.045404732 -0.027899846 -0.115855694
0003b0 ea 22 55 bd 2f 74 51 bc 3e 05 ac 3c 10 28 ae 3c
       -0.05203525 -0.012784048 0.020998593 0.021259338
0003c0 e1 32 1e 3d 91 45 2c bc b7 99 c7 bd 13 38 35 bd
       0.03862274 -0.010514633 -0.09746116 -0.04424293
0003d0 78 a7 88 bd e4 d7 ee 3c e0 3e f6 3c 3d 7c cb bd
       -0.06672567 0.029155679 0.030059278 -0.09935806
0003e0 3a 8a b6 3d f1 d0 3a bd 37 7b 3d bd 8b 33 76 bd
       0.089130834 -0.04560942 -0.046260085 -0.06010775
0003f0 d2 62 4f 3d 6b 94 91 3d 00 af 5c bd be f1 87 bd
       0.05063135 0.071083866 -0.05387783 -0.066379055

linear.weight f4 [16, 128]
000000 9f d0 f2 bd c9 cd e7 bc fc 3b 82 3c 80 8e 92 bd
       -0.118561976 -0.028296368 0.015897743 -0.07156086
000010 a6 21 18 bd a0 62 0f 3d c0 b0 3a 3b 00 14 23 bd
       -0.037141465 0.035006166 0.00284867 -0.039813995
000020 ee bc 31 3d 88 56 b4 bd 59 0b e5 bd 62 72 f7 bc
       0.043393068 -0.08805567 -0.11183805 -0.03020591
000030 1b 30 65 3d df d1 e2 bd 91 67 1b 3d d5 78 0d bd
       0.05595408 -0.11075186 0.037940565 -0.034539063
000040 d7 ff 84 3e e8 1b a3 bd 3b fa 00 be 97 e6 69 3d
       0.2597644 -0.07964307 -0.12595455 0.057104673
000050 7b 24 0a 3b c3 5b 53 3d bc f8 c3 bb bc 4d 5e bc
       0.0021078873 0.051601183 -0.005980579 -0.013568338
000060 c2 33 b0 3d 30 e1 ba 3b db 4a b3 bd 62 14 cc 3d
       0.08603622 0.005703114 -0.08754512 0.09964825
000070 e4 f2 03 3d e2 b3 4a bd ef 74 7a bc 37 7f 94 bc
       0.03221406 -0.049487956 -0.015286668 -0.018127067
000080 c3 f5 c7 3d 84 f2 db be ba 43 69 3d c7 5f a0 bd
       0.09763672 -0.42958462 0.056949355 -0.07830768
000090 06 9e 74 bc 3b 14 4c bd df 40 99 bd 5e 6e d2 bb
       -0.014930254 -0.04982398 -0.07483076 -0.006421848
0000a0 86 17 ef bd 9c 90 a6 3c 9c 7b 89 bd 98 dd a3 3d
       -0.116744086 0.020332627 -0.0671303 0.0800125
0000b0 5f aa 3d be d3 7e 1f bc a9 b0 ef 3d 1e 75 bd 3d
       -0.18522023 -0.009734827 0.11703617 0.09250854
0000c0 c4 4a 4b bd e5 2b 59 3c 08 b2 40 bd 14 e6 d9 3c
       -0.04963185 0.013255094 -0.047044784 0.026598968
0000d0 1e 6c 1e bd e8 ec d1 bd af 27 65 3d 40 69 06 3e
       -0.038677327 -0.102502644 0.05594605 0.13126087
0000e0 ee f2 5e 3c 47 64 d1 3d 74 f9 99 3d 45 10 7f bd
       0.013607724 0.102242045 0.075182825 -0.062271375
0000f0 23 66 d5 bc 2d 64 f7 3d 22 90 ae bd d8 a9 e6 bd
       -0.02604968 0.12079654 -0.08523585 -0.11262864
000100 86 d3 71 3d 94 96 18 3c 50 94 74 3c dc a0 d3 bd
       0.059039615 0.009313244 0.014927939 -0.10333416
000110 59 23 d5 3d be 65 92 3d a9 d0 ad bd 2f ee c8 bc
       0.10407133 0.07148312 -0.084870644 -0.024527637
000120 9d f8 fc bd 8b fb e0 3d 26 6f 94 bd df af 7f 3c
       -0.12352107 0.10985478 -0.072477624 0.015605896
000130 7b ef 12 bc 46 d9 38 bd 48 b6 57 3c 37 58 a7 bc
       -0.008968229 -0.045129083 0.013166018 -0.020427806
000140 19 91 cd bd 6c 30 af bd 03 ab e4 bc 87 9f 27 3d
       -0.10037441 -0.085541576 -0.027913576 0.04092362
000150 ba c3 5e bd 89 09 cc 3d 63 d3 91 3d c5 4e a7 bb
       -0.05438588 0.09962756 0.07120397 -0.0051058256
000160 4c 08 8d 3d d0 7b 76 bb 5e 47 ed 3d db 58 ca bd
       0.06886348 -0.003761042 0.11585878 -0.09880229
000170 76 e8 7a bc f3 31 36 bc 99 06 96 3b 85 2f a3 3d
       -0.015314212 -0.011120307 0.004578423 0.07968048
000180 8a 8a 8b 3d c1 64 08 be 72 d6 89 ba ca 58 a9 bc
       0.068135336 -0.13319685 -0.001051618 -0.02067222
000190 4d bd ca 3c de dd a0 3d 87 55 52 3d a4 f4 18 3c
       0.024748469 0.07854818 0.051351096 0.009335671
0001a0 56 a7 20 bc a7 e5 92 bd 71 2f 94 3c f8 98 26 bc
       -0.009805521 -0.07172709 0.018089028 -0.0101683065
0001b0 99 66 b1 bd 77 a2 f4 bc 07 c8 e1 3c c9 9d f8 bd
       -0.08662147 -0.029862626 0.0275612 -0.1213947
0001c0 2a bc aa 3c ba 88 37 3c c3 c8 50 bd a2 11 a9 3c
       0.020841677 0.011202032 -0.05097271 0.02063829
0001d0 b2 59 72 bd 58 13 30 3e 6e 41 14 3e 2a 17 81 3d
       -0.05916757 0.17194879 0.14478084 0.06303246
0001e0 34 57 90 bb bc c9 fa 3d 77 76 13 bd d9 0c 60 3d
       -0.0044049267 0.12245509 -0.03600165 0.054699752
0001f0 1f a1 ed bc c7 dc d5 bc a0 be 1c bd 0e 06 22 3e
       -0.029007493 -0.026106251 -0.03826773 0.15822622
000200 3b cf 92 bd c9 7a 2b bc 8f b5 0b 3e bf 55 70 3c
       -0.07168432 -0.010466286 0.13643478 0.014668881
000210 8d 2b 8a 3c c7 fa 0f bd de 5c da bd 8c b7 94 bd
       0.01686647 -0.03515127 -0.10662244 -0.07261571
000220 5e 39 04 3d fc 4a 5d bd 38 ff 38 be ab ee 0d 3d
       0.032281272 -0.05402659 -0.18066108 0.03465144
000230 e7 a2 6e 3d 45 a6 06 bd 3e 3e d1 3d 6d 38 7a bb
       0.058260825 -0.03287341 0.1021695 -0.0038180605
000240 75 97 79 3e 21 5c 37 3d 82 19 0e be 9e 9d 15 3d
       0.24374183 0.044765595 -0.13876918 0.03652727
000250 10 a4 82 3d b8 0e ff 3c bc e7 9b 3d 52 0f 99 3d
       0.06378949 0.031134948 0.07612559 0.07473625
000260 2f 91 b6 3d 3b 06 76 bc 37 bb 53 3c 7d 4f 10 3e
       0.0891441 -0.015016134 0.0129230535 0.14092822
000270 92 f4 00 3c 62 0b b3 3a 85 a6 25 3d 45 d3 33 bd
       0.00787081 0.0013660009 0.04044201 -0.043902654
000280 2b 75 9e 3d 49 e5 fe be 9e dc 4c 3c 02 f0 4b bd
       0.07737192 -0.49784306 0.012503771 -0.049789436
000290 22 69 55 ba 67 f6 dc 3d ef 65 21 3c 8d b6 84 3d
       -0.0008140971 0.10789185 0.009850963 0.06480131
0002a0 ba 6d 4e be 33 d4 0b 3d 48 8e 69 3d 22 27 b9 3d
       -0.20159045 0.034137916 0.057020456 0.09040667
0002b0 2a 5e 52 bd a6 78 06 be b7 71 d4 bc de 86 1e 3c
       -0.051359333 -0.13131961 -0.02593313 0.0096757095
0002c0 ce ab 8a bd 26 30 29 bd 9e fc 22 bd 21 32 bd 3d
       -0.067710504 -0.041305684 -0.039791696 0.09238077
0002d0 ab f8 4f bd b2 56 84 3b 47 4c 9c 3d c4 6d 76 3d
       -0.050774258 0.004038655 0.07631736 0.060163274
0002e0 89 af 43 3d 50 48 b8 3d 8c cc 40 bc aa f1 1f 3c
       0.047774825 0.089981675 -0.011767518 0.009762207
0002f0 fc 22 f3 3c 49 9d 8e 3d f4 55 50 3d bb 66 06 bd
       0.029679768 0.069635935 0.05086322 -0.032812815
000300 9b 37 a3 3d a6 91 5f bd f2 f7 6b bd 86 6d 5f 3d
       0.0796959 -0.05458226 -0.057609506 0.05454781
000310 2e 63 d0 3d 2d 12 3a bb cd 3f 83 bc 93 62 b9 bd
       0.10175167 -0.0028392181 -0.016021634 -0.09052005
000320 e8 d8 92 bd c9 82 f6 3c 79 cd 96 bd c6 b8 ab bc
       -0.07170278 0.03009166 -0.073634095 -0.02096213
000330 9d da ca bc c1 88 cb 3a 6e ba 9e 3c ef 23 1b 3d
       -0.024762446 0.0015528427 0.019376006 0.037876066
000340 81 a3 77 3b ba 2a 56 bd bf d9 13 be 32 20 b7 bd
       0.0037786665 -0.05228684 -0.14438532 -0.08941688
000350 ee 68 0d be a3 58 91 bd 6b 69 59 bd ab 26 09 bd
       -0.13809559 -0.07096984 -0.05307905 -0.033484142
000360 12 a5 69 3d 3b d9 38 bc 57 c0 cb 3d 8d d9 8d bd
       0.05704219 -0.0112822605 0.09948795 -0.0692626
000370 4c 25 46 bd db 64 27 bd ae 4d ff bc 1b aa 8d 3c
       -0.048375413 -0.040867668 -0.03116497 0.017293027
000380 55 b4 3a 3d c4 a4 87 3c f8 78 9f bd 1b cb 46 3d
       0.045582134 0.016558059 -0.07786745 0.04853354
000390 f1 1d ba bd de 2a f9 3d 78 d6 11 3d 37 ef e6 bd
       -0.09087742 0.121663794 0.035604924 -0.11276095
0003a0 64 a7 20 3d 42 09 0d be 9a d1 a5 3d 5f 02 93 bc
       0.039222136 -0.13773063 0.08096619 -0.017945467
0003b0 f0 1e 0e bd 3c a0 48 bd 94 ba 9f 3d 8d f0 38 3c
       -0.034697473 -0.048980936 0.07799259 0.0112878205
0003c0 30 78 55 3d ce 39 af 3c f5 ae 10 3c 6a bd 16 3e
       0.052116573 0.021389868 0.0088307755 0.14720693
0003d0 5c d4 26 3d 24 01 9a 3d c0 a0 de 3d 7c 07 2b 3d
       0.040729865 0.07519749 0.108705044 0.041755185
0003e0 0c 7c 0b 3d 4d e8 06 3c 5e 88 e0 bc 36 52 f6 3d
       0.034053847 0.008234096 -0.027408775 0.12027399
0003f0 f7 7a 81 bc bc 05 a6 bc c0 a9 bd bd ee 65 8f 3d
       -0.015805705 -0.020266406 -0.09260893 0.070018634

linear.bias f4 [16]
000000 11 56 a4 bc 5a bf 9d 3d 3a 27 bb 3d 32 1c 90 3d
       -0.02006057 0.07702513 0.09138341 0.07036628
000010 6c e5 0f 3d 70 b6 b4 3d cd bd c1 bc 0f 2e 8e bc
       0.035130903 0.0882386 -0.023650074 -0.017355947
000020 ce 8e c2 3d 3b 80 40 bd d9 d7 45 bc 94 07 5f bd
       0.09499894 -0.04699729 -0.012075388 -0.054450586
000030 2a 30 71 3d 24 27 5a bd 32 2a 12 bd fe e8 4f bd
       0.058883823 -0.053259984 -0.03568477 -0.050759308
