models/Basel_QNN_2026-02-03_49e_16h_2l.pth (torch, 3321 bytes, 3 tensors)

qlayer.weights f4 [2, 8, 3]
00000000: f548 ae40 f1a1 bd40 4890 7f40 f3a9 4a3f
00000010: 439c ee3f 21af a83f 023a 0c40 8237 b740
00000020: 4702 2040 69f9 b73f 355b a740 f0ca 2f40
00000030: 78d0 4c40 f07c 8040 ff2e af3e db9a d53f
00000040: 5e7d d93f 53ea b240 57d9 b240 5056 eb3f
00000050: 9867 163f 68bb 953f 8811 a640 47b9 5f40
00000060: 5f59 8340 954c aa3f b6bb a540 f22f 7240
00000070: 4e31 5740 df12 9240 1128 6a3e 3b49 c840
00000080: 8011 a040 7582 1640 108b f83f 22bc 6940
00000090: 46d0 a240 1e97 103f d5a5 8240 3b00 4a40
000000a0: cd41 9140 06f8 8940 de22 c940 a150 9640
000000b0: 07b7 6f40 4270 b940 e26a f93f a022 d73e
5.446406 5.926018 3.9931812 0.7916557 1.8641437 1.3178445 2.1910405 5.725526
2.500139 1.4372989 5.2298837 2.7467613 3.200224 4.015251 0.34215543 1.6687883
1.6991384 5.591104 5.5890307 1.8385715 0.5875182 1.1697817 5.18964 3.4956834
4.1046596 1.3304621 5.179164 3.7841763 3.3623843 4.5648036 0.22866847 6.2589393
5.002136 2.3517125 1.9417439 3.6521077 5.087924 0.56480587 4.082743 3.156264
4.5392823 4.3115263 6.2855062 4.6973424 3.745546 5.7949533 1.9485743 0.42018604

lin.weight f4 [16, 8]
00000000: 31d9 8a3e b6e6 373e e538 6c3d bcef 5bbf
00000010: ead7 a43e 60f0 b43f 15b5 c23f c4b1 eb3e
00000020: 1c92 2b3d eed1 363e 46be 713e 4916 89bf
00000030: ca57 5cbe 8c19 a33f a065 e43f a741 ca3e
00000040: d821 72be 0be0 6c3e 7c54 383e 9c7a 8cbf
00000050: 0633 883e 1967 9e3f ca7a da3f d0ba 263e
00000060: affe dc3e 84b0 27be 26c4 8e3e 14ae 7ebf
00000070: 9945 bfbe 900e 813f b2e4 d03f c6b3 0a3f
00000080: 87b1 78be e153 873e 2f0d bcbd 7c67 55bf
00000090: 6678 c03d 2b5b 613f d7f2 bc3f 3852 d83d
000000a0: 51b0 9f3d 952d db3d dab8 283e e33a 10bf
000000b0: f560 cd3e 9ac6 203f 3398 bb3f 00af aa3e
000000c0: 8fad 66bd 8dd4 0a3d ed1d 9f3e 35cd 1bbf
000000d0: 5b0e 58be 641a f93e f479 bf3f 7930 963e
000000e0: fdc3 853d 3b00 5bbd f5d3 053f df16 aebe
000000f0: 01fe e13e b9ed af3e 52ea ac3f 0f73 153f
00000100: 7ae9 c93d 06ff ab3c 96b5 78be 4a64 b8be
00000110: ef54 fb3d 88f0 df3e 4a92 7f3f ec16 193e
00000120: 5711 f4be d0cc 113e 89ab e8bd a1bf f6be
00000130: 821e a4bc f42a 9f3e 614c 913f c0cf a73e
00000140: 2677 dbbd 97f0 a1be e060 2e3c 2e3d 0bbf
00000150: 9816 90be 5c3e c23e c88b 603f 4236 3e3d
00000160: a6bb 293e e5a2 c4be 92cf 16be ea32 0abf
00000170: 8a2b b0be 359e 3f3e 15db 8a3f 446e aebd
00000180: 1980 2dbf 28fe aebe 18fd bfbe ae10 4ebf
00000190: 34a9 1b3e d55b be3e 4068 353f ee59 eb3e
000001a0: 299e d0be b9b7 c5be 17a4 81be f478 08bf
000001b0: 7bf0 983e 8d0b f03d 3017 543f ca81 183d
000001c0: 9537 8e3c 631a 15bf 28d3 17bf e9d6 ebbe
000001d0: 39f2 15bf 463e b83d d2cb 173f bdc1 8cbe
000001e0: ce88 913d d78b 32bf be9a 12be 71de 91be
000001f0: abb1 263e 2bc2 0d3d d99e 1a3f 1b6f 00be
0.2711883 0.17959103 0.057671446 -0.8591268 0.3219598 1.4135857 1.5211512 0.46034062
0.041887388 0.1785352 0.2360774 -1.0709926 -0.21517864 1.2742171 1.7843513 0.39503214
-0.23645723 0.2313234 0.18000978 -1.0974917 0.26601428 1.2375213 1.7068722 0.16282201
0.43163058 -0.16375929 0.27884024 -0.9948437 -0.37357786 1.0082569 1.6319792 0.5418056
-0.24286471 0.26431182 -0.09182202 -0.8336103 0.09397964 0.88029736 1.4761609 0.10562557
0.077973016 0.107020535 0.16476765 -0.56339854 0.40113035 0.6280304 1.4655823 0.3333664
-0.056317862 0.03389411 0.3107752 -0.60859996 -0.21099226 0.48652947 1.4959092 0.29333857
0.065315224 -0.053467017 0.52276546 -0.34001824 0.44139102 0.34361055 1.3509009 0.5837869
0.09858985 0.020995628 -0.2428802 -0.36014014 0.12272059 0.43738198 0.99832594 0.1495015
-0.4766948 0.14238286 -0.11360843 -0.48193076 -0.020034079 0.31087458 1.1351434 0.32775688
-0.10716085 -0.31628868 0.010643214 -0.5439023 -0.28142238 0.379382 0.8771329 0.046438463
0.16575488 -0.3840553 -0.1472762 -0.5398394 -0.34408218 0.18712695 1.0848109 -0.08517125
-0.67773587 -0.3417828 -0.37497783 -0.804942 0.15201265 0.37179437 0.708622 0.45967048
-0.40745667 -0.38616732 -0.25320503 -0.5330956 0.29870972 0.11720953 0.8284788 0.03723315
0.017360488 -0.5824339 -0.59306574 -0.460624 -0.5857273 0.08996253 0.5929538 -0.2749156
0.071061715 -0.6974463 -0.14316842 -0.28490022 0.16278712 0.034609 0.6039863 -0.12542383

lin.bias f4 [16]
00000000: ff90 0d3e abf1 9c3d 2ca9 f13d 2924 883d
00000010: 82b8 0a3e 79b9 4f3e 8ad2 183e c293 8b3e
00000020: 25e5 473e ee30 6b3e 8c0c 0f3e 57b8 bb3d
00000030: 37c4 723e adac 533e 3f08 823d 1253 293e
0.13824843 0.07663282 0.11799845 0.06647522 0.13546947 0.20285596 0.14924064 0.27261168
0.19521005 0.22967884 0.1396963 0.091660194 0.23707663 0.2067134 0.06349229 0.16535595
