models/Basel_LSTM_2026-02-02_49e_8h_1l.pth (torch, 275729 bytes, 6 tensors)

lstm.weight_ih_l0 f4 [512, 1]
00000000: c6fd 523e 2584 073e e2b4 da3d efc5 aa3d
00000010: a6f6 8dbd a5e1 d03e 8cd5 2d3e 90a2 8dbd
00000020: cfb8 7a3c b783 06bd c40e 083e d12f 3a3c
00000030: 60bc 0a3d 2de8 27bc b2f3 3a3e fc55 153e
00000040: c276 543e 74d7 2f3e 1267 af3d 689b 383e
00000050: 73c8 903d 5526 0d3e c1d9 3e3e bcca af3e
00000060: 6d2b 8b3d 9094 473d 4c28 fc3d a1d9 c13c
00000070: bb0d 4e3e 4719 203e 75f6 f73d cffe c23c
00000080: 41c4 0b3e 5e13 edbb faaf 1fbe ab01 2b3d
00000090: 36c5 833d 3028 683c 137b 3d3e 1d44 943b
000000a0: d035 5e3e 12b7 65be 1ae1 2d3e b727 353e
000000b0: 1a5d 76bd 1e59 52be e0be 523e d141 2e3e
000000c0: b33d e0bc 2a81 013e 548a 8bbd 08a7 203e
000000d0: c19f 4f3e 02b6 a43d 0ae3 c43d d380 e83d
000000e0: c136 e53c 61a8 8bbd 0ccf 06be c056 103e
000000f0: e992 2e3e 123c 903d d03f 3a3e b0cb 303e
00000100: 5906 883d c896 0f3e 742c bf3d 923e ea3c
00000110: fcae 2a3d b3d5 123d ed87 f1bc c221 f4bd
00000120: 309a 7cbc d5e5 4d3d 1ee4 453e 988f 5a3d
00000130: c7ec 6b3e dcea 7a3d e435 f63d 0889 2a3d
00000140: d17a 2c3e b923 0c3e ce03 1f3e acf8 543d
00000150: 4bb2 7e3e b279 323e b142 963d 423e 683e
00000160: 355b 453e daac 153e 2440 c6be e82b 2c3e
00000170: 2b74 233e 0257 553d bfa6 9e3d 2d8f 363e
00000180: e5de 213e ffc0 413e d681 403d 15b5 12be
00000190: 2267 913e 0a56 2e3e 8136 3a3d b3a9 113e
000001a0: dac9 9e3c 262e a13d bdc5 063e cd13 433e
000001b0: 2e75 153e e263 303e 652f 313d 9950 5b3e
000001c0: 88e7 183d f31e af3d cede e0bb f25f 313e
000001d0: deb3 413d 5f86 4d3e a8be b5be 3825 8c3e
000001e0: 2ee8 823d 40cd 463e 1650 b43d bfbe cb3d
000001f0: 5b31 543e f77a f03d e9e2 a23d 76c1 14be
00000200: 0fed a83d c737 533e a115 dc3c 96b7 393d
00000210: 9e1a d2bd f988 da3e a2d1 7a3e 2281 41bd
00000220: b007 343e 2549 333d 25de 303e 00e2 503d
00000230: cdb2 7d3c 01db 71bd 2d40 4a3e 972e 23be
00000240: a0c6 803e bdc3 ae3d 0057 ef3d 300f 163d
00000250: 1faf 083e 8e2a 753c ff74 213e 3003 9c3e
00000260: d3d0 4c3d 0aa7 233d c03d 513e 91e4 1c3e
00000270: 2676 b83d fffb 763e 556f 023e 2d36 c5bd
00000280: 7201 0b3e 7b44 d53d bc2b 77be e8d3 023d
00000290: db8d 0a3e 1306 b33d 9cc2 5c3e 7085 043e
000002a0: 67a0 f93d 8bb7 b8be 42ba 6b3e 74b9 873d
000002b0: 96e4 31be 9873 dabe 1c72 e83d 96b5 7e3d
000002c0: abc8 b1bd 7cbb 203e b543 233d bb3f 4f3e
000002d0: 1055 5f3d bbec 2fbe 5e71 5ebc 05d5 5e3e
000002e0: d299 a73d 5bbf 3e3d 988d fabd 9f02 f73d
000002f0: 6c19 703e cfdf fd3d 9897 593e 622d 383e
00000300: 9db5 a53d 40a5 603e a6df 853d 48a5 223e
00000310: 9728 813d 892b afbd f49d 86bd 4635 0dbe
00000320: 2c70 59bb 72ee bebd ca16 883e 8921 843d
00000330: b57b 823e 39bc 273d c625 c23d 89db 0f3e
00000340: 8d11 673c 69be 0f3d 998e bf3d 0fc8 e53d
00000350: ec4c b73d bcdc 713d bc99 663e aa07 533e
00000360: 78d1 303e da8a 2c3e d70b d9be 30a8 2f3e
00000370: d314 383e 0a8e f53d 28e7 3c3c 18f6 603e
00000380: 4513 433e ad79 673d 56d6 7a3c 9e0e f3bd
00000390: ad83 623e fdb8 913d bf2d de3c b896 c13d
000003a0: f880 2f3e 977c 993d f981 473c e22f 653e
000003b0: 2e95 6a3e 9c1b fe3d d6af aa3d 6b29 5d3e
000003c0: c163 18bd 8863 e63d c123 dc3c 689c e93d
000003d0: 3259 b93d 161d 143d 8049 9dbe 8daf 8c3e
000003e0: 3acf ee3d ae69 553e 4394 9a3d 115f 623d
000003f0: bc4a df3d 8233 ad3c 5f37 863d 4926 30be
0.2060462 0.13234003 0.10679032 0.08338534 -0.0693181 0.40797153 0.16975993 -0.06915772
0.015302851 -0.032840457 0.13286883 0.011363939 0.033871055 -0.010248226 0.18257025 0.14583582
0.20748428 0.17172033 0.08564581 0.18028033 0.07069483 0.13784154 0.18637754 0.34334362
0.06795392 0.048725665 0.123123735 0.023663344 0.20122425 0.15634643 0.12107555 0.023803143
0.13649084 -0.0072349748 -0.15594473 0.041749638 0.064340994 0.014169738 0.1850398 0.0045247213
0.21700215 -0.22433117 0.169804 0.17690931 -0.060147382 -0.20541808 0.20580626 0.17017294
-0.02737317 0.12646928 -0.06813493 0.15688717 0.20275785 0.08042528 0.09613617 0.11352696
0.02798021 -0.06819225 -0.1316492 0.14095592 0.1704823 0.070427075 0.18188405 0.172652
0.06641836 0.14022362 0.09334651 0.028594289 0.041670784 0.03584833 -0.02948376 -0.11920501
-0.015417621 0.050268013 0.19325301 0.053359598 0.23039542 0.061259136 0.120219976 0.04163459
0.16843726 0.13685502 0.15528795 0.051994964 0.24872701 0.17429236 0.07336939 0.2268
0.19273074 0.14616719 -0.3872081 0.16813624 0.15962283 0.05208493 0.07746648 0.17828055
0.15807684 0.18921278 0.04699882 -0.1432689 0.28398997 0.17025009 0.045462135 0.14224891
0.01938336 0.0787013 0.13161369 0.19050522 0.14595482 0.17225602 0.04325809 0.21417464
0.03733018 0.08550825 -0.006862498 0.17321756 0.047290675 0.2007079 -0.35497022 0.27372146
0.06391941 0.19414234 0.08804338 0.09948491 0.20721953 0.11742204 0.07953436 -0.14526924
0.0824834 0.20626746 0.026865782 0.045341097 -0.10258983 0.42682627 0.24494031 -0.04724229
0.17581058 0.043770928 0.17272241 0.05099678 0.015484524 -0.05904675 0.19751044 -0.15935741
0.2515154 0.08533428 0.11686516 0.036635578 0.13348053 0.014963759 0.15767287 0.30471182
0.050003838 0.039954223 0.20433712 0.15321566 0.0900691 0.24119566 0.12737782 -0.09629474
0.1357477 0.10413452 -0.24137777 0.03194037 0.13530676 0.08741393 0.21558613 0.12941527
0.121887974 -0.36077532 0.2302027 0.06627169 -0.17372355 -0.42666316 0.1134989 0.062184893
-0.086808525 0.1569652 0.039859492 0.20239155 0.05452448 -0.1718015 -0.0135768335 0.21760948
0.08183636 0.04656921 -0.12234038 0.12061047 0.23447198 0.12396204 0.21249235 0.17986062
0.080912806 0.21938038 0.06536798 0.15883362 0.0630657 -0.085532255 -0.06573096 -0.13789853
-0.0033178432 -0.093228236 0.26579887 0.06451709 0.25485006 0.040950987 0.09479861 0.1404859
0.0141033055 0.0350937 0.0935337 0.11219799 0.089502186 0.0590484 0.22519583 0.20608392
0.17267406 0.16849843 -0.42391846 0.17154002 0.17976694 0.119899824 0.011529721 0.21968877
0.1905032 0.056512523 0.015309891 -0.118680224 0.22120543 0.07115362 0.027121423 0.094525754
0.17139041 0.07494467 0.012176984 0.22381547 0.2290847 0.1240761 0.08334319 0.21597831
-0.037204508 0.11249453 0.026872518 0.11406785 0.09050216 0.03616055 -0.3072014 0.27477685
0.11660619 0.20841095 0.0754781 0.055266444 0.10902926 0.021142725 0.0655353 -0.17202105

lstm.weight_hh_l0 f4 [512, 128]
00000000: f8c3 493b 4cee 70bd 9b86 8e3d c150 443d
00000010: e4d5 763d fff8 aa3d 01e4 b6bd 45e8 763d
00000020: 2501 24be 39d6 16bc e353 f2bd 0386 e7bc
00000030: 88e4 bdbc 1972 473c c5e3 683d faeb 6a3d
00000040: a49a 153e 7c21 d13d 12d1 50bc e7d5 553c
00000050: 08aa c63d 6fdc 063e d382 1a3e 187b 41be
00000060: 9795 883d 98a5 963d ddbc 62be a811 08bd
00000070: deea 05be ad26 393e 8976 f43d bdb8 de3d
00000080: e317 0b3e fb3d 11be 2e32 043e b8f8 93ba
00000090: 8335 cc3d 6151 b1bd b01e c13d b3f5 2b3d
000000a0: 88e8 0bbe 5222 983e 8d0c 413e 01a8 ca3d
000000b0: 4c36 f63d c981 fabe 2514 4dbd 01f1 03bd
000000c0: 41fc 0abb 4623 71bb 0788 a83d bdf8 d4bc
000000d0: c7b8 363c 5323 953e 61eb 38bc 5cc5 383e
000000e0: 6aac ecbd 89fb 173c bcd1 32be 022c 1d3d
000000f0: b227 293e 9d60 89bd 836d 09be a9df 5d3d
00000100: 76e0 0cbe 2308 9dbc f385 05bd b670 edbc
00000110: b414 16be e413 f7bd 867f 76bd cae2 79be
00000120: 38ff bebc bcdf f93b 9c9e 943d c082 01be
00000130: 323f 06be 0e31 27bd 38ca d9bc 1636 2e3d
00000140: cf03 af3d 8d12 99bd 4bd2 e1bd 6d80 26be
00000150: f9f1 00be 8cef 2e3e 0977 a3bd 749d 13be
00000160: 75bb 12be f413 2f3d 6253 edbe 171f 273e
00000170: 3ad5 95bd 8c35 063e 76b1 2ebe eeac 493e
00000180: 30ad 61bd 8bb9 413d 9737 12bd 16c5 81bc
00000190: 6f40 55be 09c1 34be 0bf7 e4bd a586 1e3e
000001a0: b73b b23d 6e70 3a3e 110f b5bd 27d5 0dbe
000001b0: c09c 3cbd a3c0 4f3e 8fa6 a53d 1900 0b3e
000001c0: ffea f73d e544 1abe aa29 f5bb 1b7e 923d
000001d0: 8ffd 08be a3d3 053e 8c0d b2be 77f1 3a3e
000001e0: ae97 17be 00b4 36be d172 1d3e 9a37 5e3d
000001f0: 006d 32be ab3e c03d 38e3 213e 7553 6b3e
00000200: b57b 18bc 8d45 3d3c 26fb a53c f3c8 37bb
00000210: c36b 4e3d b617 96bd 7789 5d3d b105 a03d
00000220: 1fb5 e4bc 8452 733c 5ba5 1a3c 2913 1c3d
00000230: 9ce6 1dbc 4c19 9a3c 77be 7d3c d352 db3c
00000240: c2e7 823d 63cc f83d 2bd8 95bd 3ba4 a3bc
00000250: 0730 c23d ed1a 843d c20f e63d 9f43 2a3d
00000260: dcc1 ab3d e1fe 5ebc b11d d5bc abea 95bd
00000270: 5515 e7bd 682a cd3d 4fdf c93d 5f68 dc3c
00000280: 1bc2 da3c 5748 90bd 9d70 9dbb 32db 3a3d
00000290: cd04 a73d 07a9 0dbd f957 31bd 2769 9b3d
000002a0: 529e 10bc 2e28 1e3e fbcb 523d e107 063e
000002b0: eb7d 85bd 1bc3 28be 203d 393d 1141 ddbc
000002c0: 5e79 2b3d c94e 9b3d ff1e 0cbd 1c6b eabd
000002d0: b247 783d 29f3 1f3d 0a73 e0bc fc78 55bc
000002e0: 9b20 3ebd dd45 1dbd dc44 24bd 62b0 203d
000002f0: 7ef7 2b3d 7236 83bd 9da3 5fbd 9636 afbc
00000300: 00ef 983b 755e 46bd fac2 0d3d f7f8 f2bc
00000310: bede 8dbd a92e 473d 98fc c13c 210f 9d3b
00000320: 634f 45bd 6335 c2bd 4f0c fc3d 5cee 88bc
00000330: 91a7 ddbc 1480 ce3c 6e80 cabc 5953 a93d
00000340: 6f17 be3c 7634 93bc 0a93 8fbd 4cb2 81bd
00000350: 9f33 c2bd af4f dcbc ce25 d6bd b615 ee3c
00000360: 4653 afbd a717 3e3c c224 d0bd b26e 443d
00000370: 4a52 77bd 917a d83c 8e3b 6cbd 9f09 e93d
00000380: 05e5 8ebd 1e6c 80bc 2948 be3c 29f8 c1bd
00000390: aac2 83bc d42b f3bc 6cac 5abd 882f 12bd
000003a0: dc1d b33d 61bd 903c 5d91 b2bd 5ba3 c2bd
000003b0: f866 533c aaca c83c af0f c73c 7090 9abb
000003c0: dad1 823d 8d34 48bc b5e8 103d 6849 09bc
000003d0: ff86 debd 8dc7 ec3c c021 35be 0508 f33d
000003e0: 3e91 14bd 886e 693d a316 c63d 3727 28bd
000003f0: 5951 6dbd 4aa0 c43c ec99 89bc b869 5d3d
0.0030786972 -0.058821008 0.06959268 0.047928575 0.060262576 0.083482735 -0.08930207 0.060280103
-0.16016062 -0.009206348 -0.11832406 -0.028262144 -0.023180261 0.012173199 0.056857843 0.05735395
0.14609772 0.10211465 -0.012745159 0.013051487 0.097004 0.13170026 0.15088968 -0.18894613
0.06669157 0.07355803 -0.22142358 -0.033219963 -0.13077876 0.1808116 0.11936671 0.1087508
0.13583331 -0.141838 0.12909767 -0.0011289334 0.09971144 -0.086581 0.09429681 0.041982364
-0.13662922 0.29713684 0.18852444 0.098953255 0.12022075 -0.48927143 -0.05006804 -0.03221226
-0.0021207484 -0.0036794706 0.0822907 -0.025997514 0.011152453 0.29128513 -0.011286587 0.18044037
-0.11556323 0.009276279 -0.1746282 0.038372047 0.16519049 -0.06707881 -0.13420682 0.054168377
-0.137575 -0.019168919 -0.032598447 -0.028984409 -0.14656335 -0.12064341 -0.06018021 -0.2440292
-0.023315057 0.007625548 0.07256815 -0.12647533 -0.13110045 -0.040818267 -0.026585683 0.04253205
0.08545648 -0.074742414 -0.11026438 -0.16259928 -0.12592305 0.17083567 -0.079816885 -0.14415532
-0.14329322 0.04274364 -0.4635268 0.16320454 -0.0731606 0.13106364 -0.17059883 0.19694874
-0.055096805 0.04729609 -0.035697546 -0.015841048 -0.2082536 -0.17651762 -0.11179932 0.1548105
0.08702796 0.18206951 -0.08840764 -0.13850842 -0.046047926 0.20288329 0.08088409 0.13574256
0.12105369 -0.15065344 -0.0074817734 0.07152959 -0.13377975 0.13069014 -0.3477596 0.18256174
-0.14803955 -0.17842102 0.1537583 0.054252245 -0.17424393 0.09386953 0.15809333 0.22981055
-0.009306838 0.011552227 0.020261358 -0.002804336 0.05039574 -0.07328741 0.054086175 0.078135855
-0.027918397 0.014851216 0.009438838 0.03810421 -0.009637501 0.01881089 0.015487305 0.026772892
0.063918605 0.12148359 -0.073166214 -0.019975772 0.09481817 0.06450448 0.11233474 0.041568395
0.08386585 -0.013610573 -0.026015135 -0.0732015 -0.11283366 0.10017854 0.09857046 0.026905237
0.026703885 -0.07045048 -0.0048046843 0.045619197 0.081552126 -0.034585025 -0.043296788 0.075884156
-0.008826809 0.15445015 0.051464062 0.13088943 -0.065181576 -0.16480677 0.04522431 -0.027008565
0.04186379 0.075833865 -0.034209248 -0.11446211 0.06061525 0.039050255 -0.027398605 -0.013029333
-0.046417814 -0.038396705 -0.040104732 0.03923071 0.041984074 -0.06406869 -0.054599393 -0.021388333
0.004667163 -0.048429925 0.034609772 -0.029659731 -0.0692725 0.048628483 0.023680016 0.0047930633
-0.048171412 -0.09482839 0.12307035 -0.016715221 -0.027057441 0.025207557 -0.024719443 0.082678504
0.023204533 -0.017969351 -0.07010467 -0.063328356 -0.09482502 -0.026893465 -0.104564294 0.029063087
-0.08560805 0.011602319 -0.10163261 0.04795713 -0.06038121 0.026425632 -0.057673983 0.11378788
-0.06977276 -0.015676554 0.023227768 -0.09471161 -0.016084034 -0.029683985 -0.05338709 -0.03568986
0.087459296 0.017668428 -0.08719132 -0.09503814 0.012902968 0.0245107 0.02429947 -0.0047169253
0.06387682 -0.01221956 0.035378177 -0.008379318 -0.10865592 0.028903747 -0.17688656 0.11866764
-0.036271326 0.056990176 0.09672286 -0.041053023 -0.057938907 0.024002213 -0.016797028 0.0540559

lstm.bias_ih_l0 f4 [512]
00000000: 15a5 34bb 978c c33d 1200 a63c 6863 613d
00000010: 6abc b5bd 43b5 363e cd0d ab3d ded8 043c
00000020: 6ec9 e6bb e69c f6bc 3e50 3b3d 047f 23bc
00000030: 8578 d43d a630 75bd 3244 2a3e 08fa 3c3e
00000040: f303 eb3d 6337 8a3d e776 2b3c c1ea aa3d
00000050: bf5a 8e3d 0d53 87bc 4ef6 b43d b9e7 8c3d
00000060: 8adb 55bd 129d d23c 5ea1 9abc c16c a73d
00000070: fb59 9b3d 245c 4abd 6227 3a3d 4bfe 0d3e
00000080: f29b 093e b672 a4bd 32da 313c 2180 c13c
00000090: a6a3 a13d ed00 96bd c736 533c b2c2 aa3c
000000a0: 477b 0e3e 08df 243e f35d 9d3d fe73 3fbd
000000b0: 2cff cc3d 9e43 303e aa98 9d3c 131c c338
000000c0: f5d3 603e 1e01 0e3d 9ed0 a6bd 37ae 633d
000000d0: 2da1 38ba 2a8c 9a3e 071b 9f3d 768a e73d
000000e0: 0ba6 8bba 7f79 88bd d6b9 213e 7608 a63c
000000f0: 26a9 b93d fe02 0bbd 89c6 ab3d bac0 82bd
00000100: 126d a93d 82db 0d3e 82ec 503d cf28 ef3d
00000110: 68fb 083c e31c 6b3d b10e cfbc c864 cbbc
00000120: 8556 d73c 32a9 c53b 0064 4fbd b420 5abd
00000130: 678a 3f3d 4719 363d ae74 463e 720e 9ebd
00000140: d324 8b3d 4990 3c3c d911 813a 46df 873c
00000150: c965 17bd 77b2 b73d b891 51bd a044 943d
00000160: 0687 e53d 4702 9b3d f84d d33d 6b73 833d
00000170: 8bf5 77bd 0c58 24bd 47d0 823d 2f34 353d
00000180: 8276 e03d bf61 583d f666 a23c 8111 7f3d
00000190: fc3e 26bc 00b2 af3d 5090 51bd 9cf6 6cbd
000001a0: a7c2 d43d b0ad 71bd b566 953c 4152 7dbd
000001b0: 773b b93d fa72 9b3c ef11 cb3d 2685 68bd
000001c0: e62e 1d3d 19cd c03d 1438 893d 8b38 6f3d
000001d0: fcc5 943c 450f 6e3c 07bb 893d 988e 64bb
000001e0: c209 97bd 1497 783b 207a 3ebb a1d8 07bd
000001f0: eb66 2d3d 6407 f2bb 8647 243d ed93 333d
00000200: 8774 adbd 7aa0 743c 6ea5 783d 0074 323d
00000210: d178 8abd cb15 af3b 6833 85bd c488 dc3c
00000220: cfc7 023d ee68 10bd 88ef 833c d7f3 b83b
00000230: e246 33bc 6b31 1f3d 2392 f73c 9e45 03bd
00000240: 46ae 9dbd 84b7 34bd 1975 3abd 2d47 56bd
00000250: c2e6 203c eb2b 923d a9ba 563b de11 f23c
00000260: 7db6 b33d 9f78 a8bc 703b 563d 7a4c 533d
00000270: 45df ba3d 8971 68bd 8889 3f3d 65d5 e6bd
00000280: b2ad 44bd 6e13 ed3c 9ecd dcbc b6fc 58bb
00000290: bb38 883d 4ad5 cc3c 494a 61bd b7f3 b8bc
000002a0: 48ce 883d 5147 373c b2bd ba3c b4cb 37bc
000002b0: aa81 debd b7a2 903d 1653 7ebd e6f3 56bd
000002c0: 3089 99bd fb76 823d e1f3 41bd 0c91 8cbd
000002d0: 24fa 09bb 0e6a 973d 75f0 36bd eceb 933c
000002e0: e27f 46bd af7a 263d 0b0c 02be 6542 a43d
000002f0: db18 af3d fae2 d0bc 7b33 943d 3ce8 983d
00000300: 347d 7b3d c960 073d 1f25 8fbd 23d8 993d
00000310: 337d 423c 5f1e 623c 3ffa ca3c 0029 ae3c
00000320: bd44 143d ef59 b6bc 5aab 463d dd3e 543d
00000330: 6999 e6bb e4a6 143d 8ae8 c3bd 0a02 193d
00000340: 3bf6 bbba 6224 00bc c55a 673d 9fd7 68bd
00000350: 4e43 3c3d 24b9 b43c 53a0 943d 0fa4 bb3d
00000360: c592 c63c 1343 93bd 2c7f 683d 5a16 78bb
00000370: 153a 753b 7444 543d 72dc 8d3c 343c 11bd
00000380: adb9 57bd 99dd 16bd 70a4 1cbd 6498 e9bc
00000390: 9946 163d 2dda 1b3d 672a 533d c452 423d
000003a0: adf8 b73d 0dcb 863d a0ea 1abd 1ea6 b23d
000003b0: 0968 5f3d 3db7 d0bc 22a3 79bd 4019 4cbd
000003c0: 22c5 1bbd 053d 0bbd 51f7 c1bc e5ea acbb
000003d0: 6c54 863d 1368 a83d 5a4d 86bd 7047 f8bc
000003e0: 296f e63b 08ed 8f3d 8cff a73d 6310 dcbc
000003f0: 804a e3bc 0550 24bd 827b c9bd 216a ffbc
-0.0027564217 0.095483 0.020263705 0.05502644 -0.08873828 0.17842583 0.08352242 0.008108346
-0.0070430553 -0.030104112 0.04573082 -0.009979013 0.1037455 -0.059860848 0.16627577 0.18454754
0.11475363 0.067488454 0.01046536 0.08345557 0.06950902 -0.016519094 0.088360414 0.06880135
-0.052211322 0.025709663 -0.018875774 0.0817504 0.07585522 -0.04940428 0.045447715 0.13866536
0.13438395 -0.08029692 0.0108552445 0.023620667 0.078925416 -0.07324395 0.012891478 0.020844791
0.13914214 0.16100705 0.07683935 -0.04674148 0.10009608 0.17213294 0.019237835 9.303554e-05
0.21955855 0.034669034 -0.08145259 0.055586066 -0.000704306 0.30185062 0.07768827 0.11305706
-0.0010654343 -0.066637985 0.15793547 0.020267706 0.09065466 -0.0339384 0.08387477 -0.06384416
0.08272757 0.13853267 0.0510068 0.116777055 0.008360721 0.057400595 -0.02527556 -0.02482833
0.026286373 0.0060321325 -0.050632477 -0.053253844 0.04676285 0.0444577 0.19380447 -0.07717599
0.06794133 0.01150901 0.0009847238 0.016585957 -0.036962304 0.08969586 -0.05116436 0.07239652
0.11207394 0.07568794 0.10317606 0.064184986 -0.060536902 -0.04012303 0.06387382 0.04423922
0.109601036 0.052827593 0.019824486 0.062272552 -0.010146853 0.08578873 -0.051163018 -0.057852373
0.103886895 -0.059003532 0.018237451 -0.06184602 0.09044545 0.018975724 0.0991553 -0.056767605
0.038374804 0.09414119 0.06700149 0.058403533 0.018160813 0.014530008 0.06725126 -0.0034875032
-0.07374908 0.0037931846 -0.0029064491 -0.033165578 0.04233448 -0.007386135 0.040107273 0.043842245
-0.084694915 0.014930839 0.06070464 0.043567657 -0.06761325 0.005343174 -0.065039456 0.026920684
0.031928834 -0.03525632 0.016105428 0.0056443023 -0.010942193 0.038865488 0.03022105 -0.032048814
-0.07699256 -0.044120327 -0.04552183 -0.052313972 0.009820642 0.07137283 0.0032765067 0.029549535
0.08775041 -0.02056533 0.052302778 0.051586606 0.091246165 -0.0567489 0.04676202 -0.112711705
-0.04801721 0.028939929 -0.026953515 -0.0033109612 0.066514455 0.025004048 -0.055002484 -0.02257715
0.0667997 0.011186437 0.022795532 -0.011218 -0.10864575 0.070622854 -0.062090956 -0.052478693
-0.074968696 0.0637035 -0.04735172 -0.06863603 -0.0021053636 0.07393275 -0.04466291 0.018056832
-0.048461802 0.040644344 -0.12699907 0.08020476 0.08549663 -0.025498856 0.072363816 0.0746617
0.0613987 0.033051286 -0.06989502 0.07511928 0.01187067 0.013801186 0.02477753 0.021259785
0.036198366 -0.02225968 0.048503257 0.051817764 -0.007037331 0.03629197 -0.09565838 0.03735546
-0.001434035 -0.007821174 0.05648305 -0.056846257 0.045962624 0.022060938 0.07257142 0.09162151
0.024239907 -0.07190528 0.056761906 -0.003785512 0.0037418653 0.051823094 0.01731703 -0.035457805
-0.05266731 -0.036832426 -0.038242757 -0.028515048 0.03668842 0.038049866 0.05155411 0.047442213
0.08982978 0.065816976 -0.037821412 0.087230906 0.054542575 -0.025478 -0.06094659 -0.049828768
-0.038029797 -0.03399374 -0.0236775 -0.005277025 0.06559071 0.082229756 -0.065577224 -0.030307502
0.0070322943 0.07027632 0.082030386 -0.026863283 -0.027745485 -0.040115375 -0.0983801 -0.031178536

lstm.bias_hh_l0 f4 [512]
00000000: 154c 0e3e e492 eb3c 328a 46bd dbb7 943d
00000010: f180 ebbc 6222 8b3e 95b6 9e3d a1db 78bd
00000020: 2ba5 67bd 7c4e f8bc 9eee 093e 8097 93bd
00000030: 67a7 e83d aa39 73bd 8dfa 913c 5d3f 4f3e
00000040: 43dd f23d 483c 0d3d b833 85bd a57a c63d
00000050: 0c7d 6dbd 9584 95bd 7745 463d cb37 0a3e
00000060: 4d49 67bc aa98 fbbc df30 013e 8b8b 403d
00000070: a821 fcbc 21ab b53d 05c7 243b a39c 253e
00000080: 5e33 f03d f036 2ebc 8ef6 9d3d f501 9f3d
00000090: 1957 46bd 27e7 93bd 6278 363d d188 0abd
000000a0: 77bb 1c3e 8824 223d f7c0 763d 2a34 303d
000000b0: d6f5 b63b 757c 683d 9072 803d 1e92 df3d
000000c0: 355f 383e bc15 663d e7c1 a33c 1aef db3d
000000d0: 8c0f 873d 4743 763e a3f9 2fbd f173 4f3d
000000e0: 1223 b8bc 114e 73bd 12e4 763c 0f66 e33d
000000f0: 7e5f 7e3d 201b 323d 532c b23d 5594 c7bc
00000100: e17a 163c ce6e f13c ae00 3f3d 320b 81bb
00000110: 1798 a63d 66d0 d93d 8f06 6c3c b656 9cbd
00000120: c4bb aa3d 95a6 013e be51 d73c a4e8 943c
00000130: e18b 123e 490e a93c da1a 053e 99bc 9e3b
00000140: f0a9 12bd dc28 823d 35e1 3e3d 4d81 af3d
00000150: 8578 153d def2 09bd 76ca adbc 4f96 703c
00000160: 622b 1b3d b797 80bd 419c d4bc 5ed2 f63c
00000170: b1f6 ca3d 6496 193d 74bf 593d f988 b13d
00000180: db13 a63d f99d ffbc 1d15 463d 614c 83bd
00000190: 4ac1 423c d542 abbc 7058 71bd 5d30 56bc
000001a0: 6df7 2e3d 6679 653c f9f7 0d3d f93b 29bd
000001b0: 29e7 b63d 28f1 903d 4e51 673d 95d1 c1bc
000001c0: 22a5 023d 95e5 a2bc d1e6 13bc 2144 3c3d
000001d0: fa05 f8bc a2bc 013e 2bea 23bc c1ab 47bd
000001e0: c474 61bd 6895 ee3b 624b da3b 2e52 9b3d
000001f0: 6502 8e3d 8cb5 77bd 2c17 883d 71a7 6c3d
00000200: 41ab eebc d86f 963d 6d00 b5bd 1436 85bd
00000210: 7616 453d 998b 9f3a 99b2 4ebc e896 b6bd
00000220: 11de 66bd 2f33 a23c 6671 4b3d ce37 efbc
00000230: 41b7 54bd c98d e7bc 87d2 f4bc 6fef f1bd
00000240: 2ba2 89bd e216 8ebd d9dd 9dbd 8a2b acbc
00000250: 08e4 84bd 5df4 c83c 984c 3bbd 71b4 dfbd
00000260: 43db 3bbd 6663 4ebd c020 883d e116 bc3d
00000270: bc3d 64bd a7ca 733d f8d8 bdbc e749 65bc
00000280: 3b08 f5bd 718b 95bd 6659 253d 2fb8 a73d
00000290: 693e a0bd 74c9 a73d 21de 003d 75ff bcbc
000002a0: 259c 8d3d c6cc bfbd e914 bd3a 8e1d 77bd
000002b0: 0cf7 053d 92e9 43bd b0b3 0c3d cf82 a03d
000002c0: e56b 4a3d 95b1 7c3d 75fa 533d a46b 843d
000002d0: 16f8 ad3c 2ec7 97bb bbf3 00bb 917c 14bd
000002e0: 2830 84bd a6ad a0bc 7407 ffbc e6cc a1bc
000002f0: 45ca 313d ac6b a23d 7880 f1bc 14c9 a0bd
00000300: 8fa4 77bd ebb3 a2b9 8c11 8a3c 35b0 90bd
00000310: ffda afbc e8d9 b23b 8482 7d3d 5679 d1bc
00000320: 6bf5 ed3c 603a e5bd 91ed 9abd 1eca adbc
00000330: 48d9 20bd ae7e 253d e75a f1bc 7caa 9dbd
00000340: ce87 a93d bf22 ff3c 1b6b a83c 6a9d 87bd
00000350: 49d5 a23d 1557 c13d c9dc 203b 9cdc 82bd
00000360: ebaf b4bd de33 aabd eac8 ebbb 516d 72bd
00000370: 259a 953d 4a99 a9bd 14ec 413a 807c 553d
00000380: 18a1 9ebd 996c 8c3d 4243 523c 90eb 78bd
00000390: 82cc 94bd 9ec6 18ba 6dda 61bc 6309 8cbd
000003a0: be7c 6fbd 1cfc 3dbd a47d 9abd 359a 32bd
000003b0: bb53 8cbd 252a 593d 026b f23c fb52 a73c
000003c0: 4bab 6d3d a1aa 8e3c 7f7d 05bd ed43 a13d
000003d0: 11fc fcbc 09b4 b1bd 057b 0cbd ecd7 06ba
000003e0: d7f3 693d fe21 903d 5e1c bfbc fc7f a7bd
000003f0: 17d7 893d bb18 23bd a5a6 67bd cf31 cebd
0.1389621 0.028756566 -0.048471637 0.0726163 -0.028748007 0.2717467 0.077496685 -0.06075633
-0.056554 -0.030310862 0.13469931 -0.07206631 0.113600545 -0.059381165 0.017819667 0.20239015
0.118586086 0.034481317 -0.06504005 0.09691361 -0.057980582 -0.07300679 0.04840609 0.13497846
-0.014116597 -0.030712444 0.12616299 0.04700808 -0.030777767 0.08870531 0.002514304 0.16173033
0.117285475 -0.010633215 0.07713042 0.07764045 -0.048422907 -0.07221823 0.0445484 -0.033821885
0.15305887 0.03958562 0.06024262 0.043018498 0.005583505 0.056759316 0.06271851 0.109165415
0.18005069 0.05617307 0.01998992 0.107389644 0.06594762 0.24049102 -0.04296268 0.05064768
-0.02247766 -0.05940062 0.015069025 0.111034505 0.062102787 0.0434829 0.086998604 -0.024362722
0.00918457 0.029471781 0.046631508 -0.003938102 0.081344776 0.10635452 0.014405861 -0.07633726
0.08336595 0.12661202 0.026284095 0.018177338 0.14311172 0.020636695 0.12998524 0.00484426
-0.035806596 0.063554496 0.046601493 0.08569584 0.03649189 -0.03367888 -0.021214705 0.014684274
0.03788317 -0.06278937 -0.025953414 0.030129608 0.09910334 0.03749694 0.0531611 0.086687036
0.08109256 -0.031203257 0.04835998 -0.064110525 0.011886904 -0.020905891 -0.05892223 -0.013073054
0.042716432 0.014005994 0.034660313 -0.04131696 0.08930809 0.07077247 0.056474023 -0.023659507
0.031895764 -0.019884864 -0.009027199 0.04596341 -0.030276287 0.12669614 -0.01000456 -0.04874778
-0.055042997 0.007280994 0.0066618184 0.07584034 0.069340505 -0.06047587 0.06645045 0.057776872
-0.029134395 0.07345551 -0.08837972 -0.06504455 0.048117124 0.0012172341 -0.012615823 -0.08915502
-0.056364123 0.019799797 0.049668692 -0.029201414 -0.051932577 -0.02826585 -0.029885544 -0.118132465
-0.06720384 -0.06937958 -0.0770833 -0.021016855 -0.06488806 0.024530584 -0.045727342 -0.10923088
-0.0458634 -0.050387762 0.066468716 0.09184051 -0.055722937 0.059519436 -0.023174748 -0.0139946705
-0.119644605 -0.07301987 0.04036846 0.08189427 -0.07824404 0.08192721 0.03146184 -0.02307103
0.06914548 -0.09365229 0.0014425787 -0.06033092 0.032706305 -0.047830172 0.03435105 0.0783745
0.049419302 0.061692793 0.051752526 0.06465843 0.02123646 -0.0046318984 -0.0019676525 -0.03625161
-0.064544976 -0.019614052 -0.031131484 -0.019751024 0.04340579 0.07930693 -0.029480204 -0.078508526
-0.06045967 -0.00031033097 0.01685407 -0.07064859 -0.02146673 0.0054581054 0.061892048 -0.025570553
0.029047688 -0.11192775 -0.075648434 -0.021214541 -0.039269716 0.040404014 -0.02946229 -0.07698533
0.08277856 0.031144498 0.020558884 -0.06621821 0.07950837 0.09440438 0.002454566 -0.06389734
-0.08822616 -0.08310674 -0.0071955817 -0.059186283 0.07304791 -0.08281191 0.0007397544 0.052120686
-0.0774557 0.06856651 0.012833418 -0.060771525 -0.07265569 -0.0005827936 -0.013784987 -0.06837728
-0.058468573 -0.04638301 -0.07543495 -0.043604095 -0.06851908 0.053018708 0.02959204 0.02042531
0.058024686 0.017415347 -0.032590386 0.07874284 -0.030881913 -0.08676917 -0.034297008 -0.0005143869
0.05711731 0.070377335 -0.023328956 -0.08178708 0.06730478 -0.039818507 -0.05655541 -0.10068094

linear.weight f4 [8, 128]
00000000: 3200 d93d 59e3 6dbd 7750 35bd da30 4e3d
00000010: 1108 57bd 8df4 0c3e 8caa c63d cb67 e4bc
00000020: 054c 34bd a11f b1bd 5631 ec3d 4311 423d
00000030: 0f2b 6abd a5fb 473d 1f05 9dbc 17d6 bebd
00000040: 3d2c b33c 32f1 853d 3a1e 99bb 4c0d ed3d
00000050: 86ca 283d 26e9 883d ce16 8e3d 79f7 0cbe
00000060: 5e98 bb3c fc16 613d a8c6 d1bb 30d4 abbc
00000070: 2ddb 52bd 31d0 39bd 31e2 0e3d 60fc 05be
00000080: b32b c23d 530a 6dbc ef3c 6cbc 56fb 3dbd
00000090: a7dc cf3d cfc0 7a3d 55c3 5e3d 1e78 f03b
000000a0: 71dd 833e d475 98bd c03e f63d 2ef8 2d3d
000000b0: 8c8e efba 3bc5 423e bf04 cabd 8776 3ebd
000000c0: 4d45 b03d 062e cc3d 454a f63c e14b 87bd
000000d0: 919a 783d e661 79be cd44 34bc fc68 ef3d
000000e0: 83de 483d a27f ccbc fd54 ef3d fc6c 183e
000000f0: 08e1 dc3d abe9 d4bb 1f67 19be 8c5f 7e3d
00000100: ad17 7b3d 6279 80bd 47b7 b5bd 0550 37bd
00000110: 444e 6ebd f516 cf3d 7dd7 0a3d 70e9 a33c
00000120: 3fad 333d e3e2 58bc e84f d03d 48b7 d7bc
00000130: a208 f9bd 80fb 55bc a9d7 53be f6a8 873d
00000140: 5e90 0cbd 11d9 c4bd 7f57 1fbd bc32 8cbd
00000150: 7147 89bd 1785 343c 6324 c7bd 7688 b5bd
00000160: 86e5 d5bd c7a1 973d d573 e53c 5637 163d
00000170: f613 e9bd 80b1 333d 0686 903c a390 943d
00000180: 81be a7bd 8528 97bc 4beb 4bbd 269d b53c
00000190: d2a7 ef3b 596a d9bd 2927 1cbd 8299 173d
000001a0: 6756 4c3d 8f07 bc3d c5a1 74bb 1d53 cdbd
000001b0: ad34 aabd efc8 8c3d c832 9b3c db24 8b3d
000001c0: a916 813d 520c 2dbc 81c9 c1bd 09b4 cb3c
000001d0: bb13 c0bd 0e2a 973d ccca d13d dff5 e83c
000001e0: ea1c 53bd 1aab 3a3d 226b 8ebd e6af f13c
000001f0: 0727 0bbd ceb8 303d 8c1a 19bd a56b 71bd
00000200: 9411 2d3e 84bd ccbd a716 89bd e6a7 60bd
00000210: 6c39 a7bd a561 393e f0b4 b8bc f966 ff3c
00000220: f9d8 33bc f528 b3bc 7ee8 003e 652c 283c
00000230: 8689 5e3d b7f6 70bd 3e2e ccbb d764 a43d
00000240: e503 bf3c 9473 253d bd42 4cbd 8995 bc3c
00000250: 04f7 1c3d 753c c53d bae3 e73d ed51 11bd
00000260: 8474 f33d e092 093c b923 debd 0385 0fbd
00000270: 5cd3 debd 7480 ce3d b448 0fbd 4a1b 1ebe
00000280: 701f 463e 4636 0a3c 54c4 86bd 6582 813d
00000290: a6b8 00bd a05b babd 0c0b 873d f329 c63d
000002a0: 1f89 863e f3dc dbbd feda c53d 5c36 ca3c
000002b0: aa42 733c 5635 fe3d a491 953c af2a 23be
000002c0: 17e8 003e cec2 0c3d beb6 ffbc 417a f4bd
000002d0: 79d9 5e3d c563 b2be d047 1cbd a807 8b3d
000002e0: 40db 34bd 79fa e93c 9118 473e 1860 9b3c
000002f0: a215 cd3d 5d4a 61bd a1ca 82bd dc9a 0f3d
00000300: 351a 3e3d ad5c 10be 06c9 1a3c bd1a 38bd
00000310: 448c 06bc e6a7 d13d 9c06 b8bd 69fd 553d
00000320: 656b d7bd c01c 91bd 85f4 603d a732 e8bc
00000330: 50ee 78bd 980d 82bd 6d0f babe 7aa9 1bbc
00000340: 812a 0c3e 3454 553b 8fd7 e1ba 2297 013d
00000350: 3188 87bd 079f 5f3d 9494 50b9 4873 c8bd
00000360: 500e c2bd bc4a 063d e598 2f3e 8aec e73d
00000370: 9375 c6bd 0603 1939 8957 ce3c 8682 643d
00000380: 8a10 1abe 1a2b c43d 3eec 2ebd a880 9b3d
00000390: babf 0cbe f1b4 b6bd 8824 81bd 7bcc 883d
000003a0: aee7 f23d 00b5 bf3c 0295 b3bc ceb8 cbbd
000003b0: cbf3 a43c 8520 d63d 0589 4ebd 3d4e eb3d
000003c0: 15da 38bd 2b47 e6bd 8315 8cbd 8eb4 dbbc
000003d0: 5cd0 50bd d679 a23d 0ff2 bd3d c832 d53d
000003e0: edc9 fbbc eff5 f7bd 2e0c 39bd 2d73 323d
000003f0: 3748 84bd 4113 183c c47c 83bd 8646 893d
0.105957404 -0.058078144 -0.04426619 0.050339557 -0.052497927 0.13765164 0.09700498 -0.027881524
-0.04401781 -0.08648611 0.115328476 0.047379743 -0.05716997 0.04882397 -0.019167481 -0.09318178
0.02187168 0.06540145 -0.0046727927 0.11574802 0.041208766 0.066850945 0.069379434 -0.13766278
0.022899803 0.05495356 -0.0064018555 -0.020975202 -0.051478554 -0.045364562 0.03488368 -0.13084555
0.09480991 -0.0144677935 -0.014418825 -0.04638227 0.10149508 0.061219033 0.054385502 0.007338538
0.25754884 -0.07444349 0.12023687 0.04247301 -0.0018276735 0.1902055 -0.098641865 -0.046499755
0.08606968 0.09969716 0.030064711 -0.0660627 0.06069428 -0.24353752 -0.0110027315 0.11689946
0.04904033 -0.024963204 0.11686132 0.14885324 0.10785109 -0.006497582 -0.14980744 0.06210284
0.061301876 -0.06273152 -0.08872848 -0.044754047 -0.05818011 0.101118006 0.033896912 0.020008773
0.043866392 -0.013237688 0.10171491 -0.026332512 -0.1215985 -0.013060451 -0.20687737 0.066240236
-0.034317367 -0.09611715 -0.038901802 -0.06845614 -0.067030795 0.011018059 -0.09723737 -0.088639185
-0.10444169 0.074039035 0.028009335 0.036673866 -0.1138076 0.04387045 0.017642032 0.0725415
-0.081906326 -0.018451938 -0.04978494 0.02216966 0.007313707 -0.10615987 -0.038123284 0.03701163
0.049887087 0.09181129 -0.0037327867 -0.10025618 -0.08310828 0.068742625 0.018945113 0.06794139
0.0630315 -0.010562019 -0.09462262 0.02486612 -0.09378763 0.07381068 0.102437586 0.028437553
-0.051541246 0.04557333 -0.06954028 0.02950282 -0.033972766 0.043144993 -0.037378833 -0.05894055
0.16901237 -0.09997085 -0.06693774 -0.05484762 -0.08165249 0.18103655 -0.022547215 0.03117703
-0.010977023 -0.021870116 0.12588689 0.010264491 0.05433037 -0.058829036 -0.0062310984 0.08027046
0.023317287 0.040393427 -0.049868334 0.023020523 0.03832151 0.09630672 0.11322732 -0.03547852
0.11887458 0.008396834 -0.10846657 -0.03503896 -0.10880157 0.10083094 -0.034981444 -0.15440097
0.1934793 0.008435791 -0.06580415 0.06323699 -0.031426094 -0.09099507 0.06593904 0.0967597
0.2627649 -0.10735502 0.0966091 0.024684124 0.014847437 0.12412517 0.018257923 -0.15934251
0.12588535 0.034365468 -0.031215068 -0.119373806 0.054406617 -0.34841743 -0.038154423 0.0678857
-0.044154406 0.028561817 0.19442965 0.01896672 0.10013892 -0.05500256 -0.06386305 0.035059795
0.04641171 -0.14097853 0.009447342 -0.044947375 -0.008212153 0.10237102 -0.08985636 0.052243624
-0.10518531 -0.07085562 0.054920692 -0.028344465 -0.060774148 -0.06350249 -0.36339894 -0.009500856
0.13688089 0.003255141 -0.0017230379 0.031638272 -0.06617773 0.05459502 -0.00019891775 -0.09787613
-0.09475386 0.032786116 0.17148168 0.11324413 -0.09690394 0.00014592343 0.025188224 0.05578854
-0.15045372 0.095785335 -0.042705767 0.075928986 -0.13745013 -0.089212306 -0.06305796 0.066796266
0.11860596 0.023401737 -0.021921638 -0.09947358 0.02013578 0.10455421 -0.05042364 0.11489532
-0.045129854 -0.11244043 -0.068400405 -0.026819494 -0.050979957 0.079333946 0.09274685 0.104100764
-0.030735934 -0.12107455 -0.04517763 0.04356687 -0.064590864 0.009281934 -0.064202815 0.067029044

linear.bias f4 [8]
00000000: 9eb1 543d 4e05 fc3c eed5 c43c d7da 823d
00000010: 0ac5 47bd c0fb 2dbd 2e7f 93bc 18df 003d
0.0519272 0.030764248 0.02402779 0.06389397 -0.048771895 -0.042476416 -0.01800498 0.03146276
