models/Basel_LSTM_2026-02-04_49e_1h_1l.pth (torch, 272181 bytes, 5 tensors)

lstm.weight_ih_l0 f4 [512, 1]
0.11823372 0.012631429 0.58511555 -0.17152521 -0.37800294 0.10017829 0.16323142 0.09416398
0.05528479 0.6310052 0.03814656 0.021474665 -0.23532999 -0.06881843 -0.1171598 -0.38498667
0.33692384 -0.015753342 0.42087033 0.2068404 0.2539069 0.056419697 -0.18828972 0.5743372
0.30487877 -0.4119023 -0.075481325 0.20449029 -0.019720012 -0.20753586 -0.021661242 -0.16195498
-0.14658079 0.109964915 0.38346168 0.29834405 0.3011249 -0.10684211 0.055970185 -0.051209554
-0.2889522 -0.20976438 0.12602933 -0.18298818 0.12962458 0.31871802 0.42831802 0.40984336
-0.2540686 0.67986774 0.077899925 -0.12447421 -0.052398626 0.5197909 0.3410866 -0.3041795
-0.30521545 -0.2846632 -0.20815301 0.06680991 0.33056465 -0.13714889 -0.420688 -0.32280925
0.18717156 0.20507698 -0.19400215 -0.28250724 0.7127562 0.29616225 -0.24294603 -0.16448541
-0.42669576 0.4610475 0.324021 0.09027887 0.59519345 0.009445192 0.38222992 0.37041044
1.2797607 0.25795174 -0.16118953 -0.106642626 0.31734356 0.00669578 0.45696026 -0.10412677
0.40506586 0.20746264 0.4665196 -0.20252246 0.253937 0.41362906 -0.36862776 0.38269663
0.26740626 0.4631082 -0.28655118 0.23638009 0.5901694 0.10848675 0.98588264 0.7423797
0.35829145 0.885612 0.4883693 0.16238452 -0.36576164 -0.23670071 0.40034452 -0.010921289
0.21494961 0.15032563 0.29956964 0.40046942 -0.17847179 0.03396125 0.12871502 0.45494235
0.6079868 0.27974895 -0.033531297 -0.085049935 -0.06432913 0.11179251 -0.29088923 -0.13416322
0.124960236 -0.06789258 0.66054934 -0.17426981 -0.094056234 0.116158076 0.10167915 -0.16226873
-0.052711718 0.1019133 0.057613872 0.026679898 -0.10624802 0.053200554 0.0078941025 -0.23337443
0.14562836 0.038107198 0.048304636 0.12918814 -0.06701915 0.079967074 -0.07585699 0.21068068
-0.2406511 -0.25411704 -0.15763925 0.16111104 0.09070223 0.05688797 0.19159089 -0.16400929
-0.05907688 0.033775248 0.32678628 0.07809262 0.12694016 -0.3752009 0.050048526 -0.3667731
-0.17590782 0.0035236487 0.16797285 0.0021162042 -0.14965251 0.13743736 0.052450564 0.03620358
-0.0417027 0.19141726 0.049866263 0.02558543 0.03600585 0.16610248 0.20028058 -0.10931828
-0.1611502 -0.09004621 -0.021770252 0.06066492 0.1527073 -0.1331498 -0.43157113 -0.32993346
0.17381342 0.15910594 -0.16058879 -0.07541773 0.086545736 0.0839723 -0.04187829 0.044304848
-0.13550642 0.21757314 0.10487138 0.08665859 0.076471806 0.06922042 0.348718 0.07346701
0.47418788 0.0999329 -0.022689046 0.16334298 -0.038579646 -0.27755958 0.09417826 -0.025419153
-0.048188936 -0.0041543334 0.09595337 -0.2950761 0.21823461 0.19754009 -0.1756364 0.12969688
-0.2499751 0.30336037 -0.20876794 -0.17158183 0.0497142 0.039566062 0.82912993 0.36072814
0.18054354 0.37136558 0.17014687 0.18331555 -0.1144362 -0.053649183 0.0019543886 0.08022454
-0.058202226 0.0030935805 0.01601532 0.15850818 0.009068605 0.056963533 -0.092557855 0.26913556
0.54072356 0.09363906 -0.2154583 0.09230896 0.016290318 -0.0353768 0.04329889 0.023864364
00000000: 8524 f23d 0ef4 4e3c 22ca 153f 4ea4 2fbe
00000010: 9a89 c1be 462a cd3d 2326 273e 0bd9 c03d
00000020: 4e72 623d 8f89 213f 913f 1c3d a3eb af3c
00000030: 58fa 70be adf0 8cbd 7af1 efbd f91c c5be
00000040: 4881 ac3e 270d 81bc 517c d73e f8cd 533e
00000050: 1600 823e 5718 673d 05cf 40be c307 133f
00000060: 1219 9c3e dce4 d2be f495 9abd e765 513e
00000070: dd8b a1bc 4884 54be eb72 b1bc 87d7 25be
00000080: 4619 16be 4935 e13d 1755 c43e 8dc0 983e
00000090: 0b2d 9a3e 09d0 dabd fe40 653d 1cc1 51bd
000000a0: 8bf1 93be 79cc 56be d50d 013e 4161 3bbe
000000b0: 4ebc 043e 022f a33e 804c db3e fdd6 d13e
000000c0: 4815 82be d00b 2e3f ff89 9f3d 56ec febd
000000d0: f19f 56bd 0411 053f e7a2 ae3e 6abd 9bbe
000000e0: 3345 9cbe 60bf 91be 1026 55be a2d3 883d
000000f0: c53f a93e c270 0cbe 6b64 d7be 4147 a5be
00000100: e7a9 3f3e b3ff 513e 80a8 46be caa4 90be
00000110: 3177 363f 94a2 973e d8c6 78be dd6e 28be
00000120: de77 dabe 6b0e ec3e 15e6 a53e 21e4 b83d
00000130: 995e 183f 02c0 1a3c a4b3 c33e 70a6 bd3e
00000140: 33cf a33f 4012 843e de0e 25be 7367 dabd
00000150: db7a a23e 4668 db3b b2f6 e93e 6a40 d5bd
00000160: cb64 cf3e 1671 543e a8db ee3e 0c62 4fbe
00000170: 0804 823e 30c7 d33e c7bc bcbe d0f0 c33e
00000180: 79e9 883e 851c ed3e d6b6 92be 9f0d 723e
00000190: 5815 173f 4d2e de3d ce62 7c3f 990c 3e3f
000001a0: fa71 b73e 78b7 623f 8a0b fa3e 2148 263e
000001b0: 1c45 bbbe ac61 72be f5f9 cc3e 35ef 32bc
000001c0: c01b 5c3e f6ee 193e 3161 993e 540a cd3e
000001d0: 4fc1 36be f41a 0b3d dfcd 033e 34ee e83e
000001e0: 06a5 1b3f 413b 8f3e 1d58 09bd a92e aebd
000001f0: febe 83bd 79f3 e43d 6fef 94be 1562 09be
00000200: 27eb ff3d 440b 8bbd c319 293f c973 32be
00000210: 8ea0 c0bd 49e4 ed3d 283d d03d c629 26be
00000220: 3ee8 57bd ecb7 d03d 86fc 6b3d cd8f da3c
00000230: 9098 d9bd d3e8 593d 4456 013c b5f9 6ebe
00000240: 9a1f 153e 4b16 1c3d 15db 453d e549 043e
00000250: 5641 89bd c7c5 a33d e95a 9bbd adbc 573e
00000260: 3e6d 76be a11b 82be 2f6c 21be 4bfa 243e
00000270: 17c2 b93d 5c03 693d 6730 443e 0df2 27be
00000280: 99fa 71bd ea57 0a3d 8850 a73e 06ef 9f3d
00000290: 9afc 013e 551a c0be afff 4c3d afc9 bbbe
000002a0: 2e21 34be 04ed 663b 1301 2c3e 04b0 0a3b
000002b0: 823e 19be 61bc 0c3e 67d6 563d 354a 143d
000002c0: 73d0 2abd e302 443e 9140 4c3d 8998 d13c
000002d0: df7a 133d c516 2a3e 5a16 4d3e 43e2 dfbd
000002e0: 8f04 25be 266a b8bd 8757 b2bc c77b 783d
000002f0: 4d5f 1c3e 6c58 08be e4f6 dcbe 0aed a8be
00000300: 25fc 313e abec 223e 6371 24be 9c74 9abd
00000310: e43e b13d abf9 ab3d 9288 2bbd 0079 353d
00000320: 32c2 0abe 7ecb 5e3e cec6 d63d 0f7a b13d
00000330: 409d 9c3d 70c3 8d3d 2a8b b23e df75 963d
00000340: c1c8 f23e 9fa9 cc3d 61de b9bc 6243 273e
00000350: b105 1ebd 4a1c 8ebe 88e0 c03d d43b d0bc
00000360: c361 45bd 1321 88bb 3383 c43d 3714 97be
00000370: e578 5f3e f347 4a3e 07da 33be 42cf 043e
00000380: 79f9 7fbe 0d52 9b3e 43c7 55be 26b3 2fbe
00000390: 1ea1 4b3d 0610 223d dc41 543f 5cb1 b83e
000003a0: 68e0 383e a123 be3e fb3a 2e3e 12b7 3b3e
000003b0: 875d eabd 3fbf 5bbd 3315 003b c34c a43d
000003c0: 7565 6ebd abbd 4a3b 8f32 833c f84f 223e
000003d0: 7c94 143c 9852 693d f98e bdbd 23cc 893e
000003e0: dc6c 0a3f d6c5 bf3d 1aa1 5cbe 7b0c bd3d
000003f0: 4673 853c 43e7 10bd 2d5a 313d 337f c33c

lstm.weight_hh_l0 f4 [512, 128]
0.1917312 0.029205268 -0.07447575 0.30591363 -0.054878462 -0.030483238 -0.08145741 -0.059304472
-0.012822713 -0.14734262 0.21004567 0.1832148 0.0016571233 -0.12319833 0.16530062 -0.028159657
-0.15052335 -0.15959853 -0.13650636 0.18665504 -0.22050463 0.07878081 -0.010214802 -0.08978602
-0.13839687 -0.12348792 -0.01128255 0.13429627 -0.016611205 -0.2001348 -0.11699312 0.020436997
0.09118864 0.12937944 0.0008820589 -0.20505211 -0.089171 0.055096667 -0.14517477 0.01981393
-0.034145918 -0.0075909486 0.10139245 0.030771153 0.067334585 -0.19743198 -0.046904672 0.34612787
-0.030493472 -0.042029966 0.13167511 0.10628129 -0.29880816 -0.06758656 0.09148025 0.034940753
0.08922165 -0.032074515 -0.16529377 0.07704454 -0.28226027 -0.012442213 -0.22216707 -0.043930613
0.2616928 0.116988234 -0.01441804 -0.056458578 0.15399939 -0.13624097 0.15439838 -0.055810027
0.15876396 -0.1244146 -0.30270728 0.15350182 0.016481133 -0.12959002 -0.029629583 0.18965718
0.17127037 0.06910247 0.13313599 -0.039991647 0.15096726 0.10453047 0.033149924 -0.14650086
-0.022367772 -0.15511787 0.22012438 0.1576985 -0.14399737 0.019641595 -0.0665991 -0.010360629
0.069072045 0.11449855 -0.07855828 0.10843147 0.28461766 0.0837609 0.15326299 -0.29289246
0.34006634 -0.10522942 -0.19522586 -0.23777267 -0.012296899 -0.07017734 0.3407407 0.12583983
-0.31561044 0.29616225 -0.17164546 -0.19005485 0.07729981 -0.21936706 -0.2549703 0.24696697
-0.04968127 0.12998444 0.4208076 0.26775622 -0.2039898 -0.2160464 -0.13367622 -0.09402631
-0.0030661765 -0.07234295 0.09011487 0.20395306 -0.06943164 -0.041829426 0.057123423 -0.10178866
0.0377069 -0.03595243 -0.052467432 0.09991212 -0.06910413 -0.049849223 -0.07783347 -0.016666865
-0.043150265 0.04821181 0.052274965 -0.045821045 -0.06071009 -0.0762528 -0.014785385 0.0035001992
0.061500262 -0.03309108 -0.06671917 -0.097964935 -0.057709116 -0.046912573 0.079205066 -0.05174553
-0.052893385 0.047533624 0.06284782 -0.012940573 -0.03163977 0.11716223 0.07921638 0.094662435
-0.056662247 -0.05692424 0.009442508 0.036470953 -0.0004224196 0.016977333 -0.1600185 0.02331045
-0.055308897 0.015496832 -0.08126488 -0.019437026 0.07382328 -0.09730215 -0.09187604 -0.026820034
-0.01118256 -0.022083838 -0.0022255636 0.019984534 -0.08734181 -0.08418205 0.045295473 -0.0047590644
0.09032345 -0.09391039 -0.07844955 -0.009849653 0.11710969 0.057024114 0.07336139 -0.02410869
-0.022888374 0.06458973 -0.0028523307 -0.005450409 0.06664445 -0.03359081 -0.0036690782 0.1431484
0.023585362 -0.011813232 -0.011381244 0.06923774 0.1061652 0.015295883 -0.12509558 0.013671739
0.05053386 -0.06315537 -0.0036861685 0.14900152 -0.06550414 0.028896026 0.08007402 -0.033296157
0.01652442 0.031049976 0.048926525 0.10130021 -0.022496693 -0.07794157 0.07300603 -0.08918679
-0.08994493 0.0065654824 -0.019406417 -0.07436261 0.042318854 -0.0155086415 -0.025102507 -0.00023679763
-0.031826727 -0.005833737 1.1474665e-05 0.06454747 -0.087807335 0.09988172 -0.043841425 -0.008065998
0.0010067627 0.022863144 -0.0074339625 -0.011092461 -0.047806557 -0.10052227 0.033456717 -0.05174696
00000000: 2f55 443e e33f ef3c be86 98bd b6a0 9c3e
00000010: 3dc8 60bd fcb7 f9bc 24d3 a6bd 3fe9 72bd
00000020: 5b16 52bc fce0 16be 3616 573e a99c 3b3e
00000030: d533 d93a 684f fcbd 9144 293e 15af e6bc
00000040: cb22 1abe cc6d 23be 53c8 0bbe 8022 3f3e
00000050: f7cb 61be d557 a13d fc5b 27bc bce1 b7bd
00000060: e9b7 0dbe 3ce7 fcbd 72da 38bc f684 093e
00000070: 3914 88bc 23f0 4cbe 179a efbd 7d6b a73c
00000080: 1cc1 ba3d 0b7c 043e f939 673a 2ef9 51be
00000090: 499f b6bd 0bad 613d b2a8 14be d350 a23c
000000a0: 97dc 0bbd 7ebd f8bb d8a6 cf3d c913 fc3c
000000b0: b7e6 893d 9c2b 4abe 1d1f 40bd ac37 b13e
000000c0: 72cd f9bc 9d27 2cbd d7d5 063e 01aa d93d
000000d0: 62fd 98be d36a 8abd ff59 bb3d 091e 0f3d
000000e0: d7b9 b63d 9160 03bd c542 29be 87c9 9d3d
000000f0: 6b84 90be 6cda 4bbc c47f 63be 96f0 33bd
00000100: 99fc 853e 8797 ef3d a539 6cbc 1c41 67bd
00000110: 04b2 1d3e c182 0bbe 9c1a 1e3e 0e99 64bd
00000120: 0593 223e 15cd febd 73fc 9abe 952f 1d3e
00000130: 7103 873c 3fb3 04be bdb9 f2bc 7e35 423e
00000140: 8061 2f3e 9985 8d3d cd54 083e 48ce 23bd
00000150: 2997 1a3e 1214 d63d 37c8 073d 5204 16be
00000160: 9e3c b7bc 38d7 1ebe 4968 613e b77b 213e
00000170: 0c74 13be 69e7 a03c 1c65 88bd a1bf 29bc
00000180: a575 8d3d 377e ea3d 2ae3 a0bd 5211 de3d
00000190: 68b9 913e d68a ab3d f9f0 1c3e 00f6 95be
000001a0: 2d1d ae3e 8682 d7bd 4ae9 47be ae7a 73be
000001b0: ef78 49bc 23b9 8fbd 9175 ae3e 28dc 003e
000001c0: b197 a1be 94a2 973e d4c3 2fbe bd9d 42be
000001d0: 5d4f 9e3d c2a1 60be 788b 82be e9e4 7c3e
000001e0: 967e 4bbd a41a 053e 1874 d73e 5817 893e
000001f0: b4e2 50be 443b 5dbe 6be2 08be de90 c0bd
00000200: e8f1 48bb 8a28 94bd 258e b83d 12d9 503e
00000210: 2d32 8ebd 5555 2bbd 40fa 693d 9376 d0bd
00000220: 8d72 1a3d db42 13bd 17e8 56bd ba9e cc3d
00000230: 7786 8dbd b32e 4cbd 2867 9fbd f388 88bc
00000240: 55be 30bd bf79 453d 461e 563d d9ae 3bbd
00000250: 25ab 78bd 6e2a 9cbd 663e 72bc 9963 653b
00000260: b3e7 7b3d 838a 07bd 0fa4 88bd d7a1 c8bd
00000270: 6560 6cbd 6627 40bd 4436 a23d 1ff3 53bd
00000280: bca6 58bd 9eb2 423d 5cb6 803d b204 54bc
00000290: b498 01bd c0f2 ef3d 333c a23d 61de c13d
000002a0: ac16 68bd 6429 69bd c0b4 1a3c 9162 153d
000002b0: 3378 ddb9 0c14 8b3c e4db 23be 8ff5 be3c
000002c0: 958b 62bd 6de6 7d3c 346e a6bd 663a 9fbc
000002d0: a930 973d 5a46 c7bd 8129 bcbd b0b5 dbbc
000002e0: 0e37 37bc 2ae9 b4bc c3da 11bb 9bb6 a33c
000002f0: 43e0 b2bd a367 acbd bf87 393d edf1 9bbb
00000300: 80fb b83d 1754 c0bd 28aa a0bd 7060 21bc
00000310: 35d7 ef3d 1e92 693d 7f3e 963d 967f c5bc
00000320: 6680 bbbc 9f47 843d 2bee 3abb 5899 b2bb
00000330: e37c 883d 8496 09bd eb74 70bb 7f95 123e
00000340: 1736 c13c 498c 41bc 6678 3abc 84cc 8d3d
00000350: 246d d93d 959b 7a3c 0e19 00be 6eff 5f3c
00000360: 98fc 4e3d 9a57 81bd a593 71bb db93 183e
00000370: 0927 86bd 5cb7 ec3c d9fd a33d 8d61 08bd
00000380: 385e 873c 855c fe3c 2e67 483d 7c76 cf3d
00000390: fc4a b8bc d49f 9fbd 2f84 953d 90a7 b6bd
000003a0: 0c35 b8bd 4223 d73b 35fa 9ebc 6d4b 98bd
000003b0: 8956 2d3d f517 7ebc c6a3 cdbc e14c 78b9
000003c0: be5c 02bd ef28 bfbb 5083 4037 7731 843d
000003d0: 55d4 b3bd ca8e cc3d 1193 33bd 3f27 04bc
000003e0: 5af5 833a 7d4b bb3c 9998 f3bb 27bd 35bc
000003f0: cfd0 43bd 9fde cdbd e909 093d 9ff4 53bd

lstm.bias_ih_l0 f4 [512]
-0.08019272 -0.11036017 0.3473722 0.014170275 -0.034834944 -0.14679177 -0.03981787 -0.15240248
0.00053907256 0.03629224 -0.097527295 -0.041984383 -0.054161347 -0.12455441 -0.17362593 -0.16600257
-0.009259587 -0.09040229 -0.09677599 0.0228294 0.096955955 -0.18321796 -0.19378307 0.07673253
0.31431097 0.083154805 -0.24351935 0.038465172 -0.06999093 -0.22959481 -0.27355352 -0.13844642
-0.21747415 -0.16560736 0.23535678 -0.00470078 0.084261425 0.06876345 -0.06574731 0.09354683
-0.07940159 -0.24685971 -0.09022787 -0.24771246 -0.30562365 -0.035445675 0.41794163 0.12137823
-0.14323187 0.13957518 -0.091498815 -0.10744779 0.014948928 0.06874603 0.03497722 -0.21918578
-0.27882403 -0.25494486 -0.17407086 0.010604445 -0.02204587 -0.16696689 0.084325746 -0.12726055
0.053069953 -0.0132698575 -0.25739697 -0.36749262 0.17973553 0.05056414 -0.47734115 -0.1411294
-0.085930675 0.21695462 0.1622039 -0.16878377 0.4811731 -0.03605004 0.05246271 0.11996446
0.1930426 -0.11670481 -0.12966207 -0.21137352 0.394367 0.07673655 -0.12376227 -0.04488023
0.28092706 -0.06410242 0.10210651 -0.056628063 0.10444595 0.03770343 -0.19497877 -0.101731986
0.09580436 -0.08172514 -0.068058364 0.16131254 0.020009069 -0.0072167357 0.23401472 0.11511283
0.07980489 0.15456925 0.08604648 0.014400219 -0.39528683 -0.25167158 0.0010330625 -0.19419968
0.13171633 -0.013119306 0.057124063 0.12494207 -0.20396812 -0.057347372 -0.16115725 0.1289045
0.088963255 -0.1526342 0.06696768 -0.102533646 0.030637894 0.0127628585 -0.21460344 -0.23423865
-0.15138115 -0.19857416 -0.07318143 0.020909406 0.02764584 -0.13484403 -0.034483843 -0.058613554
-0.16535836 -0.24487348 -0.0649055 -0.04067631 -0.0392071 -0.20367257 -0.19191487 -0.18993539
-0.15522301 -0.1610047 -0.23005307 -0.15844496 -0.22252506 -0.22379674 -0.118610196 -0.10334301
-0.18179283 0.0062455363 -0.22291161 0.014925026 -0.11676556 0.040921096 -0.23034815 -0.004532945
-0.14473972 -0.14921449 -0.005208602 -0.17393103 -0.08551877 0.0014625475 -0.09882382 -0.03775794
-0.12043078 -0.07847311 -0.1344136 -0.17198925 -0.35371152 -0.12188152 -0.13870388 -0.033470403
-0.059697732 -0.08367812 -0.08389506 0.0006465812 -0.11947098 -0.078379795 -0.10286862 -0.07723041
-0.16735949 -0.1434004 -0.23612417 -0.09198755 0.025656411 -0.05120927 0.060507428 -0.12161483
-0.08257905 -0.09429446 -0.20884907 -0.110155605 -0.11869391 -0.15544875 -0.025291342 0.036878426
-0.039186127 -0.05596221 -0.038930938 -0.15049814 -0.1818504 -0.05399303 -0.15340248 -0.067953594
-0.11546237 -0.15099187 0.017951116 -0.10162085 -0.10509441 -0.16345736 -0.17137314 -0.082974404
0.033167224 -0.09152399 -0.08094729 -0.0079596685 -0.16040058 -0.1551529 -0.15888718 -0.22222517
-0.058103282 -0.21105061 -0.05074248 0.037143406 -0.15986979 -0.002190996 -0.253863 -0.11248224
-0.15072744 -0.09552998 -0.086718254 -0.13424017 -0.14730322 -0.20005229 -0.057203475 -0.18391468
-0.19920461 -0.002444202 -0.11193757 0.05117249 -0.19038442 -0.06123195 0.01883369 -0.11897169
-0.16305842 -0.15764795 -0.13902593 -0.0636265 0.09258628 -0.11995466 -0.07577192 -0.06637376
00000000: 153c a4bd 8304 e2bd c5da b13e 712a 683c
00000010: 16af 0ebd 9550 16be 1018 23bd 650f 1cbe
00000020: 8c50 0d3a 2ca7 143d 64bc c7bd d1f7 2bbd
00000030: 4ad8 5dbd 6216 ffbd ffca 31be 94fc 29be
00000040: 86b5 17bc d624 b9bd 7e32 c6bd b904 bb3c
00000050: d890 c63d 7d9d 3bbe 126f 46be f225 9d3d
00000060: 5eed a03e 114d aa3d 235d 79be a88d 1d3d
00000070: 6857 8fbd e71a 6bbe 350f 8cbe e6c4 0dbe
00000080: 8bb1 5ebe fa94 29be 5e01 713e 0009 9abb
00000090: 4191 ac3d dad3 8c3d 87a6 86bd 7b95 bf3d
000000a0: 4d9d a2bd cbc8 7cbe 64c9 b8bd 56a8 7dbe
000000b0: b47a 9cbe 7c2f 11bd 72fc d53e 2695 f83d
000000c0: 60ab 12be ccec 0e3e bb63 bbbd 960d dcbd
000000d0: 59ec 743c b8ca 8c3d 4644 0f3d 3d72 60be
000000e0: 06c2 8ebe 2288 82be a23f 32be 44be 2d3c
000000f0: 8a99 b4bc 5ef9 2abe fab2 ac3d 9750 02be
00000100: e15f 593d d169 59bc 89c9 83be fe27 bcbe
00000110: 970c 383e 581c 4f3d 0f66 f4be 3a84 10be
00000120: 6cfc afbd 5a29 5e3e c718 263e a7d5 2cbe
00000130: 525c f63e 35a9 13bd 23e3 563d edaf f53d
00000140: f6ac 453e ee02 efbd 22c6 04be 4d72 58be
00000150: 79ea c93e 0d28 9d3d 1377 fdbd 55d4 37bd
00000160: acd5 8f3e 2148 83bd 381d d13d d4f2 67bd
00000170: c2e7 d53d e96e 1a3d 84a8 47be dc58 d0bd
00000180: 1435 c43d 835f a7bd 2f62 8bbd 1d2f 253e
00000190: 0fea a33c 5e7a ecbb 8ea1 6f3e 47c0 eb3d
000001a0: bf70 a33d 6747 1e3e 2339 b03d e5ee 6b3c
000001b0: 0963 cabe 19db 80be d367 873a 48dc 46be
000001c0: a5e0 063e 5cf2 56bc ecfa 693d a1e1 ff3d
000001d0: 05dd 50be 14e5 6abd 6806 25be 8bff 033e
000001e0: 5e32 b63d 244c 1cbe 5a26 893d 29fd d1bd
000001f0: 52fc fa3c 4f1b 513c 01c1 5bbe 42dc 6fbe
00000200: a903 1bbe 0657 4bbe 25e0 95bd 344a ab3c
00000210: 8779 e23c 8e14 0abe ee3e 0dbd c414 70bd
00000220: b453 29be 1dc0 7abe 2ded 84bd 349c 26bd
00000230: a097 20bd 8b8f 50be 5585 44be 6c7e 42be
00000240: c8f2 1ebe 6bde 24be 0893 6bbe 653f 22be
00000250: 9cdd 63be f92a 65be e7e9 f2bd 80a5 d3bd
00000260: e627 3abe 5ba7 cc3b f142 64be 1988 743c
00000270: c822 efbd e19c 273d 63e0 6bbe 1989 94bb
00000280: a636 14be afcb 18be ecac aabb fa1a 32be
00000290: 7724 afbd f3b2 bf3a 2564 cabd 12a8 1abd
000002a0: 6aa4 f6bd 83b6 a0bd b8a3 09be f31d 30be
000002b0: ad19 b5be 059d f9bd 6408 0ebe 4318 09bd
000002c0: 9c85 74bd 6f5f abbd 2cd1 abbd 547f 293a
000002d0: 33ad f4bd 9685 a0bd c8ac d2bd fa2a 9ebd
000002e0: 4960 2bbe 8ed7 12be 89ca 71be f863 bcbd
000002f0: 652d d23c d0c0 51bd a3d6 773d 3211 f9bd
00000300: 341f a9bd 741d c1bd 88dc 55be 4399 e1bd
00000310: cb15 f3bd f52d 1fbe ca2f cfbc d50d 173d
00000320: a281 20bd a138 65bd 0c76 1fbd 2f1c 1abe
00000330: fe36 3abe cc27 5dbd 8a15 1dbe 412b 8bbd
00000340: 8977 ecbd 9d9d 1abe 380e 933c 981e d0bd
00000350: bd3b d7bd 5e61 27be 717c 2fbe 7cee a9bd
00000360: 5bda 073d ee70 bbbd b1c7 a5bd 4569 02bc
00000370: 0d40 24be 67e0 1ebe 52b3 22be ff8e 63be
00000380: b5fd 6dbd a71d 58be 59d7 4fbd af23 183d
00000390: e8b4 23be d096 0fbb 55fa 81be 175d e6bd
000003a0: 4b58 1abe 39a5 c3bd 5799 b1bd 4176 09be
000003b0: a8d6 16be 82da 4cbe 314e 6abd 2154 3cbe
000003c0: 4bfc 4bbe e82e 20bb 863f e5bd 3f9a 513d
000003d0: 22f4 42be 5ace 7abd 1c49 9a3c 6ea7 f3bd
000003e0: c9f8 26be 776e 21be d05c 0ebe 9c4e 82bd
000003f0: e09d bd3d caaa f5bd 4f2e 9bbd f7ee 87bd

lstm.bias_hh_l0 f4 [512]
0.023555323 -0.24598171 0.22255264 0.12865242 -0.10548551 -0.06361145 -0.09028311 -0.15552478
-0.12278953 -0.012586059 -0.14274251 0.03864159 -0.05285479 -0.1346232 -0.18173535 -0.24931774
-0.04408143 -0.11143373 0.03669397 -0.010744865 -0.021954259 -0.055681664 -0.15285319 0.14708984
0.24264859 0.1345872 -0.14760362 -0.048507452 -0.19787578 -0.2075667 -0.27859718 -0.01399608
-0.095632784 -0.19432524 0.21679279 -0.032156724 0.050076377 0.066453844 -0.043641895 0.055068858
-0.12777993 -0.16578655 0.009364128 -0.38840595 -0.1978718 -0.12136391 0.49943036 0.08463645
-0.17578647 0.047914885 -0.16235274 -0.041131843 -0.021962233 0.055338528 0.18449482 -0.18078335
-0.32146275 -0.20137991 -0.1698221 -0.11024925 -0.0515176 -0.14525543 -0.036971707 -0.048287082
0.015796829 -0.025509642 -0.25847736 -0.35911846 0.102746606 0.019435553 -0.3814868 -0.07620375
-0.16996941 0.23126516 0.14839454 -0.079005405 0.43686885 -0.10062853 0.15852395 -0.006379535
0.064095534 -0.053033464 -0.13311979 -0.22053751 0.3550153 0.08587221 -0.19511785 -0.092925586
0.27812278 -0.060894232 0.07010117 -0.018832508 -0.026348801 -0.023212796 -0.16421339 -0.06321618
0.10717574 -0.049204573 -0.08811002 0.17405193 -0.0793198 -0.07449325 0.23705962 0.052266706
0.12585829 0.087900884 0.16857877 -0.08956793 -0.43363616 -0.22263384 0.055321448 -0.2187043
0.19526704 0.0048896736 -0.037122555 0.21180947 -0.25960118 -0.082561955 -0.09572089 0.047649495
0.1850222 -0.18232322 0.0058484003 -0.14543425 0.07172322 0.03987811 -0.18571247 -0.2070896
-0.07363239 -0.11631502 -0.02954041 0.14812404 0.046914857 -0.11929398 -0.2044583 -0.046900958
-0.120738834 -0.162016 -0.08413919 -0.043285735 -0.06940649 -0.20298858 -0.16655548 -0.10484683
-0.13114221 -0.06075851 -0.1970695 -0.1314889 -0.13538513 -0.21041101 -0.13382356 -0.14679547
-0.17029512 0.04517576 -0.08745738 -0.09374789 -0.052126087 -0.009669097 -0.16726463 0.021956263
-0.025890399 -0.094335124 -0.09685377 -0.14997622 -0.031563748 -0.030321004 -0.0833398 -0.03771343
0.01619708 -0.09638209 -0.13913624 -0.053603135 -0.2369859 -0.090232395 -0.1001574 -0.050500568
-0.07289055 -0.14735073 -0.20421332 -0.1486047 -0.06129605 -0.16943549 -0.026016125 -0.14447008
-0.12765309 -0.13420534 -0.13825656 -0.11115269 -0.033293813 -0.10061029 -0.06356677 -0.02464724
-0.08750871 -0.05498609 -0.09401847 -0.16687788 -0.06012383 -0.09727639 -0.052056305 -0.044989783
-0.07156102 -0.07787789 -0.10279088 -0.06511642 -0.18883887 -0.15441294 -0.08357816 -0.07968653
-0.035464104 -0.018577915 -0.034027543 -0.14159273 -0.11046312 -0.16457906 -0.16654156 -0.121098
-0.06830531 -0.11183691 -0.019343007 -0.054954194 -0.037773807 -0.002911679 -0.11991806 -0.23184498
0.007692395 -0.19991218 -0.060715657 -0.10338607 -0.08576175 -0.037880365 -0.22920753 -0.24607989
-0.034779508 -0.2193222 -0.020249724 -0.052168768 -0.23999804 -0.1888121 -0.1788033 -0.106332906
-0.234538 -0.04693715 -0.11854929 -0.10350949 -0.15618071 -0.11252251 -0.03258356 -0.036285434
-0.0819146 -0.069596164 -0.28011906 -0.08981594 0.068462044 -0.11926608 -0.07718984 -0.13717176
00000000: 18f7 c03c a1e2 7bbe d7e4 633e 76bd 033e
00000010: c908 d8bd b846 82bd 5ae6 b8bd e341 1fbe
00000020: 1479 fbbd c235 4ebc 182b 12be a546 1e3d
00000030: 447e 58bd aada 09be d518 3abe 264d 7fbe
00000040: bb8e 34bd 5e37 e4bd 6b4c 163d 3b0b 30bc
00000050: 6bd9 b3bc 7512 64bd 8c85 1cbe b89e 163e
00000060: df78 783e 3ad1 093e 6725 17be c0af 46bd
00000070: f39f 4abe 5d8c 54be 4aa4 8ebe d04f 65bc
00000080: 1fdb c3bd 32fd 46be eefe 5d3e c5b6 03bd
00000090: e31c 4d3d f418 883d d8c1 32bd e28f 613d
000000a0: bed8 02be f3c3 29be 006c 193c 25dd c6be
000000b0: e89e 4abe a48d f8bd 56b5 ff3e e055 ad3d
000000c0: 5e01 34be 6642 443d cc3f 26be dd79 28bd
000000d0: 24ea b3bc a7aa 623d 36ec 3c3e 451f 39be
000000e0: c496 a4be 8936 4ebe d8e5 2dbe 5cca e1bd
000000f0: 1e04 53bd d7bd 14be a56f 17bd adc8 45bd
00000100: 5a68 813c 99f9 d0bc 2557 84be 60de b7be
00000110: d06c d23d 4f37 9f3c 3d52 c3be b610 9cbd
00000120: 760c 2ebe c6d0 6c3e bdf4 173e 96cd a1bd
00000130: 46ad df3e 5516 cebd 1a54 223e 6b0b d1bb
00000140: 8544 833d 9e39 59bd 8e50 08be 96d4 61be
00000150: 91c4 b53e c5dd af3d f9cc 47be c54f bebd
00000160: 1c66 8e3e 3b6c 79bd 3491 8f3d a246 9abc
00000170: 71d9 d7bc c328 bebc 8e27 28be 7c77 81bd
00000180: f47e db3d bc8a 49bd 0773 b4bd ab3a 323e
00000190: 6b72 a2bd eb8f 98bd c2bf 723e 9d15 563d
000001a0: ffe0 003e 6105 b43d ea9f 2c3e 646f b7bd
000001b0: 8f05 debe 20fa 63be be98 623d 05f4 5fbe
000001c0: 15f4 473e 8e39 a03b d20d 18bd 95e4 583e
000001d0: 72ea 84be 3e16 a9bd 5009 c4bd 1e2c 433d
000001e0: 7676 3d3e f0b2 3abe f0a3 bf3b b7ec 14be
000001f0: a0e3 923d 3b57 233d 692b 3ebe 4c0f 54be
00000200: 94cc 96bd 9236 eebd bbfe f1bc d4ad 173e
00000210: cb29 403d 6750 f4bd 845d 51be 381b 40bd
00000220: ec45 f7bd 86e7 25be 2b51 acbd 624c 31bd
00000230: fd24 8ebd 3ddc 4fbe 858d 2abe efb9 d6bd
00000240: 254a 06be eadd 78bd 96cc 49be 07a5 06be
00000250: 66a2 0abe fc75 57be 0b09 09be 8d51 16be
00000260: d861 2ebe 380a 393d db1c b3bd e5fe bfbd
00000270: 2a82 55bd 226b 1ebc 6b47 2bbe 9fdd b33c
00000280: 1a18 d4bc c632 c1bd 455b c6bd 5e93 19be
00000290: fd48 01bd c163 f8bc 0fae aabd 6679 1abd
000002a0: bdaf 843c f963 c5bd bb79 0ebe f68e 5bbd
000002b0: 6fac 72be c3cb b8bd 531f cdbd afd9 4ebd
000002c0: a447 95bd 1ce3 16be 4c1d 51be d52b 18be
000002d0: 9111 7bbd 7f80 2dbe c51f d5bc f7ef 13be
000002e0: 7eb7 02be 206d 09be 2193 0dbe 06a4 e3bd
000002f0: 185f 08bd c50c cebd 4b2f 82bd 02e9 c9bc
00000300: c437 b3bd 1839 61bd c18c c0bd 09e2 2abe
00000310: 6844 76bd d838 c7bd fe38 55bd 3547 38bd
00000320: 968e 92bd 717e 9fbd 0684 d2bd c25b 85bd
00000330: fa5e 41be 6d1e 1ebe 072b abbd b132 a3bd
00000340: cf42 11bd b630 98bc 7760 0bbd affd 10be
00000350: 7d3a e2bd 6a87 28be df89 2abe 3a02 f8bd
00000360: a8e3 8bbd c00a e5bd 3a75 9ebc a617 61bd
00000370: b5b8 1abd ded1 3ebb 9a97 f5bd c568 6dbe
00000380: 7c10 fc3b c7b5 4cbe fbb0 78bd 13bc d3bd
00000390: dba3 afbd 7128 1bbd 61b5 6abe 5efc 7bbe
000003a0: f574 0ebd 0096 60be c0e2 a5bc ebae 55bd
000003b0: 0cc2 75be f657 41be 3618 37be 11c5 d9bd
000003c0: bb2a 70be 2b41 40bd f8c9 f2bd c9fc d3bd
000003d0: d6ed 1fbe 3472 e6bd 5776 05bd 09a0 14bd
000003e0: d8c2 a7bd 6f88 8ebd c46b 8fbe 6bf1 b7bd
000003f0: d435 8c3d c641 f4bd b515 9ebd c176 0cbe

linear.weight f4 [1, 128]
0.107699685 0.017997202 -0.24263051 -0.13363862 0.072161466 -0.08913723 -0.08854731 -0.074265525
-0.047478296 -0.09600453 0.083396226 0.12370614 0.037722237 -0.05495797 0.02756595 0.085433416
-0.068878025 -0.09065003 -0.05738508 0.09769714 -0.06315491 0.011478194 -0.018156197 -0.13033722
-0.17177437 0.06771444 -0.073947445 0.115171894 0.04951377 0.063791044 -0.0740717 0.012402675
0.054251794 0.024592329 -0.26498222 -0.069098175 0.22179 0.0939078 -0.04658629 0.19336757
0.0317229 -0.047540665 0.065152295 0.0081199575 0.042174492 -0.046075143 0.5499306 0.14096901
0.042981263 -0.11113788 0.036720358 0.060189936 -0.073377915 -0.056406874 0.18739949 0.061931785
0.042815607 -0.026898988 -0.017247189 0.07231361 -0.07905507 0.018325316 0.13043985 0.04230491
0.044705786 0.0953688 0.058801435 -0.0040749125 0.19006625 -0.06349005 -0.049117852 0.0486633
-0.035860587 -0.35811427 -0.0945579 0.081523106 -0.38648266 -0.08062587 0.1308754 0.1867586
-0.23933938 0.061571095 0.07637346 -0.07124091 -0.4375998 -0.13003762 -0.11552325 0.03570805
0.24245824 -0.023350717 0.1353846 -0.17762089 -0.1205277 0.16691196 0.025397316 -0.059962314
-0.229003 0.093166396 0.013740134 0.31102735 0.09559555 0.09497752 -0.1637299 -0.09304055
0.089508854 0.13327001 -0.40164587 -0.08242422 0.002562693 0.00033196743 0.11568409 0.045063533
-0.23229693 0.09245493 -0.037951455 -0.15337619 0.035169903 -0.12272115 0.17945875 0.17566462
0.19424915 0.06634493 0.19238624 0.04586453 0.103716925 -0.07865229 0.010331817 0.029991664
00000000: a791 dc3d de6e 933c 2274 78be 90d8 08be
00000010: 64c9 933d 948d b6bd 4b58 b5bd 8618 98bd
00000020: 9a78 42bd 069e c4bd a4cb aa3d a559 fd3d
00000030: a282 1a3d 9c1b 61bd fdd1 e13c b7f7 ae3d
00000040: ec0f 8dbd b9a6 b9bd 9e0c 6bbd 7015 c83d
00000050: 5d57 81bd 090f 3c3c 4ebc 94bc 1f77 05be
00000060: 9fe5 2fbe dead 8a3d c271 97bd 3edf eb3d
00000070: f3ce 4a3d e1a4 823d e7b2 97bd 9734 4b3c
00000080: 2137 5e3d da75 c93c c0ab 87be 5883 8dbd
00000090: eb1c 633e bc52 c03d 44d1 3ebd 2602 463e
000000a0: dfef 013d 00ba 42bd 916e 853d 9209 053c
000000b0: 29bf 2c3d 4ab9 3cbd 40c8 0c3f 2e5a 103e
000000c0: 1f0d 303d 429c e3bd 1668 163d b989 763d
000000d0: 2947 96bd e50a 67bd a7e5 3f3e 2fac 7d3d
000000e0: 6b5f 2f3d 445b dcbc fa49 8dbc 2819 943d
000000f0: a0e7 a1bd f91e 963c 0692 053e ea47 2d3d
00000100: 6a1d 373d b850 c33d c6d9 703d d886 85bb
00000110: baa0 423e 1207 82bd cd2f 49bd 2b53 473d
00000120: 8de2 12bd c15a b7be 93a7 c1bd 96f5 a63d
00000130: 0ee1 c5be 2d1f a5bd 3304 063e a53d 3f3e
00000140: 6215 75be f931 7c3d b069 9c3d c1e6 91bd
00000150: 150d e0be 9528 05be 7497 ecbd 9b42 123d
00000160: f946 783e 014a bfbc 43a2 0a3e 40e2 35be
00000170: 3ad7 f6bd f8ea 2a3e 080e d03c 0b9b 75bd
00000180: c37f 6abe 06ce be3d 4d1e 613c fa3e 9f3e
00000190: 9ac7 c33d 9383 c23d d0a8 27be 0b8c bebd
000001a0: 6b50 b73d ef77 083e 87a4 cdbe 08ce a8bd
000001b0: dbf2 273b ea0b ae39 c8eb ec3d 8a94 383d
000001c0: 3fdf 6dbe 0359 bd3d fc72 1bbd a60e 1dbe
000001d0: 510e 103d 3a55 fbbd 09c4 373e 6de1 333e
000001e0: 40e9 463e dadf 873d e600 453e 72dc 3b3d
000001f0: 8a69 d43d 7414 a1bd c846 293c 14b1 f53c
