models/Basel_LSTM_2026-02-03_49e_24h_1l.pth (torch, 284033 bytes, 6 tensors)

lstm.weight_ih_l0 f4 [512, 1]
00000000: b57c 8c3c bc96 973c f059 f43d b866 d93d
00000010: 8af3 93bd 81f9 92bc 83f6 e23d f041 173b
00000020: bf1e ca3d c1d4 c83d d8f0 243e 448c c6bc
00000030: bf3e 593d 6f3f ea3b dbe3 683d 3c30 b5bc
00000040: 9183 40bc 2476 093e d728 133e d818 f03d
00000050: 2b4e 173e 126a cf3b c371 3b3e d8aa f9bd
00000060: 063a ca3d ea92 2b3c 4a6f a4bd b3e9 81bd
00000070: cefe ce3d ad99 333e 49ae 21be 2c0a 95bb
00000080: 396f 393d 8906 de3d 41d1 2a3d 6d21 aa3b
00000090: 35fa fabd 4b1a 633d 24c3 5bbc f0a0 903d
000000a0: fd30 50bd 1127 013d 0ff3 d839 b52a 123e
000000b0: e5ef 9f3d 44e6 c13d 2480 6dbd 5869 8d3d
000000c0: ba34 d63d 3ae2 edbc 319b 5a3b 8cd9 a33d
000000d0: d2d2 5c3d 3ba9 c93d efa0 fa3d 25cc c9bc
000000e0: 1cd0 a43d 4209 60b8 8b53 ae3d 8fd3 c4bd
000000f0: 5821 293d 69be 51be 195f ba3d 5bc0 233e
00000100: 3bb1 143d c874 1d3e 2a3a 003d 2756 313e
00000110: b1e3 bc3d bcae 8e3d 70d3 b33d a2f0 0a3e
00000120: e114 bfbc e9f9 8f3d 03c5 97bb 4d7a 053d
00000130: 2cc9 1c3e c4df 293c 2c6f 9fbc b600 c9bc
00000140: 8e16 103d 423f a93d 0d4c d4bd 6492 7b3d
00000150: 070f 543d 7d88 6ebd 9e56 2a3d 0860 873c
00000160: 7abd fd3b edca 893d 0faa ef3d 36cc ab3c
00000170: a040 a03d 43d5 a3bc c480 723d 19b8 b63d
00000180: 51e1 463d cc66 29be 4716 de3d 93fb 243e
00000190: 00ed 103e 1055 1abd ea08 8c3d 15b4 033d
000001a0: 39a4 8bbb 1173 003e e68a 053e 8d8d 1a3d
000001b0: 4019 353e 8f07 d43d 59b1 ba3d aa41 e03c
000001c0: e510 213e 3c2b 573d fca2 95bd 93af 05be
000001d0: 5016 eb3c 1ebc 973a 14f3 0f3c 97a6 ec3d
000001e0: 4488 063e 63b6 4d3d d10b 933d 2903 813d
000001f0: 10dd 6ebc 7b29 053c d9d2 2cbd 8756 e93d
00000200: ab50 95b9 6c40 043d 5ac6 003d 3799 b33d
00000210: 5d94 463b 6555 f5bd 1ee7 e53d cb01 3d3c
00000220: 6c60 443d 2e2a 133d 51c3 d63c aa50 7abc
00000230: 05da c83d 3e7e 8b3d 76a8 cb3d ef6e 0c3e
00000240: ffe1 103e 6072 473d 5249 023d 47a0 383d
00000250: ee2c 313d 1ed9 f53d b17e cf3d 6d13 f0bd
00000260: 601c 0a3e 1785 063e 8e1c 79bd 2557 15be
00000270: bce4 8b3c e541 233e b4b8 70bd 6f11 953c
00000280: 97b5 003e cdb7 073d ee14 e73b 8b7f 71bc
00000290: 40b0 20be b076 2b3e 9507 dd3d 05d6 f23d
000002a0: 2f4c d93c 9e37 c23d b8de 903b a63e 1e3e
000002b0: 209a 173e e276 593d 8a2e 5fbd c8d7 093e
000002c0: dce3 123e 39e8 9ebd adda fa3d f083 2f3d
000002d0: 0254 d53d 386b 973d 2bf5 9a3d 47a4 eebb
000002e0: 1f46 a43d ef40 973d 6a77 343e e77b d5bd
000002f0: 16c3 043c e6c3 30bd 0e00 943d dc63 e63c
00000300: cb59 d33d 2b3f ac3d 2c1e 373e 8dbe 053e
00000310: 3411 a53d a97e d83d 3578 883c 773e f53d
00000320: 124e eabd 653b 863d 9320 ca3c 3e65 9e3d
00000330: c27c 5c3d c328 6d3c 63e3 c13d 62b7 59bb
00000340: d343 0c3d 664c 37bd 0df0 01bb 6fca 133e
00000350: 3f01 423c 226d a0bd f24a 283d 770e c33c
00000360: dcbe 503b 8e87 5b3c 5e5a 013e 98c8 433d
00000370: eb84 f43d 975e 4b3d f9f0 293e 3fca 823d
00000380: 495c 8d3d cf7d 9bbd 3ef6 c33d 8177 d63d
00000390: 9828 973d 9325 993d 8530 463e 1482 b2b8
000003a0: 9dfc cf3d 6a8d 0a3e 6a28 273d 3ea5 1fbd
000003b0: 502f 093d 949c 813d af78 443d 8587 2cbd
000003c0: 5605 cc3c 681f 693d db34 843c 4744 09be
000003d0: 382e 963d 5df5 1e3d 3fcd 493d 21db 4dbd
000003e0: 55fb 023d d9f8 4abd 7df3 1f3e 3edc 073e
000003f0: fe3e b13c 739a 093e 57d6 463d 1a43 883b
0.017149309 0.018504493 0.11931217 0.10615295 -0.07224186 -0.017941238 0.11082175 0.0023080073
0.098691456 0.098062046 0.161075 -0.024236806 0.053038355 0.007148675 0.056857925 -0.022117727
-0.011750118 0.13423973 0.14371048 0.117234886 0.14775912 0.0063297832 0.18305115 -0.12190789
0.09874348 0.010472039 -0.08029039 -0.06343403 0.10107194 0.17539091 -0.15789141 -0.0045483317
0.045272086 0.1084109 0.041703466 0.005191973 -0.122547545 0.055444997 -0.013413224 0.070619464
-0.05082797 0.031531397 0.00041379823 0.14274104 0.07809428 0.09467748 -0.057983533 0.06904858
0.104592755 -0.029038537 0.0033356661 0.08000478 0.05391199 0.09846731 0.12237727 -0.024633477
0.08047506 -5.3414384e-05 0.08512028 -0.09610664 0.041291565 -0.20482792 0.0910017 0.15991347
0.036301833 0.1537658 0.03130547 0.17318021 0.09223116 0.06966922 0.08780563 0.13568357
-0.023325386 0.070300885 -0.00463164 0.03258734 0.15311116 0.010368291 -0.01946219 -0.024536472
0.03517776 0.082640186 -0.10366068 0.061418906 0.051772144 -0.058235634 0.04158651 0.016525283
0.0077435346 0.06728158 0.11702358 0.020971399 0.07824826 -0.019999152 0.05920483 0.089218326
0.048554722 -0.1654312 0.10844093 0.16111593 0.14152908 -0.03767878 0.06837638 0.03215416
-0.00426152 0.12543894 0.13041267 0.03773265 0.17685413 0.10353004 0.09115858 0.027375061
0.15729101 0.052531466 -0.073064774 -0.13055257 0.028697163 0.0011576449 0.008785982 0.11555212
0.13137919 0.050222766 0.07179988 0.06299431 -0.014579073 0.0081275655 -0.042193267 0.11393457
-0.00028479597 0.032288 0.031439163 0.08769458 0.0030300834 -0.11979178 0.11225723 0.011536072
0.047943518 0.035928898 0.026216181 -0.015278021 0.09807209 0.06811188 0.09944241 0.13714193
0.1414871 0.04869306 0.031808205 0.045074727 0.04325574 0.120043024 0.10131586 -0.11722455
0.13487387 0.13136707 -0.060818247 -0.14584024 0.017076842 0.15943106 -0.058769897 0.01819679
0.12569271 0.03313427 0.0070520556 -0.014739881 -0.15692234 0.16744494 0.10792462 0.11857227
0.026525585 0.094832644 0.0044210814 0.15453586 0.14804888 0.05309189 -0.054487742 0.1346122
0.14344734 -0.07759137 0.1224874 0.042850435 0.10416414 0.07393497 0.07566293 -0.007282767
0.08021187 0.07385432 0.17623678 -0.10424023 0.008103153 -0.043155573 0.07226573 0.028123789
0.10319861 0.08410486 0.17882603 0.1306097 0.08059922 0.105710335 0.016658882 0.11974805
-0.11440672 0.06554297 0.024673736 0.07734154 0.053829916 0.01447505 0.09467199 -0.0033220877
0.03424437 -0.044750594 -0.001982692 0.14432691 0.011841117 -0.078333154 0.0410871 0.023810608
0.0031852042 0.013399018 0.12632129 0.047798723 0.119394146 0.049650755 0.1659583 0.06386232
0.069023676 -0.075923555 0.09568451 0.10472012 0.073807895 0.0747787 0.19354446 -8.51193e-05
0.10155604 0.13530508 0.040810026 -0.038975947 0.033492386 0.06328693 0.047966655 -0.04212143
0.024904888 0.056914717 0.016138485 -0.13404952 0.07333034 0.038808215 0.049268004 -0.050257806
0.03197797 -0.049553726 0.15620227 0.1326761 0.021636482 0.13437824 0.048544254 0.0041583898

lstm.weight_hh_l0 f4 [512, 128]
00000000: 41c7 7d3d dc99 9cbd 22c7 213d 548d 5fbd
00000010: 0be2 803d 1c7c b2bd c7b9 143c d6a2 6fbd
00000020: b18f 983d 5156 0b3c 1267 913d 46ef 83bc
00000030: 6551 0f3c 3ab6 9d3d 6a5a 3bbd dcb5 9b3d
00000040: de33 61bd d0e5 17bd 64c7 373d 1ed7 733d
00000050: b51a 813b 9204 1b3d 20be 123c d7c5 d9bc
00000060: 65e4 86bd 18aa e2bc 4a4d 07bb 5e0a 8bbc
00000070: 5288 5c3c 13d2 a93d 5634 6cbd 4d35 e83c
00000080: be48 80bd 69b1 c43d 65f6 733b 181f 7fbd
00000090: 2d03 12bd 412c 9dbb 130f 1cbc db05 75bd
000000a0: e7ee 013d 3da9 bd3d 7c16 8d3d 557c 9d3d
000000b0: dbef 553d f990 813d 4fe3 f33c 23d9 21bd
000000c0: 1736 be3d ab70 cebc 00df 01bd 3371 b5bd
000000d0: 350c 62bd 43f4 3fbc 4658 27bd 4c77 3cbc
000000e0: 6ede 213d 4707 b53b d455 af3d 61cc ac3c
000000f0: 1984 a53c f76e 57bd 464e 1bbd a8dc 33bb
00000100: 0cf6 a8bd cf3d c7bc a73c 213d 843c 903d
00000110: 9dc3 663d f111 c33c 3427 8e3b ab44 9b3d
00000120: cb10 c03c cd07 86bd 460b 9d3d 1105 8abc
00000130: 5110 ba3d f6fd 14bd 4122 bfbc a9c8 23bd
00000140: 58b1 953d 6fd3 533d 1e89 55bd b16b 9dbd
00000150: 2e4c 193d dd31 7a3c 1b46 8d3d 557e 2ebc
00000160: 0e2a 8cbd ec26 90bd cff7 833d ad7f 973d
00000170: e839 babd 5064 c73b 3576 5d3d 12c3 783b
00000180: 62f7 3a3d 6888 ecbb 9705 23bc 1034 143d
00000190: 936a 4f3d 774a 9f3c b398 933a 0062 ed38
000001a0: da1f f4bc 42b3 af3d eeac 26bd 58be 2fbd
000001b0: 575c f4bc b4c8 79bd 4e9f 83bd f8d0 933c
000001c0: 59ee 4bbd 68d1 93bd d0da a13d 7b20 b13d
000001d0: 6605 9cbb 6e45 9cbd 7424 f63c 7422 13bd
000001e0: 913f c93c 73a8 a83c f149 f6bc ca9d fe3c
000001f0: f621 5b3b 7fa0 52bd b018 90bd 6c35 943d
00000200: f240 433d c3e4 023d 53ee 2abd 699f 40bd
00000210: 47b3 70bd 5636 fbbb 28e2 bfbc b5aa 8ebd
00000220: aa05 72bd d8fe c73c 6f3a 153d 8287 be3c
00000230: 9c26 3cbd cb3c 9bbd 663d c03d 0cda 823d
00000240: 8c97 87bd 4a8a 603d f21b aa3d 06c1 9dbd
00000250: c6eb 373a 57a1 38bd 7ff0 123d e9e1 453d
00000260: bc77 b23c bdb7 0fbd c2c2 a63d a66d 853c
00000270: f833 9bbc 2e2f ab3c dd0d 8bbd 6238 a0bd
00000280: 96f3 a53c a98c 963d c860 ec3a 429c 64bd
00000290: 5ef5 2dbd c88b 25bc a875 92bb 8367 ddbc
000002a0: 0710 8e3d fb9d 9a3d 6dbf 963c 821f 9c3d
000002b0: 0874 14bd 7796 a3bc 7117 72bd 689e cbbc
000002c0: 9736 eebc 8385 60bd e6ae 55bd 169c 6cbd
000002d0: 65dd 3e3d 6f0e 8bbd f7c3 ab3d c380 753d
000002e0: f5f3 2dbc 6328 89bd a536 1b3e 2fc3 acbd
000002f0: 56c3 a2bc 5905 c83d ecad 36bd 70e4 74bd
00000300: fcb2 76bd 0f9a 8f3d 4b4b b1bd f433 8bbd
00000310: 46f9 863c e7fd 3ebc 9c7b 49bd c160 1ebd
00000320: 5f1c bebc 9aa4 763d d686 8d3d de58 6a3d
00000330: 5448 7c3d c0fa f73c 9ec4 2fbc 873f 1d3d
00000340: d544 47bd 7b5f 9dbd 434e 393d 0020 b73c
00000350: cecb 1bba 80a6 be3d c81c 7f3c 7bc2 a2bb
00000360: 3e41 b53d 312a bebd d050 fe3c f88a 7e3d
00000370: fc2e 84bd 868f 353d bc09 ad3d 7806 ac3c
00000380: 501c 393d 911e 533d 71c9 b03d 6380 833d
00000390: d524 963d b818 dc3c 62b1 48bd a7df 98bd
000003a0: 5065 663d ea74 2e3d 70c1 48bd f3ec 343d
000003b0: 1024 533d bce4 babd b869 ad3c 7529 1dbd
000003c0: 15e2 89bd 0260 ca3c 6782 193d 35b0 2cbd
000003d0: 6505 563d 8dce 98bd 40a0 6d3d b0c8 583b
000003e0: d037 9a3c 03f7 873c 21a9 983d 7fe5 703d
000003f0: 2d16 50bd 6539 b9bd 3cf9 7bbc 4ec6 243d
0.0619576 -0.07646534 0.03949655 -0.05457814 0.06293114 -0.08715078 0.009077496 -0.0585049
0.07449282 0.008504466 0.07099737 -0.016105305 0.008747433 0.077007726 -0.045740522 0.07603046
-0.054981105 -0.0370844 0.044867888 0.059531324 0.0039399513 0.037846155 0.008956462 -0.026583595
-0.065865315 -0.027668998 -0.0020645433 -0.016972717 0.013460236 0.082920216 -0.0576671 0.028345728
-0.062638745 0.09604151 0.003722572 -0.062285513 -0.03564756 -0.0047965352 -0.009525078 -0.059820037
0.031721976 0.09260795 0.06889054 0.0768973 0.052230697 0.063264795 0.029771475 -0.03951372
0.092876606 -0.025200209 -0.03170681 -0.08859482 -0.055187423 -0.011715951 -0.04085567 -0.011503052
0.039518766 0.005524549 0.08561292 0.02109355 0.02020459 -0.05259606 -0.037916444 -0.0027444754
-0.08250055 -0.024321465 0.039364483 0.070427924 0.056338895 0.023812266 0.0043381695 0.07581457
0.023445508 -0.06544457 0.07668166 -0.016848119 0.09085143 -0.03637501 -0.023331763 -0.039986286
0.07309216 0.05171531 -0.05213272 -0.07686556 0.037426166 0.015270677 0.06898137 -0.010650237
-0.06843959 -0.07038674 0.0644375 0.07397399 -0.09093076 0.006084956 0.05406781 0.0037958068
0.04564608 -0.0072184093 -0.009950063 0.036182463 0.050638746 0.019444687 0.0011260718 0.000113192946
-0.029800344 0.085791126 -0.040692262 -0.042906135 -0.029829187 -0.06098242 -0.06426869 0.01804398
-0.049787853 -0.072176754 0.07903063 0.08648773 -0.0047613857 -0.0763043 0.03004668 -0.03592153
0.024566444 0.020588135 -0.030064555 0.031081099 0.003343699 -0.051422592 -0.07035959 0.07236752
0.04766936 0.031956445 -0.04173119 -0.047027025 -0.058764722 -0.0076663895 -0.02342327 -0.069661535
-0.059087433 0.024413511 0.03643268 0.023257975 -0.04593526 -0.07579955 0.09386711 0.063892454
-0.06620702 0.054819383 0.083061114 -0.07702832 0.0007016029 -0.04507574 0.035873886 0.048311148
0.02178561 -0.035087336 0.08142616 0.016287636 -0.018945679 0.02089652 -0.067897536 -0.07823254
0.020257752 0.073510475 0.0018034214 -0.05581308 -0.04247033 -0.010104127 -0.004469592 -0.027026897
0.06936651 0.07549664 0.018401826 0.07623197 -0.03624347 -0.019969208 -0.059104387 -0.024855807
-0.029078765 -0.054814827 -0.05216875 -0.057766043 0.046597857 -0.06789862 0.08386987 0.05993725
-0.010617246 -0.06697156 0.15157564 -0.08435666 -0.019868534 0.09766645 -0.04459946 -0.059788167
-0.060229287 0.07011806 -0.08656939 -0.06797019 0.016476285 -0.011657215 -0.04919015 -0.03866649
-0.023206888 0.06021557 0.069104835 0.057213657 0.061592415 0.030270934 -0.0107280295 0.038390663
-0.048649628 -0.07684227 0.04524065 0.022354126 -0.000594315 0.09309101 0.015570827 -0.0049670315
0.088503346 -0.09285391 0.031044394 0.06214425 -0.06454274 0.044326328 0.08449122 0.020999178
0.045193017 0.051542822 0.08632172 0.06420972 0.07331244 0.026867256 -0.04899729 -0.07464533
0.056248963 0.042591967 -0.0490126 0.044171285 0.051548064 -0.09125659 0.021168575 -0.038369615
-0.06732575 0.024703983 0.037477877 -0.04216023 0.05225124 -0.074612714 0.058014154 0.0033078603
0.018825442 0.016597277 0.07454134 0.058812615 -0.0508024 -0.0904415 -0.015379246 0.04022818

lstm.bias_ih_l0 f4 [512]
00000000: 44d8 99bc 9790 0c3a 347f 8e3d ed3b 493d
00000010: ae9f db3c 4150 52bd d773 bd3b 8bfa 163b
00000020: 94b2 a6bd e9f8 783d 3346 3b3c 2989 9a3d
00000030: 9620 5fbd 9cdb 4fbd 803c 43bd cd43 62bd
00000040: 454c 8a3c f1ab d53c 837d cfbc 5896 ee3b
00000050: 87c5 363d 66d9 dc3c 42a0 ea3c c03d a93c
00000060: d0a0 8d3d d0a1 ce3c fe73 3d3d 1583 a63d
00000070: 4f5f 6c3d 43a6 88bd 1f0a 1cbd 0581 cc3c
00000080: feee 95bd 3f87 8f3c dddd 21bd c166 3fbd
00000090: 5a3d 0dbd bf19 a23d 831b 683d 8e70 9e3d
000000a0: 65ce a2bd ffbe b2bb 773b 98bd 5fcc 953c
000000b0: 4583 663d cdc1 353d 7809 2fbd 5cea 173d
000000c0: 6d9b a83c 892d d43b a322 6f3d 5a62 c93d
000000d0: 44b5 7ebd 6a4c 043d 3a81 9cbd cf21 aebd
000000e0: a87c 33bd 5890 ad3d 2d62 f03d 935a 1f3d
000000f0: 8cc1 db3d 5f21 643d 905c 9c3c fc5d 343d
00000100: f4c3 ab3b 92a0 5cbd 9a28 843d 2c44 8abd
00000110: 2aee 0b3d a487 9f3d a7fe 923d 9adf ba3b
00000120: d02b c83c 9483 623c dcbc b33d f424 683d
00000130: 994e 0cbd a969 54bc 3078 7a3c 02c8 383c
00000140: c9eb bc3d 5125 2cbc 8296 f1bc 2a70 ac3c
00000150: c163 863d 69ae 1bbd a1eb 5d3d 210c eebc
00000160: d347 81bd eb7c aabc 7ace d1bc 2785 433d
00000170: 1db1 9abd f95d bfbc ba0c 573d 5657 47bc
00000180: 5999 a6bc d0e1 113d d6ba 19bd 3dd0 9a3d
00000190: 845c dcbc 9198 34bd d19b 18bc 472e b53c
000001a0: 4566 973d bb8d 17bd 69c6 b9bc 1f60 923a
000001b0: 22b1 9cbc d1ec 01bc 73b2 e83c c8dc 503d
000001c0: 210a 93bd 2f30 9bbd 697d abbd 84d2 fbbb
000001d0: 5e61 a43d 73a9 973d 91e3 2bbd 5611 3c3d
000001e0: bbee 8c3c 552d 943d edf1 613d a214 23bd
000001f0: b2b4 80bc 76a2 083d c555 bd3d bae6 65bd
00000200: baa2 bb3d d592 68bb 6fce 51bd 7932 6cbd
00000210: ee10 7d3c 988e 113d 7ae2 9f3d 8582 7fbd
00000220: b0d1 67bd 9a5f e8bc e7b3 e5bc fce7 dbbc
00000230: 3f41 453d 705e fdba 9de3 6e3d 42e9 0b3d
00000240: a67b bd3c 25eb fcbc 5889 393c 18ab 8cbd
00000250: 7ff1 903c ec2e 8abd 3386 ad3d 2374 19bd
00000260: 56fd f4bc 02af 88bd c4b8 a63d f772 8d3d
00000270: 80c8 90bd b51c c9bc 9c97 043d cc06 e03c
00000280: d4a6 253d 4546 203c 031e b93c 26bb 173d
00000290: 2dde 6e3c b747 c0bc 9650 8bbd 98cf 2cbc
000002a0: 9d3d a23c 984b f8bb 06fe 863d 4dfb 543c
000002b0: 358d 48bd 0066 12bd 4192 5ebd fce5 00bd
000002c0: d20a 16bd 75ac 80bd f601 143c af68 a93d
000002d0: dc31 13bc 4e49 973d 0723 7d3d 7d14 7fbd
000002e0: cc9a dc3b bb0c 4b3d 058d 44bd 3aeb d53c
000002f0: ba29 803c 01d9 a53c ce01 34bc dcd1 7d3c
00000300: 7b6a 613d 82de 8abd 68d2 843d 837d 3dbd
00000310: b60f 993d 963d 063d 5247 9cbd 5562 31bd
00000320: 9faf 8d3d ae42 27bd 237e 743d 001e 03bd
00000330: 6154 583c ddb9 7cbd adc1 30bd 003c 563c
00000340: e493 c33b bfc9 0b3d 1bc7 743b 17a5 ef3c
00000350: 1350 71bd 212f 68bd b0d6 b23d f151 d4bc
00000360: 8834 60bd 9858 7abd e4ea 033d d56c 4b3d
00000370: 2342 9abc e610 b8bb 2698 5a3b 5d93 0bbd
00000380: fb1d 6abd 750e fabc c6b2 a93d 7df0 c13b
00000390: 0de3 a73d ec72 573b d1b0 2abd 249c d3ba
000003a0: 7681 4f3d d44e 07bd b4e4 fc3c 31b4 bf3c
000003b0: b720 8c3d b245 a73d 91df ac3d c702 72bd
000003c0: 84a2 493c 0c99 fe3c 5e37 8d3d 0571 23bc
000003d0: ce70 793c 6fce a8bc 6cb4 383b 50a0 89bc
000003e0: 4dd5 b1bd 7b0f abbd 7d71 993c d57f a53d
000003f0: 6c7a 03bd de6c 60bd f763 82bd 0468 2d3b
-0.018779881 0.0005362122 0.06957856 0.049129415 0.02680954 -0.051346067 0.0057816315 0.002303752
-0.0813953 0.060784254 0.011430311 0.075456925 -0.054474436 -0.050746545 -0.04766512 -0.05524044
0.016882071 0.026082965 -0.025328403 0.007281106 0.04462197 0.026959132 0.02864087 0.020659328
0.06915438 0.025223643 0.046253197 0.08130471 0.05770808 -0.06672337 -0.03809559 0.024963865
-0.07320975 0.017520545 -0.039518226 -0.046728853 -0.034482338 0.07915067 0.056666862 0.07736312
-0.07949523 -0.0054548974 -0.07433217 0.018285928 0.056277532 0.044374276 -0.04273364 0.037088737
0.020581925 0.006475155 0.05838264 0.09833212 -0.062184587 0.032299437 -0.076418355 -0.08502542
-0.043820053 0.08474797 0.117374755 0.038904738 0.107302755 0.055695888 0.019087106 0.044034943
0.0052418653 -0.05386407 0.06453057 -0.06751284 0.034162678 0.07789543 0.07177477 0.005702925
0.024434954 0.013825316 0.087762564 0.056675866 -0.034254644 -0.0129646445 0.015287444 0.011278154
0.0922466 -0.010506944 -0.029490713 0.021049578 0.06561995 -0.038008127 0.05417979 -0.029058518
-0.063125275 -0.020811519 -0.025611151 0.047734406 -0.07553313 -0.02336024 0.05250237 -0.012166819
-0.020336794 0.035615742 -0.037531696 0.075592496 -0.026899584 -0.04409081 -0.009314493 0.022116793
0.07392553 -0.0370004 -0.022677617 0.0011167562 -0.019127432 -0.007929997 0.028405404 0.050991803
-0.07179666 -0.0757755 -0.083735295 -0.0076850075 0.08026384 0.07405367 -0.04196507 0.04591497
0.01720368 0.07235209 0.05516236 -0.0398146 -0.015711162 0.03335806 0.09244875 -0.05612824
0.09161897 -0.003548791 -0.05122226 -0.057665322 0.015445931 0.03553638 0.07806869 -0.062380332
-0.056596458 -0.028365899 -0.028039886 -0.026844017 0.048157927 -0.0019330513 0.058322538 0.034158
0.02313025 -0.030873844 0.011324249 -0.06868571 0.01769328 -0.06747231 0.08472862 -0.037464272
-0.029905956 -0.06674005 0.0814071 0.069066934 -0.07069492 -0.024549821 0.03237115 0.027346991
0.040442303 0.009782379 0.022597319 0.037043713 0.014579338 -0.023471696 -0.0680248 -0.010547541
0.01980477 -0.007577371 0.0659142 0.012999368 -0.04896279 -0.035741806 -0.054338697 -0.03146933
-0.036631413 -0.062828936 0.009033671 0.0827192 -0.008984055 0.07387029 0.061800983 -0.0622754
0.0067323204 0.049572688 -0.04798605 0.026113141 0.015644897 0.020245077 -0.010986758 0.015491929
0.05503319 -0.06780721 0.06485444 -0.046262275 0.074737 0.032773577 -0.07630791 -0.043306667
0.06918263 -0.040835075 0.059690606 -0.032011032 0.013203711 -0.06170069 -0.043153454 0.013075829
0.0059685577 0.034127947 0.0037350121 0.029253526 -0.058914255 -0.05668557 0.08732355 -0.025917979
-0.054737598 -0.061119646 0.03220643 0.049664337 -0.018830365 -0.005617249 0.0033354848 -0.034076083
-0.057157498 -0.030524472 0.082860515 0.005918561 0.081976034 0.0032874895 -0.04167253 -0.0016144556
0.050660573 -0.03303416 0.030870773 0.023401352 0.06842177 0.0816759 0.084410794 -0.05908468
0.012306813 0.031078838 0.06895326 -0.009975676 0.015224649 -0.020606248 0.0028183712 -0.016800076
-0.08683262 -0.08352562 0.018730873 0.08081023 -0.032099172 -0.054791324 -0.06366723 0.0026459703

lstm.bias_hh_l0 f4 [512]
00000000: b1e8 533d 785e 1a3d 0051 643d ebfa 2cbd
00000010: bd8e 3a3d 91ed 923d 096a 2f3d 0445 8f3d
00000020: d27a 91bd 2d60 9c3d 126b dabc 9d80 993d
00000030: e8b0 1e3d 67b7 02bd 64af cd3d e7cc 66bd
00000040: e688 4a3d 58fd 9a3d e959 55bc 01e9 be3c
00000050: 83ea ecbb bbf6 84bd 6d89 f3bc 2285 523c
00000060: d734 15bd c9b8 34bc 145d 1abd 1d92 1b3d
00000070: 3c92 333c f280 cc3b e544 c7bd 30a6 bc3d
00000080: a2b1 283d 3212 77bd 486b 9bbd bcea 14bd
00000090: f536 d13c 589d 92bc 74cb a63d f865 813d
000000a0: 2e9f 66bd e6d6 333d af5a cfbc cc2d a33b
000000b0: 23c2 23bd 46f4 c53d 802d 633d 90fd 973d
000000c0: 7a10 9a3d 8627 b0bc ba8f 963d 34bc 4ebc
000000d0: 04f6 07bc f03b 16bd dcb4 76bd 0d66 55bd
000000e0: 6dc0 89bd 03d2 c53c ec6e 3f3c fcf5 683d
000000f0: 5d3c 873d f7bc 973d e956 5b3c a3b7 82bd
00000100: 769e f6bb 98d3 a63d 76d3 8b3d a3a9 233d
00000110: 9c24 85bd 4438 42bd 57d2 99bd 5f81 713d
00000120: 2942 633c 413e d2bc 49a6 4ebd 6a54 42bd
00000130: 87b3 2ebd e0ce 133d 0682 9fbd f6fb ba3c
00000140: da3b e23a 4c2d 41bc 03c0 80bd f213 a03d
00000150: 0877 8c3d 3b82 623d a1b6 903d 89d6 a9bd
00000160: 5274 5abd 7ed0 f03c db0a 5f3d 3cf3 f53c
00000170: 5bfb 8e3d 725a 4c3c b094 8b3d 39df 353b
00000180: fa9a 9ebd ec90 513d 30f6 37bc 1b94 423d
00000190: d908 ad3d a359 773d e8c9 9f3d 8a01 02bd
000001a0: 07c5 ab3d b58d 28bd 97ff f73c 9f87 6bbd
000001b0: a7b9 2dbd 59ee 803d f333 c13d d6ca 88bd
000001c0: 9334 28bd 222c 933d 8d5b 49bc 4227 13bd
000001d0: 5bb4 3c3d e780 19bc 636b c73d de73 01bd
000001e0: c581 a63d d7cf 043d 34ce 66bc f079 97bd
000001f0: 5df4 833b 2136 8a3d fe7a e63c 47e2 c63d
00000200: a2dc 80bc 21c2 29bd d720 cdbc 1051 6f3b
00000210: 4203 e7bc d650 a7bd 7282 5fbd 7593 3a3b
00000220: dec1 163d 2e86 6ebd dbae c43c 184c 82b9
00000230: 6581 62bd 5950 b23d d9bd 26bd 5be5 883b
00000240: a2fd 54bc 0158 94bd 4144 6d3d e967 413d
00000250: 850e 94bd 08b5 eabc 6193 8e3d 9c47 9ebd
00000260: 27d2 9dbd 0e7d a13d 543a aa3d 2f25 25bd
00000270: 703b b73d 1df6 fc3a 34c0 f43c 727a 433d
00000280: 15e6 9a3d 7ece ab3d 2f0f ac3c 996d b73d
00000290: 6d92 c4bd 3032 083d cbac 63bd 88a9 64bd
000002a0: 4ca4 c1bd c083 6e3c 90ad 823d 4a83 14bd
000002b0: 003a 8f3d 5a81 38bd 9cb7 9a3d ac57 833d
000002c0: d157 503d 86b8 493d 0350 3a3d c2c8 ffbc
000002d0: d529 94bd 8aa1 593c ad2b 04bc 695e 96bd
000002e0: 670b 8b3d 6164 d93d 33bf 78bd 30a2 2ebc
000002f0: 4bd1 373d 1e9f fdbc 968b 903d c17b 8c3d
00000300: 37ae 1a3c cb03 d93c caa3 5abd 7b5a 29bd
00000310: 2859 b03d e0f1 73bd efc1 183d adb0 023d
00000320: 078c 8e3d 5713 92bd ebea 16bd 1674 923c
00000330: 5465 b43d 5b87 6e3d 2cfb 8aba 0341 64bd
00000340: e2aa 823d e6e7 50bc b23d bdbb b53d 4cbd
00000350: 7bab 103d c4b2 fd3c 99f0 183d a8d9 7f3d
00000360: c1b1 9abd c2f5 853d 1d91 37bd 931c 493d
00000370: 22a3 7bbb 893f 7ebd 3885 27bd 68d7 2cbd
00000380: 6431 a9bd d4a0 aeba 6287 0dbd ec0a 9d3d
00000390: e587 b83d 4cf8 55bd 6d73 6d3d 3a18 57bd
000003a0: 7041 30bd aae5 8f3d de0c bd3d 712a 2a3d
000003b0: 55c5 4b3d 8e4c 483d 4144 c43d 0690 bcbb
000003c0: faf2 beb9 cabe 6c3d e0c0 a73d 31a3 7abc
000003d0: 1e76 803d b660 523d 2bc8 423d a3cc 9f3d
000003e0: e78d 2abd 8e37 7ebd 8d71 443d be69 173d
000003f0: d8b7 c63d 75d2 dc3c 6ccf 1cbd 2393 b2bc
0.051735584 0.03768775 0.05574131 -0.04223148 0.045546282 0.071742184 0.042825732 0.069955856
-0.07103504 0.076355316 -0.026662383 0.07495234 0.03874293 -0.031913187 0.10043219 -0.056347754
0.049446963 0.07567853 -0.0130219245 0.023304464 -0.0072301044 -0.064923726 -0.029728616 0.012849124
-0.036427345 -0.011030384 -0.037686422 0.03798114 0.010960158 0.0062409574 -0.097299375 0.09211385
0.04118503 -0.060320087 -0.07588822 -0.036356673 0.0255389 -0.017897293 0.08144274 0.06318277
-0.05630415 0.043906115 -0.025311796 0.0049798246 -0.039980065 0.09665732 0.055463314 0.0742141
0.07522674 -0.021503221 0.073516324 -0.012618113 -0.008298401 -0.036678255 -0.060231075 -0.052099276
-0.067261554 0.024147993 0.011684161 0.056875214 0.0660331 0.07409089 0.01338742 -0.06382682
-0.0075262142 0.08145827 0.06827442 0.0399567 -0.06501123 -0.04741694 -0.07510822 0.05896127
0.013870754 -0.02566445 -0.05045155 -0.047443785 -0.04265168 0.036085963 -0.07788472 0.022825222
0.0017260269 -0.011790585 -0.06286623 0.07816304 0.06858641 0.05529998 0.07066084 -0.082928725
-0.053333588 0.029396292 0.054453712 0.03002321 0.06981536 0.012472736 0.06815469 0.002775146
-0.07744403 0.0511636 -0.011228129 0.047504526 0.08448953 0.06038822 0.078021824 -0.03173975
0.08387189 -0.041150767 0.030273242 -0.057502385 -0.04241338 0.06295461 0.09433737 -0.06679313
-0.041065764 0.07186152 -0.012289894 -0.03592611 0.046070438 -0.009369112 0.09737279 -0.03160464
0.0813022 0.032424774 -0.014087249 -0.073963046 0.004026933 0.067486055 0.02813482 0.09711128
-0.015730206 -0.0414449 -0.025040073 0.0036516823 -0.028199796 -0.08169715 -0.05456776 0.002846924
0.03680598 -0.058233432 0.024009159 -0.00024852226 -0.05529918 0.08706731 -0.040708397 0.004177732
-0.012999924 -0.07243348 0.05792642 0.047218237 -0.07229332 -0.028650776 0.06961704 -0.07728502
-0.07706099 0.078851804 0.083119065 -0.040318664 0.08946884 0.0019299422 0.029876806 0.047724195
0.07563416 0.08388995 0.021003334 0.08956451 -0.09598241 0.033250988 -0.05558471 -0.05582574
-0.09455165 0.014557779 0.06380761 -0.03625802 0.069934845 -0.045045234 0.07554552 0.064132065
0.050865 0.04924824 0.04548646 -0.031223658 -0.07234541 0.013283143 -0.008067054 -0.07342226
0.06789284 0.10614849 -0.060729217 -0.010658786 0.04487733 -0.030959662 0.07057874 0.06859542
0.00944095 0.026491066 -0.053378858 -0.041346055 0.08610755 -0.05955684 0.037294324 0.031906772
0.06960302 -0.07132595 -0.03684513 0.01787762 0.08808389 0.058234554 -0.001060342 -0.055726063
0.063802496 -0.012750601 -0.005775177 -0.049863536 0.035319787 0.030969031 0.037338827 0.062463433
-0.07553435 0.06541015 -0.044816125 0.049099516 -0.0038396795 -0.06207231 -0.04089853 -0.042197615
-0.08261374 -0.0013323077 -0.03455294 0.07668099 0.09010295 -0.052238747 0.057971407 -0.05251334
-0.043031156 0.07026227 0.0923097 0.04154438 0.049748737 0.048901133 0.09583331 -0.0057544736
-0.00036420656 0.057799138 0.08191085 -0.015297697 0.06272529 0.051361762 0.047554176 0.07802703
-0.041639235 -0.0620647 0.047959853 0.036966078 0.09703034 0.026955822 -0.03828375 -0.021798676

linear.weight f4 [24, 128]
00000000: e6e8 6e3d 5f47 963d a058 04bd 3311 02be
00000010: 2105 8dbd 2ba3 b8bd 7e39 cebc c052 84bc
00000020: e9d3 573d b800 b3bc bb0a d9bd 2bd6 fcbb
00000030: 15ce 04be e601 96bd eea2 85bc f5e1 833b
00000040: a3da 843d 4cf5 223d 9b40 723d 7b5b 4dbd
00000050: 52a8 643d 5310 823b 9e90 3b3e 0d75 be3d
00000060: ec3f 423d 9b6e c33d 4ddb ffbd 6c38 d33d
00000070: 2bf1 983d 705f e93d 92ea cf3d 8e1e e4bd
00000080: 74ef c5bc b388 6a3d ebce fc3a ad0e 47bd
00000090: 2074 2c3d 3bee 513d 7ff6 8b3c 7795 633d
000000a0: b91f 253b 5014 c63c 82e5 8fbd fe76 e73c
000000b0: a047 a43c a654 b2bd 5905 8f3d 323a 67bd
000000c0: 3300 b63d 51d3 b1bd 6260 aabd 1dcd cbbd
000000d0: 4bc1 3a3b 33c1 8abd 6942 133d 3e98 c9bd
000000e0: 31c1 82bd 29b0 8abd d31d 4c3e ec5a ecbc
000000f0: 556b 87bd a6fe f1bd 27b6 9cbc e7ce d0bd
00000100: e2cf 7bbd b76e d6bc 30f3 5abd 7ac8 c0bd
00000110: 6dc8 613d 1d38 3cbb 9020 943d 86cd 9cbc
00000120: b3cf e83d 9f07 b8bd ea5b a63d e47a 3cbd
00000130: 3c1f b33d 7b01 f03a 8015 6abd 8107 a0bc
00000140: a00b 253d 7af3 29be 0f4f 92bd 4495 8f3d
00000150: 00d9 a43d 561f dcbd 35c0 ed3c 0d63 50bd
00000160: f8e6 823d e62f 62bd 162c b1bd 1e21 563c
00000170: ed61 6cbb 2093 c53d 065e a03d a0c2 90bb
00000180: ce4b 3abd c4c5 63bd b945 19bc 7d2a 11bd
00000190: de04 6fbd e778 ffbb ea14 d43d de6b f03d
000001a0: 39a2 773d c5af 873d 75fb 133d 3f08 7dbc
000001b0: f402 c53d 153b 52bc 82a1 03bd e9bf 95bc
000001c0: b5fd 00be 2579 b1bc e612 0cbd 55a1 8e3d
000001d0: ecba 86bd 0264 99bd b89d 5bbd 6e09 31bd
000001e0: ca07 cfbd 556b 9a3d e6f1 0cbd 3d79 d6bd
000001f0: 49c7 f13c 8ecb 4cbb 7e79 813d 0429 143c
00000200: 919a 4e3d 796b 5cbd 4049 9dbd a193 a0bc
00000210: 92ea a0bd fac2 b0bc f87a 90bd 1732 dfbb
00000220: 2017 96bd 9b91 8f3d 9e8b 4d3d e846 0dbc
00000230: 8e02 f7bd 7b2d 0a3c 70e8 093c 83f6 a2bd
00000240: af20 c63d e31a bebd c222 89bc a39d fabb
00000250: 294f 8fbb 333e 94bd 8b3b 463e 513c 73bb
00000260: 90ea acbd 9139 1fbd 0e5b 0bbe 7bee c43d
00000270: 7c83 82bd 85b6 753d 5b91 933d bb1d 02be
00000280: 5f43 a23d b26d 473b 4c08 4a3c 589c 983d
00000290: be6b d0bd 6513 ea3b 977d 7bbd 32e4 9a3b
000002a0: 7382 c9bd 2727 c13d 0f63 5c3d 8016 5f3a
000002b0: 3495 163e ff81 85bd 84d7 35bc 1979 f239
000002c0: cbb6 b13d c6e3 43bd fcf9 543d 44be aabd
000002d0: 0326 143d e08f 1d3d e025 a83d 8241 e7bc
000002e0: e557 57bd 7741 373d 1ef9 cf3d c77d bc3c
000002f0: 1ac7 84bd 2f09 6cbd f18e 91bb 12be b7bd
00000300: 3b45 2ebd de6c e63d 1b9b e0bd 5cef 9ebd
00000310: a69f b13c a9e6 d53d 433f 5b3c 9abc dc3c
00000320: 7818 d33d 894b d7bd c64b 0dbd 1d09 dcbb
00000330: 39cd 853d 237c 013d f9d1 4dbd ad68 eb3c
00000340: f36d 8e3d e4aa c3bd 0da8 b5bd 42f5 ab3d
00000350: 0102 8f3d 9519 b0bd 852b f1bd c903 033d
00000360: 7916 82bd 1280 8a3d 63a4 14bd 2591 843d
00000370: f501 543d 18c8 003c 5b47 db3d e3cf 783d
00000380: f54b 963d 0ab9 0dbe e530 49bd c9bd d13d
00000390: 7fce b5bd e9b4 c9bc de8e 5d3d 1f4d f43c
000003a0: 9368 c53d 21e5 d73d 30b9 c7bd 0034 2abc
000003b0: b651 b93d 662b 5abd 9ecd a23d f3a7 04bd
000003c0: 950f 2c3b e2df f6bc 92be 333d 5c18 383d
000003d0: 7ed2 083d fa26 e7bc e575 3d3d 669a ce3c
000003e0: 1477 b1bd a833 0c3e daf2 e03d d835 0f3c
000003f0: 3e45 02bc 906e 51bd f480 b03d 3a9c 5f3c
0.058327578 0.07337832 -0.032311082 -0.12701873 -0.06885744 -0.09015497 -0.025173899 -0.01615274
0.052692328 -0.021850929 -0.1059775 -0.0077159605 -0.12969239 -0.07324581 -0.016313042 0.004024739
0.06487014 0.039784715 0.059143644 -0.05013607 0.055824585 0.003969231 0.18316886 0.092996694
0.047424242 0.09542581 -0.12493 0.10313496 0.07467874 0.113951564 0.101521626 -0.1113864
-0.024162032 0.057259273 0.001928774 -0.04859798 0.042102933 0.051252585 0.017085312 0.055562463
0.002519591 0.024179608 -0.07026197 0.028254982 0.020053685 -0.08707552 0.06983442 -0.056451984
0.08886757 -0.086828835 -0.08319165 -0.09951232 0.002849656 -0.06775131 0.035952006 -0.09843491
-0.063845046 -0.06771881 0.19933252 -0.028851949 -0.06612269 -0.118161485 -0.019129826 -0.101957135
-0.06147755 -0.02617584 -0.053454578 -0.09413238 0.05512278 -0.002871997 0.07232773 -0.01914097
0.113677405 -0.089858286 0.08123 -0.046015635 0.08746192 0.0018310988 -0.05714941 -0.019534828
0.04029429 -0.16596785 -0.071439855 0.07010892 0.08049202 -0.10748164 0.029022316 -0.050875712
0.0639171 -0.05522146 -0.08650987 0.013069419 -0.003606911 0.096472025 0.078304335 -0.0044177324
-0.04548245 -0.055608526 -0.009355002 -0.03544091 -0.05835425 -0.007796395 0.103555515 0.11739324
0.060457442 0.06625322 0.03612848 -0.015443861 0.09619704 -0.012831469 -0.032136448 -0.018279986
-0.12596782 -0.021664212 -0.03419771 0.069643654 -0.06578621 -0.07489778 -0.05361721 -0.043221883
-0.101089075 0.07540003 -0.03441038 -0.10472343 0.029513972 -0.0031249258 0.06322001 0.009042982
0.050440375 -0.05381343 -0.07679987 -0.019601645 -0.07857241 -0.021577347 -0.070547044 -0.006811391
-0.073286295 0.07010194 0.050181977 -0.008622862 -0.12061034 0.008433695 0.008417234 -0.07957175
0.09674203 -0.09282472 -0.016740207 -0.0076481863 -0.0043734503 -0.07238426 0.19358651 -0.0037114809
-0.08443177 -0.03887326 -0.13608953 0.09615799 -0.06372735 0.059988517 0.07205459 -0.12706654
0.07923006 0.0030430374 0.01233108 0.07451695 -0.101768 0.0071434253 -0.06139907 0.00472691
-0.09839334 0.09431296 0.053805407 0.00085101277 0.14705354 -0.065189354 -0.011098746 0.00046248062
0.08677443 -0.047824644 0.051996216 -0.083370715 0.036169063 0.038467288 0.08210349 -0.028229479
-0.052574057 0.044740167 0.10154937 0.023009194 -0.06483288 -0.057625946 -0.004442089 -0.089718
-0.042546492 0.112512335 -0.10967084 -0.07760498 0.021682572 0.104443856 0.013381782 0.026945401
0.103074014 -0.10512454 -0.03449609 -0.0067149536 0.06533284 0.031612527 -0.050249074 0.028736437
0.06954565 -0.09554079 -0.08869944 0.083963886 0.06982804 -0.085986294 -0.11775879 0.03198603
-0.063519426 0.06762709 -0.036289584 0.064729966 0.05175968 0.007860206 0.10706969 0.06074513
0.073387064 -0.13840118 -0.049118895 0.10241277 -0.08877277 -0.024622397 0.054091327 0.02982193
0.096390866 0.1054175 -0.097521186 -0.010388374 0.09048788 -0.053264044 0.079493746 -0.03238673
0.0026254405 -0.030136053 0.043882914 0.044945106 0.033403866 -0.028216828 0.04625501 0.025220107
-0.086652905 0.1369158 0.1098382 0.008740865 -0.007951079 -0.05113083 0.08618346 0.013648087

linear.bias f4 [24]
00000000: 3001 413d 4703 763d a507 8d3d 683b 583d
00000010: 72d6 19bd 49d9 5a3d 2b1c 55bd 7bb3 ba3d
00000020: d081 c63d 17c6 373d 44f5 623d 42c6 b23d
00000030: f88b 8ebc f34b d73c 0be5 603d 5a95 c13d
00000040: 0d23 143d c346 e5bc cd55 6abd f069 cfbc
00000050: 09c3 51bd f72e c43d d06c 633c f050 813c
0.047120273 0.06006172 0.06886224 0.05279103 -0.037558027 0.053429876 -0.052028816 0.091162644
0.096927285 0.044866648 0.055409685 0.08729221 -0.017400727 0.026281333 0.054905932 0.09452315
0.03616624 -0.027987843 -0.057210732 -0.02531907 -0.05121139 0.0957927 0.013880923 0.015785664
