models/Basel_QNN_2026-02-03_49e_8h_5l.pth (torch, 3157 bytes, 3 tensors)

qlayer.weights f4 [5, 8, 3]
00000000: 02e8 c03f ee0e 4c40 adaa 2a40 1ef1 c83f
00000010: d7b3 2a3f bfa4 5f40 93d7 cf3f d949 d53f
00000020: d9fe 973f b16e 3a3f fe4e a240 9d58 1640
00000030: 2eb8 133f eb16 ba40 5df4 2c40 ccce e43f
00000040: d41d c93f b750 de3e 623a d13d 67a2 e93f
00000050: 45c6 e93f 11ef d43f 74b8 9d40 e6d3 473f
00000060: 7de2 6740 573f 7540 fe6a 0b40 f091 3940
00000070: 93cc ea3e 5eb1 7e40 6c38 3f40 62d5 a540
00000080: 65b5 6040 a21e b140 9992 1540 a1a9 aa3f
00000090: c6ab 093f c622 1e40 941a 853e f8be 8b40
000000a0: f3ae bf40 ec5b c93f 4d00 9840 2cdd 9940
000000b0: d633 4440 6a14 5240 8965 ad3f 96e4 4940
000000c0: 8cf1 2840 e04f 9640 4090 5a40 4344 5840
000000d0: b6d6 343e 28c2 8b40 1682 bf3f 4b7d 533f
000000e0: 34a4 7abe 282d ba40 3b5a a940 099a e73d
000000f0: 1cf9 a73f 2b08 8d40 2cd4 723f ff21 be40
00000100: 35ac 6740 1ad0 3940 32ae 873f 6d18 be40
00000110: 6ec0 2040 5eb7 8440 1697 4540 48c0 ff3f
00000120: d667 5140 9fc6 d03f 9965 543f 10a9 3640
00000130: 9d9b c33f 6a5b 31be 6c28 0a3f 94dc 1d40
00000140: e947 b43f ec71 9d40 9b7a cb40 7849 8140
00000150: 5309 0040 0c31 bf40 93ab 6b3f 6ccf 9740
00000160: a4b5 953f de40 c23f a7c3 4740 a346 3140
00000170: 08b1 4040 5925 143e 2b1c 9840 0ea1 3e40
00000180: 41ab 703f 4176 9240 604f b740 473b 1a40
00000190: fefa 8040 36e6 b340 26c7 ac40 8065 ab40
000001a0: 6ad7 0840 289a 1040 675a 4a40 6c4e a13e
000001b0: 429f 3e40 9c45 ca3f 9d1b c13f 8fc7 5d40
000001c0: 3ee9 ad40 8d5d 7f3f d5be b040 3f88 b940
000001d0: d7af 1440 88d0 6940 ee2b 9b40 4bfc 4240
1.5070803 3.1884112 2.6666672 1.5698583 0.66680664 3.4944303 1.6237663 1.6663162
1.1874648 0.7282515 5.0721426 2.3491585 0.5770291 5.8152976 2.7024148 1.7875609
1.5712228 0.43420956 0.10216214 1.8252686 1.8263632 1.6635457 4.9287663 0.78057706
3.6231987 3.831991 2.1784053 2.8995323 0.45859203 3.9795756 2.9878187 5.1822977
3.5110714 5.5349894 2.3370726 1.3333017 0.5377773 2.4708724 0.2599684 4.3670616
5.990106 1.5731177 4.7500367 4.8082485 3.0656638 3.282496 1.3546611 3.1545768
2.6397429 4.6972504 3.4150543 3.3791664 0.1766003 4.3674507 1.4961574 0.82613057
-0.24476701 5.818012 5.2922645 0.11308677 1.3122897 4.407247 0.94855 5.94165
3.6198857 2.9033265 1.0600035 5.9404817 2.511745 4.1473837 3.0873466 1.9980555
3.2719626 1.6310614 0.82967526 2.8540688 1.5281864 -0.17320028 0.5396793 2.466588
1.4084445 4.9201565 6.3587165 4.0402184 2.000569 5.974737 0.92058676 4.74407
1.1696057 1.5176046 3.1213167 2.7699363 3.0108051 0.14467372 4.7534385 2.97858
0.9401131 4.5769353 5.7284393 2.409868 4.0306387 5.621852 5.39931 5.35614
2.1381478 2.259409 3.1617677 0.31505144 2.9784703 1.5802493 1.5086552 3.465305
5.434722 0.9975212 5.523295 5.7978816 2.3232324 3.6533527 4.8491125 3.0466487

lin.weight f4 [8, 8]
00000000: b05d aebe 215c 933f defc 423f ff0f d0bf
00000010: 1fd9 eebe aff2 1cbf b627 843f b1aa 123f
00000020: 5c88 86bf 936e 803f 897d a23e a56b ecbf
00000030: 5cb9 fcbe a060 11bf 7f19 b63f d946 173f
00000040: cfb1 d2bf 862b 723f c033 d93e 662f c0bf
00000050: 0b0d 42bf 172b 19bf dcb1 d63f 13cc 84be
00000060: dd3c 18c0 3ec5 4d3f c897 103e 4cb6 fdbf
00000070: d5db f6be 29ca 19bf 6105 c93f 881a 3fbf
00000080: fea7 37c0 1018 383f 4deb 043f 1138 58bf
00000090: 8532 7bbf ab13 59bf 2000 eb3f 2ce3 90bf
000000a0: cbee 6bc0 d862 c93e 6c7f 483e 6f90 92bf
000000b0: e6b9 3dbf 6c11 12bf ca7c c03f efa1 57bf
000000c0: 4c82 81c0 d5e4 4b3e c449 ef3d 7b26 0cbf
000000d0: a161 6ebf 738c 6dbf 4451 ba3f 1161 22bf
000000e0: ddb1 90c0 39d9 a8bd e152 0bbe d5c1 fabe
000000f0: d04c 63bf cf5f 4fbf 8f17 803f 22fa b8be
-0.34055853 1.151249 0.76167095 -1.6254882 -0.46650025 -0.61307806 1.0324619 0.57291704
-1.0510364 1.0033745 0.317364 -1.847035 -0.49360168 -0.56788063 1.4226531 0.5909248
-1.6460513 0.9459766 0.42422295 -1.5014465 -0.7580115 -0.59831375 1.6773028 -0.25936946
-2.3787148 0.8037909 0.141204 -1.9821258 -0.48214594 -0.60074097 1.5704767 -0.7464986
-2.8696284 0.71911716 0.5192154 -0.8446055 -0.9812396 -0.84795636 1.8359413 -1.1319327
-3.6864498 0.39333224 0.19579858 -1.1450328 -0.74111784 -0.57057834 1.5038083 -0.84231466
-4.0471554 0.19911511 0.116839916 -0.54746217 -0.9311772 -0.92792434 1.455605 -0.6342936
-4.521712 -0.08244557 -0.13605835 -0.48976007 -0.8878908 -0.8100557 1.000719 -0.36128336

lin.bias f4 [8]
00000000: 4037 ca3c 27fc d1bc 06b8 96bd 178d a4bd
00000010: d2f1 c2bd 0176 6abd 215b 71bd 11f7 0fbd
0.024684548 -0.02563293 -0.073593184 -0.08034723 -0.0951878 -0.057241444 -0.058924798 -0.03514773
