models/Basel_QNN_2026-02-06_49e_1h_3l.pth (torch, 2736 bytes, 2 tensors)

qlayer.weights f4 [3, 8, 3]
0	0x40833ede	4.101424
1	0x4085be3d	4.1794724
2	0x4082921a	4.0803347
3	0x3f9d9569	1.2311221
4	0x40462f15	3.0966237
5	0x3fb33e94	1.4003472
6	0x3fb5fb1b	1.4217256
7	0x3f8a609a	1.081073
8	0x4054f3df	3.3273847
9	0x40936fd9	4.6074033
10	0x4047f4df	3.1243207
11	0x40cfe677	6.496883
12	0xbace8001	-0.0015754701
13	0x40cc40fe	6.3829336
14	0x3f0abf3c	0.5419805
15	0x40861e02	4.191163
16	0x3ee93379	0.45547083
17	0x404cc446	3.1994796
18	0x403e1684	2.9701242
19	0x407193d4	3.7746477
20	0x4045fb63	3.0934684
21	0x3f93c8d4	1.1545663
22	0x407cef2d	3.9520981
23	0x40ae7ef0	5.4529953
24	0x3fab146f	1.3365611
25	0x40a94c67	5.2905765
26	0x3fa625c5	1.2980276
27	0x40c14b3e	6.040435
28	0x3ffa6a80	1.9563751
29	0x3fabdc92	1.3426688
30	0x3f18a2c8	0.59623384
31	0x3fafb974	1.3728471
32	0x3fcf5927	1.6199082
33	0x403b7f20	2.929634
34	0x3f43ce26	0.7648643
35	0x4081c6a6	4.055499
36	0x40ac4f39	5.3846707
37	0x400e6210	2.2247353
38	0x3fc32df7	1.5248402
39	0x401b6a65	2.4283688
40	0x3fab6197	1.3389157
41	0x408d52a5	4.4163384
42	0x407d37e5	3.9565365
43	0x40240c0f	2.563236
44	0x4017e11f	2.3731153
45	0x3ddf1a8d	0.10893736
46	0x404dffe8	3.2187443
47	0x3fc7435e	1.5567434
48	0x3ff9ea8f	1.9524707
49	0x3f880a10	1.0628071
50	0x3f4c23ee	0.79742324
51	0x406ff7bf	3.7494962
52	0x4017f035	2.374036
53	0x3ff64bf0	1.9241924
54	0x3fbd4227	1.4785813
55	0x406808a1	3.6255267
56	0x409a492a	4.821431
57	0x3f97bd81	1.1854707
58	0x40e06905	7.01282
59	0x40b52bc4	5.6615925
60	0x4092f37f	4.5922236
61	0x40975921	4.72963
62	0x4094cf4c	4.650305
63	0xbb00bf4a	-0.0019645267
64	0x40b65a8a	5.698552
65	0x4089cf66	4.306567
66	0x404da1cb	3.213
67	0x408f3a4f	4.4758677
68	0x3ffef16c	1.9917426
69	0x4064ad41	3.5730746
70	0x407cae1f	3.9481275
71	0x3ffb3f82	1.9628756

lin.weight f4 [1, 8]
0	0x3fa8f7ff	1.3200682
1	0xbc59e0ad	-0.013298196
2	0xbeb5e154	-0.35523474
3	0xbfc486dd	-1.5353657
4	0x3fa85b66	1.3152893
5	0x3fd12ba4	1.6341443
6	0x3fcc8b40	1.5979996
7	0x3c01dd53	0.007926303
